reskill/results/saved_skill_models/fetch_block_40000/skill_vae.pth (torch, 467580 bytes, 34 tensors)

weight_ih_l0 f4 [512, 29]
0	0xbcfd14bf	-0.030893682
1	0xbd952b5d	-0.072836615
2	0xbd72ba31	-0.059259597
3	0x3d27e1ea	0.040986933
4	0x3d4a87e8	0.049446017
5	0x3d8aec2f	0.0678333
6	0x3cb1e755	0.021716753
7	0x3d62950a	0.055317916
8	0x3d057dac	0.032590553
9	0x3cdc15ea	0.026865918
10	0x3b63772a	0.0034708478
11	0x3d62c365	0.055362124
12	0xbd823fec	-0.063598484
13	0x3d68301f	0.056686517
14	0xbd09227b	-0.03348015
15	0xbdac7097	-0.08419912
16	0x3d07545c	0.033039436
17	0xbd4d4690	-0.05011612
18	0xbd96bf13	-0.07360663
19	0xbd3bdaa9	-0.045862827
20	0xbd9d371b	-0.07676526
21	0xbcfa47e1	-0.030551853
22	0xbc9e064f	-0.019290118
23	0xbca8b226	-0.02059276
24	0xbd3eea7e	-0.046610348
25	0x3d1277ad	0.035758663
26	0xbda73dde	-0.08166097
27	0xbd262668	-0.04056397
28	0x3d7ca9fd	0.06168555
29	0xbd8a85d5	-0.06763808
30	0xbd599eb6	-0.053129874
31	0x3cb17c26	0.021665644
32	0xbd03b217	-0.03215226
33	0xbd2bb7e7	-0.04192343
34	0x3c58dd98	0.013236426
35	0xbb3d43e7	-0.0028879584
36	0xbdb6f68f	-0.08933746
37	0xbb058e9a	-0.0020379187
38	0x3dae8a5f	0.08522486
39	0x3c4c34cd	0.012463761
40	0x3d797f00	0.060912132
41	0xbccd93eb	-0.025094947
42	0x3d2bf87b	0.041985016
43	0x3d2fc61d	0.042913545
44	0xbdb2c8a3	-0.08729675
45	0x3d88f2b7	0.06686919
46	0xbd8d3f68	-0.068968594
47	0x3d9b5288	0.07584101
48	0x3baf0188	0.0053407587
49	0x3d7298a3	0.059227597
50	0xbcca868a	-0.024722356
51	0x3d717231	0.058946792
52	0x3a8e268b	0.0010845227
53	0x3c8f79cd	0.017514134
54	0xbda94870	-0.082657695
55	0xbd67ccd1	-0.056591813
56	0xbd19b415	-0.037525255
57	0xbda70ace	-0.08156358
58	0xbd3e86bd	-0.046515215
59	0xbb3d13a5	-0.002885082
60	0x3ce0540b	0.027383825
61	0xbd71c84c	-0.05902891
62	0x3b618bcf	0.0034415608
63	0x3d851874	0.06498805
64	0x3d256b76	0.040385686
65	0x3cd9c5d5	0.026583591
66	0x3da0bcf6	0.078485414
67	0xbd2977dd	-0.041374076
68	0x3d127090	0.03575188
69	0x3db9f5f9	0.09080119
70	0xbb806f7e	-0.003919541
71	0x3ccf67b9	0.025318014
72	0xbd3fcbe3	-0.0468253
73	0x3da5a9b0	0.08089006
74	0x3cabf9b2	0.020993087
75	0x3ca587d4	0.02020637
76	0x3b667d86	0.0035170033
77	0x3d738805	0.05945589
78	0xbd8ecb9c	-0.06972429
79	0xbd34e240	-0.04416108
80	0xbc7e7d5f	-0.0155328205
81	0x3d9d8129	0.07690651
82	0x3d6160cf	0.055023964
83	0x3d88dd79	0.066828676
84	0xbd11cb1c	-0.03559409
85	0xbdaace4b	-0.083401285
86	0x3c0e2b43	0.008677307
87	0xbcd4e9e4	-0.025990434
88	0x3d587e02	0.052854545
89	0xbd2e7aff	-0.042597767
90	0x3b5f72ca	0.003409552
91	0xbcde3a26	-0.027127337
92	0x3d8d1ece	0.06890641
93	0x3d91aca7	0.07113009
94	0x3c8cee7b	0.01720356
95	0xbcd2fa1d	-0.025754029
96	0x3b54d1f1	0.0032473768
97	0xbd586a14	-0.05283554
98	0x3d2e410c	0.042542502
99	0x3d9f468a	0.07777126
100	0xbbd295b3	-0.006426537
101	0xbd8d52c4	-0.06900552
102	0xbd427005	-0.04747011
103	0x3ca9f193	0.020745074
104	0x3daf742c	0.0856708
105	0xbd78b36b	-0.06071798
106	0xbac3bb94	-0.0014933222
107	0x3a814845	0.0009863457
108	0xbc857906	-0.01629306
109	0xbd12fde7	-0.03588667
110	0xbda0a2e0	-0.07843566
111	0xbcfa19ef	-0.030529944
112	0x3dac14ed	0.08402429
113	0x3d891c75	0.06694881
114	0xbd3a741e	-0.045520894
115	0x3d75ca5d	0.06000744
116	0x3c001a58	0.007818781
117	0x3d3169c7	0.043313768
118	0xbd7ab131	-0.06120414
119	0xbd8b54bf	-0.068032734
120	0xbb5c0ae1	-0.003357582
121	0xbd999ec4	-0.07500985
122	0xbd8cf2ec	-0.06882271
123	0x3d2cb546	0.042165063
124	0xbd4ca6e5	-0.04996385
125	0xbd345500	-0.044026375
126	0xbd521de1	-0.051298026
127	0x3d9ae7cb	0.07563742
128	0x3d9289d9	0.071551986
129	0x3d91b30e	0.0711423
130	0x3b65022b	0.003494392
131	0xbd9f3c7b	-0.077752076
132	0x3da8104b	0.08206233
133	0xbcb382ee	-0.021913018
134	0xbd4124b4	-0.047154143
135	0xbd747348	-0.059680253
136	0xbc91f1d4	-0.017815508
137	0xbd2499e8	-0.04018584
138	0x3cb758e8	0.022381261
139	0xbda78ea5	-0.08181504
140	0x3da97bd5	0.08275572
141	0x3c8747e1	0.016513767
142	0x3c9f81ee	0.019471135
143	0xbcfc72fc	-0.030816548
144	0xbc4f5455	-0.012654384
145	0xbb772f55	-0.003771742
146	0xbce3cc01	-0.027807238
147	0x3dab41b6	0.08362143
148	0xbc38f9db	-0.011290039
149	0xbd862979	-0.06550879
150	0x3d80ba14	0.062854916
151	0x3d11bacc	0.035578534
152	0xbc0dfa52	-0.008665638
153	0x3b2e2c23	0.00265766
154	0x3d7983ef	0.060916837
155	0x3daaf168	0.08346826
156	0xbbc9e3fb	-0.0061612106
157	0xbccfbab2	-0.025357578
158	0xbd2b7c27	-0.041866448
159	0x3d8e32d7	0.06943291
160	0x3d9a2be2	0.07527901
161	0x3d5b0007	0.053466823
162	0x3ce9964a	0.028514046
163	0xbc556a28	-0.013025798
164	0xbd102719	-0.035193536
165	0x3d7aba0c	0.061212584
166	0x3d22d32a	0.039752163
167	0xbbd4c360	-0.006493017
168	0xbda020c1	-0.07818747
169	0xbdaca066	-0.08429031
170	0x3d0d4726	0.03449168
171	0xbda70ce1	-0.08156753
172	0x3d568fb4	0.05238314
173	0xbcc20e6e	-0.023688521
174	0xbd061944	-0.03273894
175	0xbd01e95f	-0.0317167
176	0xbd958204	-0.07300189
177	0x3dab4bce	0.08364068
178	0x3da1e95c	0.07905838
179	0x3d281f49	0.04104546
180	0x3c4c7355	0.012478669
181	0xbda7b1f8	-0.08188242
182	0xbda17819	-0.07884235
183	0xbd2251b0	-0.039628685
184	0xbd96f5e3	-0.07371118
185	0xbd0718a4	-0.032982484
186	0xbd0cbbf6	-0.03435894
187	0x3d95311a	0.07284756
188	0xbdab6afb	-0.08370014
189	0xbd551a9f	-0.05202734
190	0xbcde3459	-0.02712457
191	0x3d4bbf4f	0.049742993
192	0xbda9a2ac	-0.0828298
193	0x3daa0a09	0.08302695
194	0xbbfa4469	-0.0076375497
195	0x3d41f8ef	0.047356542
196	0xbda0d1a5	-0.078524865
197	0x3dab3ae6	0.08360843
198	0xbd992e15	-0.074794926
199	0x3d46d13a	0.048539378
200	0x3d8ac88f	0.06776535
201	0xbd37849a	-0.044804193
202	0x3d27b109	0.04094032
203	0x3d938f9d	0.072051264
204	0xbd28bccd	-0.04119568
205	0xbd15b14b	-0.036546033
206	0xbdcc693f	-0.099810116
207	0xbd480725	-0.04883494
208	0x3db35962	0.08757283
209	0xbd239ed0	-0.039946377
210	0xbc08aa70	-0.008341417
211	0xbd6c5d91	-0.05770642
212	0x3d7d49a1	0.061837796
213	0x3d9ec50c	0.077524275
214	0xbce3ad9f	-0.02779275
215	0x3ca25c78	0.019819483
216	0xbd6b1417	-0.057392206
217	0x3db341f7	0.08752816
218	0xbc705b82	-0.014670255
219	0xbdac6544	-0.084177524
220	0xbca48be0	-0.020086229
221	0x3da137ff	0.078720085
222	0xbd5de478	-0.054172963
223	0x3c8f72d2	0.017510805
224	0xbd39232c	-0.04519956
225	0xbb9b89b6	-0.004746641
226	0xbd50d718	-0.05098638
227	0x3b8fc477	0.004387434
228	0x3da16a0f	0.07881557
229	0xbd1fd2cf	-0.039019402
230	0x3d56416c	0.052308485
231	0x3ce9f96f	0.028561322
232	0x3c2c84a1	0.010529668
233	0x3ce1cd81	0.027563812
234	0x3da6aec4	0.08138803
235	0x3d29d3a3	0.041461598
236	0x3d768d94	0.060193613
237	0x3c8da015	0.017288247
238	0xbd1afdee	-0.037839822
239	0xbd935398	-0.071936786
240	0x3dab4dfd	0.083644845
241	0x3d984c98	0.07436484
242	0x3d3398b6	0.04384681
243	0xbd8b9b0b	-0.068166815
244	0x3da65dfc	0.08123395
245	0xbd12c41c	-0.035831556
246	0x3c6456ac	0.01393668
247	0xbb8f9e57	-0.0043828893
248	0x3d6a8020	0.057251096
249	0xbd8ab238	-0.06772274
250	0xbd807a2a	-0.06273301
251	0x3d9b9c77	0.07598203
252	0x3da0e866	0.078568265
253	0x3d240893	0.04004724
254	0xbd8249ff	-0.0636177
255	0x3c9eb644	0.01937402

weight_hh_l0 f4 [512, 128]
0	0xbc167b03	-0.009184602
1	0xbd8298c6	-0.063767955
2	0x3d54feba	0.05200074
3	0xbcc4a712	-0.024005447
4	0xbc74779b	-0.014921094
5	0xbc8eb49a	-0.017420102
6	0x3d577aac	0.052607223
7	0x3d966ab3	0.0734457
8	0x3dabf1b8	0.083957136
9	0x3d7de6b3	0.06198759
10	0xbd129ce7	-0.035794165
11	0x3d343c03	0.044002544
12	0x3d77a872	0.060463376
13	0x3c97ad5a	0.018515278
14	0x3cdddb92	0.027082238
15	0x3cca8e65	0.024726102
16	0x3c6b810c	0.014374029
17	0x3b6f9ce2	0.0036562015
18	0x3da38ab1	0.07985438
19	0xbcef2e68	-0.029196933
20	0xba23a2a9	-0.0006242195
21	0xbd0cac3b	-0.03434394
22	0xbd1b642f	-0.03793734
23	0xbdb382b8	-0.08765167
24	0x3d7e2f56	0.06205686
25	0xbd8faee9	-0.07015783
26	0xbdaf9284	-0.085728675
27	0x3d892b44	0.066977054
28	0x3d5c80b2	0.05383367
29	0x3d80ea07	0.06294637
30	0xbdacd31c	-0.084387034
31	0x3daf9648	0.08573586
32	0xbd9afc37	-0.075676374
33	0xbd4a7d52	-0.04943592
34	0xbc1b4807	-0.009477622
35	0xbda0e3de	-0.07855962
36	0xbc4bc5f9	-0.012437337
37	0x3c40a0d8	0.011757098
38	0x3c1e10db	0.009647573
39	0xbd16b336	-0.036792003
40	0x3cee0ca9	0.029058771
41	0xbca5024a	-0.020142693
42	0xbda5703c	-0.08078048
43	0xbda6047a	-0.081063226
44	0x3b6d3ee3	0.0036200813
45	0x3d46c2bc	0.048525557
46	0xbd8f2774	-0.06989947
47	0xbb777844	-0.0037760893
48	0x3dad20d5	0.08453528
49	0xbdadd266	-0.08487396
50	0xbdbeb258	-0.0931136
51	0xbc699e91	-0.014258997
52	0xbcb947c5	-0.02261723
53	0x3d2d95dc	0.042379245
54	0xbcc1898d	-0.02362516
55	0xbda88054	-0.08227602
56	0xbc005914	-0.007833738
57	0x3d9d2c1a	0.07674427
58	0x3bf6dd21	0.007533685
59	0x3b8d343f	0.0043092067
60	0xbcfe4ea2	-0.031043354
61	0x3d92b1b8	0.071628034
62	0x3d303377	0.04301783
63	0x3d66c66d	0.056341577
64	0xbd81f89c	-0.063462466
65	0x3d7a0973	0.061044168
66	0xbd60b5ae	-0.054860763
67	0x3d94c6f7	0.07264512
68	0x3d9fdd78	0.07805914
69	0xbd15748b	-0.036488097
70	0x3c7cac97	0.015422008
71	0x3d65e5f2	0.056127496
72	0x3d9987c9	0.07496602
73	0xbd939fe2	-0.072082296
74	0xbd3da4a4	-0.04629959
75	0x3cc2018c	0.023682378
76	0x3d75998c	0.059960887
77	0x3bc61b49	0.006045733
78	0xbdc18543	-0.09449246
79	0x3d825dff	0.063655846
80	0x3d929146	0.07156615
81	0x3da687ea	0.08131392
82	0xbd65db31	-0.05611724
83	0xbd9847ff	-0.07435607
84	0x3ccbd82c	0.024883352
85	0x3d44dbed	0.0480613
86	0xbd63a930	-0.05558127
87	0xbda5c7f8	-0.08094782
88	0xbbced94e	-0.006312526
89	0x3d8bc818	0.06825274
90	0x3d9962e2	0.074895635
91	0xbcb0ef3a	-0.021598447
92	0x3d5354ca	0.051594533
93	0xbda4c04b	-0.080444895
94	0x3bd61b85	0.0065340423
95	0xbd0c0f52	-0.034194298
96	0xbb7be6ff	-0.0038437245
97	0xbd5c260e	-0.05374723
98	0xbd952cae	-0.072839126
99	0x3b8bed83	0.004270257
100	0xbd10bfdb	-0.035339218
101	0xbc0c65fb	-0.008569236
102	0xbd80b21c	-0.06283972
103	0x3b243a85	0.0025059294
104	0x3cddf63c	0.027094953
105	0xbd9cf7bc	-0.07664439
106	0xbc6a06bc	-0.014283832
107	0xbd256ca7	-0.040386822
108	0xbd341120	-0.043961644
109	0xbd8c7126	-0.06857519
110	0x3cc473de	0.023981031
111	0xbb83d6d1	-0.004023411
112	0x3da8f4d0	0.08249819
113	0x3c9ca346	0.019120824
114	0xbd6a9595	-0.05727156
115	0x3d38a479	0.04507873
116	0xbd874906	-0.06605725
117	0xbd9d7c53	-0.076897286
118	0x3da79b5f	0.081839316
119	0x3cd95ce6	0.026533555
120	0x3c996aea	0.018727738
121	0xbdae9c02	-0.0852585
122	0x3d97eeec	0.074186176
123	0xbd9ceed1	-0.07662738
124	0xbd523d8f	-0.051328238
125	0x3d451374	0.048114255
126	0xbd1a76b5	-0.037710864
127	0xbd42b9d2	-0.047540493
128	0x3db99f8e	0.09063636
129	0x3cbde073	0.023178315
130	0x3c9452af	0.018105833
131	0xbd9302d2	-0.07178272
132	0x3ccc9f05	0.02497817
133	0xbd0a80e2	-0.03381432
134	0xbd1ea098	-0.038727373
135	0xbdc30de6	-0.09524135
136	0xbd8a3de1	-0.06750084
137	0x3d5f9ba9	0.05459181
138	0x3d8c791e	0.06859039
139	0xbc199105	-0.009372954
140	0xbc925666	-0.017863464
141	0x3c577ff0	0.013153061
142	0xbc49c521	-0.012315066
143	0xbd8d77ac	-0.06907591
144	0xbbafcae6	-0.0053647636
145	0x3b315c0e	0.0027062926
146	0x3da1788b	0.0788432
147	0x3d2b69e2	0.041849025
148	0xbda01173	-0.07815828
149	0x3d679fca	0.05654887
150	0x3db05802	0.08610536
151	0x3ce5180c	0.027965568
152	0xbd9f09b4	-0.077655226
153	0xbd7109ba	-0.058847167
154	0xbd632f2a	-0.0554649
155	0x3d30ec2b	0.043193977
156	0x3d3662e1	0.044527892
157	0xbd99877f	-0.07496547
158	0xbda41b44	-0.08013013
159	0xbd5c56a8	-0.05379358
160	0x3d580c05	0.052745838
161	0x3d34faf3	0.044184636
162	0xbda8ff26	-0.08251791
163	0x3dbcc00d	0.09216318
164	0xbd8d1f60	-0.0689075
165	0xbd9398c0	-0.07206869
166	0x3c8bf345	0.017083773
167	0x3c9137e7	0.017726852
168	0x3d77015d	0.060304035
169	0x3d2bc59b	0.041936498
170	0x3d1b9fb1	0.03799409
171	0xbda12549	-0.0786844
172	0x3d8b8999	0.06813354
173	0xbc776263	-0.015099141
174	0xbd15be28	-0.0365583
175	0xbdc2a0e5	-0.095033444
176	0xbd8ff0b2	-0.07028331
177	0x3cfbcd33	0.030737495
178	0x3d91b536	0.07114641
179	0xbd14240d	-0.036167193
180	0xbd68a342	-0.05679632
181	0x3d290b29	0.04127041
182	0xbb966f87	-0.004590932
183	0xbda2cfcb	-0.079497896
184	0x3d228beb	0.039684217
185	0x3d11a3f9	0.035556767
186	0x3c593b05	0.0132587
187	0xbd9b9d97	-0.07598417
188	0xbda6bc87	-0.081414275
189	0xbd749b71	-0.059718553
190	0xbce78fee	-0.028266873
191	0xbd34724b	-0.04405431
192	0x3d5ae928	0.05344501
193	0x3d1b1bb4	0.037868217
194	0xbc5df862	-0.013547989
195	0xbd692976	-0.056924306
196	0x3d4f1dbb	0.050565463
197	0x3d8e4e5a	0.06948538
198	0xbd646bbb	-0.055766802
199	0x3c83704c	0.016044758
200	0xbcb55e37	-0.022139652
201	0xbcde5ee0	-0.02714485
202	0x3b9d6d3c	0.0048042815
203	0x3b801ecd	0.0039099217
204	0xbd8365a5	-0.064158715
205	0x3d12ce50	0.035841286
206	0x3d848147	0.0646997
207	0xbd399525	-0.04530825
208	0x3d932270	0.07184303
209	0xbb9436dd	-0.004523142
210	0xbcb3d694	-0.021952905
211	0xbd301c22	-0.04299558
212	0xbd7d113c	-0.061784014
213	0xbd8f35ad	-0.0699266
214	0xbd23599b	-0.039880376
215	0x3bc5254f	0.0060164104
216	0xbd9851b7	-0.07437461
217	0x3d99f0f3	0.075166605
218	0xbda01d7a	-0.07818122
219	0x3dbcbfbe	0.092162594
220	0xbd37de3d	-0.044889677
221	0xbd192126	-0.03738513
222	0xbc4c84c0	-0.012482822
223	0x3d5d3466	0.05400505
224	0xbdb1642d	-0.08661685
225	0xbd08e744	-0.033423677
226	0xbb879ba6	-0.004138428
227	0xbc3f39f5	-0.011671533
228	0xbd96f018	-0.07370013
229	0xbdbd5dc9	-0.09246404
230	0x3d324832	0.043525882
231	0x3ca1becb	0.019744297
232	0x3d2bd303	0.041949283
233	0x3d48571a	0.04891119
234	0x3b9fed6d	0.0048805983
235	0xbd834f66	-0.064116284
236	0x3d4d1259	0.050066326
237	0x3d3b6b37	0.045756545
238	0x3c851e91	0.016249927
239	0xbd85ec97	-0.065392666
240	0xbd2d08c4	-0.042244688
241	0x3d7d82b5	0.06189223
242	0xbd862172	-0.06549348
243	0xbd9a62aa	-0.0753835
244	0xbc7b2bcf	-0.015330269
245	0xbdaf22c2	-0.085515514
246	0x3d52c89b	0.051460844
247	0x3cb7868f	0.02240303
248	0x3d711f95	0.05886801
249	0x3d945c70	0.072441936
250	0xbc12ba8a	-0.008955607
251	0xbd73f430	-0.059559047
252	0x3d3cfc93	0.04613931
253	0xbdc0f904	-0.09422496
254	0x3d1e99b7	0.038720813
255	0x3d96331d	0.07333968

bias_ih_l0 f4 [512]
0	0x3c9f8f3a	0.019477475
1	0xbd3ee5e8	-0.046605974
2	0x3d258d79	0.040418122
3	0x3da5dc18	0.0809862
4	0xbc10ccb4	-0.0088378675
5	0x3d9843bc	0.07434794
6	0x3d7e8a73	0.062143754
7	0xbcc1c927	-0.023655487
8	0x3d2c5ede	0.04208266
9	0xbc7d9c76	-0.015479198
10	0xbc4380f4	-0.0119326
11	0x3c255208	0.010090359
12	0xbd063f09	-0.03277496
13	0xbcfa1d74	-0.030531622
14	0x3d46e85f	0.04856145
15	0xbd2eef22	-0.042708524
16	0xbd15b40f	-0.03654867
17	0xbd60fd15	-0.054928858
18	0x3d9f0f29	0.077665634
19	0x3ce276b4	0.027644493
20	0x3d308468	0.043095022
21	0xbd714b2c	-0.05890958
22	0xbd8d1ada	-0.06889887
23	0x3d6a48b4	0.05719824
24	0xbc38d23a	-0.011280591
25	0x3da67535	0.08127824
26	0xbd441238	-0.047868937
27	0x3cf55343	0.029946929
28	0x3d0c857d	0.03430699
29	0x3d02c9a5	0.031930584
30	0xbca53da8	-0.020171002
31	0xbda130a9	-0.07870609
32	0x3da42e0a	0.08016594
33	0x3bb83c45	0.005622419
34	0x3c7ebcf6	0.0155479815
35	0x3ce62f96	0.028098863
36	0xbce09de8	-0.027419046
37	0x3cb193e3	0.021676963
38	0xbce15306	-0.027505409
39	0x3d49ac2c	0.04923646
40	0x3d4d1c96	0.05007609
41	0x3d29f8a7	0.0414969
42	0x3ab8cde3	0.0014099445
43	0xbd36d9c6	-0.04464128
44	0x3d7bdd86	0.061490558
45	0xbd8230c0	-0.063569546
46	0x3c323c31	0.010878609
47	0x3cfd7fe6	0.030944776
48	0xbd200567	-0.039067652
49	0xbd88a9a7	-0.066729836
50	0xbcab23a0	-0.02089101
51	0x3c496ff5	0.012294759
52	0xbd176544	-0.03696181
53	0xbd31edca	-0.043439664
54	0x3d8be8b7	0.06831496
55	0x3da8e9ca	0.08247717
56	0x3db7402b	0.08947786
57	0xbcb75842	-0.022380952
58	0xbcbd6fb2	-0.02312455
59	0x3d8e73be	0.0695567
60	0x3d588985	0.052865524
61	0xbc7ee03d	-0.015556392
62	0x3d9a16a0	0.075238466
63	0x3dae5048	0.08511406
64	0xbd13de00	-0.036100388
65	0x3bce4714	0.0062950943
66	0xbd6bcd41	-0.057568792
67	0xb9b81f02	-0.00035118317
68	0xbd0e3db4	-0.034726813
69	0x3d39cc88	0.04536107
70	0xbad1afd3	-0.0015997834
71	0x3cdfbcb4	0.02731166
72	0xbda2dc6b	-0.07952198
73	0xbd13baef	-0.036066946
74	0xbd73c675	-0.059515435
75	0xbcd0704a	-0.025444169
76	0x3d050f9a	0.032485582
77	0x3b49ab6e	0.0030772346
78	0x3d7eb033	0.062179755
79	0xbc4251a3	-0.011860284
80	0xbbb78f1a	-0.005601776
81	0xbcfc2385	-0.030778656
82	0x3d269b2d	0.04067533
83	0xbcdea385	-0.027177582
84	0xbd60b623	-0.0548612
85	0x3dbcd939	0.092211194
86	0x3d51e880	0.05124712
87	0x3d9133c1	0.070899494
88	0x3c681d7e	0.014167188
89	0xbc92a23f	-0.01789963
90	0x3cd2f8d5	0.025753418
91	0x3d9d90f0	0.0769366
92	0x3cf83d54	0.030302681
93	0x3ce62d1d	0.028097684
94	0xbd4c1e0c	-0.049833342
95	0xbd21e403	-0.03952409
96	0xb95a47d6	-0.00020816861
97	0x3d38dc06	0.045131706
98	0x3dad9e0c	0.08477411
99	0xbd4e6f57	-0.05039915
100	0xbc98e76e	-0.018665042
101	0x3da97df9	0.082759805
102	0xbd70160d	-0.05861478
103	0xbd876132	-0.066103354
104	0xbd1eab70	-0.038737714
105	0xbd63d9fe	-0.055627815
106	0xbd8a24e3	-0.06745317
107	0xbd70f557	-0.058827724
108	0xbb7509cf	-0.003738988
109	0xbc967d56	-0.018370312
110	0xbd3b6f21	-0.045760278
111	0x3ce9ebd0	0.028554827
112	0x3cc494f8	0.023996815
113	0x3d584e7b	0.05280922
114	0x3d8e8777	0.069594316
115	0xbcaf178d	-0.021373535
116	0x3ad40109	0.0016174625
117	0x3dafab53	0.085775994
118	0x3db8e95e	0.09028886
119	0x3d458e19	0.048231218
120	0x3cc2dfb7	0.023788316
121	0x3b357b67	0.0027691962
122	0x3d6b76a1	0.05748618
123	0x3cd558ba	0.026043285
124	0x3d8f8e03	0.070095085
125	0xbc42806a	-0.011871437
126	0x3d86fbad	0.06590972
127	0x3cf7ff44	0.030273087
128	0x3d1550e4	0.036454096
129	0x3d5e7d89	0.05431894
130	0x3c9fd498	0.019510552
131	0xbdaf6333	-0.085638426
132	0x3b675684	0.003529937
133	0x3d22e0f9	0.039765332
134	0x3bb4c5f6	0.005516763
135	0x3db43eb0	0.08801019
136	0xbd15f788	-0.036613017
137	0x3d69021c	0.056886777
138	0xbc630097	-0.013855121
139	0x3b885b68	0.004161287
140	0xbd07ff66	-0.03320255
141	0x3d24b9c2	0.040216215
142	0xbd98155e	-0.074259505
143	0x3cb33f30	0.021880716
144	0xbca54aeb	-0.020177325
145	0x3d86e74e	0.065870866
146	0x3d8e935a	0.06961699
147	0x3d70683b	0.058693152
148	0x3d5ba5fe	0.0536251
149	0xbcc26126	-0.023727965
150	0xbc1c6d01	-0.009547473
151	0xbd64b2df	-0.055834647
152	0x3d86261b	0.06550237
153	0x3cc237aa	0.023708183
154	0x3d6dc8b4	0.058052734
155	0xbda584fc	-0.080820054
156	0xbd9c6716	-0.076368496
157	0x3cab1355	0.020883242
158	0x3cc710f5	0.024300078
159	0xbd3b09fc	-0.04566382
160	0xbd28a250	-0.04117042
161	0x3bb97861	0.0056601022
162	0xbc6eb802	-0.014570238
163	0xbcf43413	-0.029809987
164	0x3b3bc167	0.0028649212
165	0x3d284b62	0.041087516
166	0xbd388d5e	-0.045056693
167	0x3baefd83	0.0053402795
168	0xbc818502	-0.015810493
169	0x3d702d5a	0.058637
170	0xbcec57e2	-0.0288505
171	0x3d85dec7	0.06536632
172	0xbcb26673	-0.021777367
173	0x3ca8dd97	0.020613475
174	0x3d8c4548	0.06849152
175	0xbcb946c3	-0.02261675
176	0x3ccf5a5e	0.025311645
177	0xbc7e6362	-0.015526624
178	0x3c945a77	0.018109543
179	0x3da68930	0.08131635
180	0xbcd2ac13	-0.025716817
181	0x3dc1ebb7	0.09468787
182	0xbca95f62	-0.020675365
183	0x3bdc1e09	0.0067174477
184	0x3d0af746	0.033927225
185	0x3db77ccc	0.0895935
186	0x3d9e2dd1	0.077235825
187	0x3d9fe8a9	0.07808048
188	0x3d64396e	0.05571883
189	0xbd656284	-0.056002155
190	0x3b718923	0.0036855421
191	0xbc42f034	-0.011898089
192	0x3d304ab2	0.043039985
193	0xbd905386	-0.07047181
194	0xbdb16d78	-0.08663458
195	0x3d67a3fa	0.056552865
196	0xbc4e1d62	-0.012580248
197	0xbb6ead91	-0.0036419372
198	0xbc96d5a6	-0.018412422
199	0x3d345059	0.044021938
200	0x3d298b59	0.041392658
201	0x3d2fff89	0.042968307
202	0xbd924ec4	-0.071439296
203	0x3d777c59	0.06042132
204	0xbd87c141	-0.06628657
205	0xbc6a9a2a	-0.014318982
206	0xbd40a8d0	-0.047035992
207	0x3c4f49d8	0.012651883
208	0xbc9f1c77	-0.019422753
209	0xbc89e83e	-0.016834375
210	0x3d9a48fe	0.075334534
211	0xbd900ff3	-0.07034292
212	0x3d9419b4	0.07231465
213	0x3d74abe2	0.059734233
214	0x3c068190	0.008209601
215	0x3c395221	0.011311085
216	0xbd5d7600	-0.05406761
217	0xbd11f04d	-0.03562956
218	0xbbce99dc	-0.0063049626
219	0xbd087307	-0.033312824
220	0xbcb9207f	-0.022598503
221	0xbbf53268	-0.0074828155
222	0xbc6bf0e5	-0.014400695
223	0x3d9f9012	0.07791151
224	0x3d37f72c	0.044913456
225	0xbd10dcdd	-0.03536688
226	0xbd6e7546	-0.05821731
227	0xbc3be792	-0.011468785
228	0x3d95a88c	0.073075384
229	0x3daa43fd	0.08313749
230	0x3d4e7508	0.05040458
231	0xbd7f6fdf	-0.062362548
232	0x3d9d4bf6	0.07680504
233	0xbd8ecd2e	-0.06972729
234	0xbcff3894	-0.031154908
235	0xbd0edc57	-0.0348781
236	0x3d631010	0.05543524
237	0xbd6893d6	-0.056781612
238	0xbc2d8072	-0.010589706
239	0x3d8fc465	0.07019881
240	0xbce5ea6f	-0.028065888
241	0xbd4837c8	-0.048881322
242	0x3d8223df	0.06354498
243	0xbd799e3f	-0.06094193
244	0x3d0d1a18	0.034448713
245	0x3cc9e025	0.024643013
246	0xbd08b48c	-0.033375308
247	0xbcfbde49	-0.030745642
248	0x3ccc5f5b	0.024947813
249	0x3d999364	0.07498816
250	0x3d98fd1c	0.07470152
251	0x3da7a448	0.08185631
252	0x3b073b8e	0.0020634863
253	0xbd65dd42	-0.05611921
254	0x3c1aab3a	0.009440238
255	0x3caa7c95	0.020811358

bias_hh_l0 f4 [512]
0	0xbdb864f9	-0.09003634
1	0x3d0c64cd	0.03427582
2	0x3d798f7f	0.060927864
3	0x3cf408d4	0.029789366
4	0xbcddc7f3	-0.027072882
5	0x3db5cc42	0.0887685
6	0x3c0da5fa	0.008645529
7	0xbc588df0	-0.013217434
8	0xbda72e54	-0.08163133
9	0x3b2a59e2	0.0025993516
10	0x3c067a8b	0.008207927
11	0xbbeeca44	-0.0072872955
12	0x3cb4abe1	0.022054614
13	0x3c47b3d0	0.012188867
14	0xbd16b53c	-0.036793932
15	0x3dabb132	0.08383407
16	0x3d0f4b67	0.03498402
17	0xbdaad565	-0.08341483
18	0xbbceeaaf	-0.0063145976
19	0xbd5b89e3	-0.053598296
20	0xbdb18bcd	-0.08669243
21	0x3d5e7f45	0.054320592
22	0xbda3722e	-0.079807624
23	0xbd9305e8	-0.07178861
24	0x3da8491a	0.08217068
25	0x3d96debd	0.07366703
26	0xbcc4f185	-0.024040947
27	0xbc801d22	-0.015638892
28	0xbced8929	-0.028996067
29	0x3d6a5e83	0.05721904
30	0xbd9299d3	-0.07158246
31	0x3d67ee8c	0.05662398
32	0x3d2a4c0a	0.041576423
33	0xbd81a6c5	-0.06330637
34	0xbd338f75	-0.043837983
35	0xbd2a0e9f	-0.04151785
36	0xbd04f06b	-0.032455843
37	0xbd25ba11	-0.04046065
38	0xbcb9a3bc	-0.022661082
39	0xbcf3f56b	-0.02978011
40	0xbd89ce0e	-0.06728755
41	0x3c797753	0.015226203
42	0x3cc73658	0.024317905
43	0xbca9e463	-0.020738786
44	0xbd9ec7e7	-0.07752972
45	0x3d8cd5eb	0.06876739
46	0x3d402610	0.0469113
47	0xbd17b6e5	-0.037039656
48	0x3cdfb2c5	0.027306924
49	0xbd5c3e39	-0.053770278
50	0xbda6518c	-0.081210226
51	0x3dadf391	0.08493722
52	0x3d9aa059	0.07550115
53	0x3c5d9ddf	0.013526409
54	0xbd0e17b3	-0.03469057
55	0xbdaaae98	-0.08334082
56	0x3db5480a	0.08851631
57	0xbcd66275	-0.026169995
58	0xbcbfbffc	-0.023406975
59	0x3dafec27	0.08589964
60	0xbc707ca7	-0.014678157
61	0x3c9d24c8	0.019182578
62	0xbd9daacf	-0.07698595
63	0x3d892b5e	0.06697725
64	0x3ccad674	0.024760462
65	0xbd96bd19	-0.07360286
66	0x3d84c5da	0.0648305
67	0xbd81ebd0	-0.06343806
68	0xbd58bb97	-0.052913275
69	0x3c2836b0	0.010266945
70	0x3cedb1b0	0.029015392
71	0xbdacd0f1	-0.0843829
72	0xbbdaedf6	-0.006681199
73	0xbd7dea5e	-0.061991088
74	0xbc24a530	-0.010049149
75	0x3dabaeb5	0.08382932
76	0x3ca5d339	0.02024232
77	0x3d075356	0.03303846
78	0x3d4592d2	0.048235722
79	0xbd593090	-0.05302483
80	0x3beb39b9	0.007178512
81	0x3d380b54	0.04493268
82	0x3d0160cc	0.031586453
83	0xbd70d2fd	-0.058794964
84	0xbcb9dab1	-0.022687288
85	0xbd6b012e	-0.057374172
86	0xbcba3c0f	-0.022733716
87	0x3db52239	0.08844418
88	0xbd203157	-0.039109554
89	0xbb7a7d5e	-0.0038221697
90	0x3d5d86fb	0.054083806
91	0x3d8cccee	0.06875025
92	0x3cb5bb42	0.022184018
93	0xbdb7cae0	-0.08974242
94	0x3b93fa2f	0.004515908
95	0x3d3f4aae	0.04670208
96	0x3d5ec9c6	0.054391645
97	0xbcf833af	-0.030298082
98	0xbc630ca9	-0.013857999
99	0xbba4e070	-0.005031638
100	0xbbfc195e	-0.0076934537
101	0x3cec803a	0.028869737
102	0xbc5765e8	-0.013146855
103	0xbca03550	-0.019556671
104	0xbc69e800	-0.0142765045
105	0xbcd830c1	-0.026390435
106	0x3d8f4a8b	0.0699664
107	0xbdb3108a	-0.08743389
108	0xbd87e552	-0.06635536
109	0x3d2e2480	0.042515278
110	0x3cce0365	0.025148103
111	0x3b5c400b	0.0033607509
112	0xbd588475	-0.052860696
113	0x3c7032d9	0.0146605605
114	0x3c889e3d	0.016677016
115	0x3b81edeb	0.0039651296
116	0xbaa2f5c3	-0.0012432862
117	0xbd8f73f9	-0.07004542
118	0x3d52d004	0.05146791
119	0x3dae03e4	0.08496836
120	0xbd4236f2	-0.04741568
121	0xbc088730	-0.008333012
122	0x3b8533b6	0.0040650023
123	0xbdac2109	-0.084047385
124	0x3d824468	0.06360704
125	0xbcef1db4	-0.029188968
126	0x3cef4074	0.029205538
127	0xbcb262cc	-0.021775626
128	0x3db01fd2	0.08599819
129	0x3db3a771	0.08772171
130	0x3dbb39b9	0.09141869
131	0x3bc1be49	0.0059125763
132	0x3d87692e	0.06611858
133	0xbcc979c4	-0.024594195
134	0x3da2e41d	0.079536654
135	0x3cb1e844	0.021717198
136	0xbd4d2aa7	-0.050089505
137	0x3c879884	0.016552217
138	0x3daf4f7a	0.08560081
139	0xbd89473d	-0.06703041
140	0x3d8667d9	0.06562776
141	0x3c1ec738	0.009691052
142	0xbd461890	-0.04836327
143	0xbd7d7ed1	-0.06188852
144	0xbd33b387	-0.043872382
145	0x3d23c319	0.03998098
146	0xbd84dee0	-0.064878225
147	0x3d03eda8	0.03220907
148	0x3d4f75b5	0.050649364
149	0x3d4bed86	0.049787067
150	0x3c5a5abe	0.013327299
151	0x3c804b52	0.015660916
152	0xbd8a6e67	-0.06759339
153	0xbc86ce1f	-0.016455708
154	0x3d788e36	0.060682498
155	0x3da154e4	0.0787752
156	0xbd7ce422	-0.061741002
157	0xbd293828	-0.04131332
158	0xbc52f9f0	-0.012876973
159	0xbd87d536	-0.06632464
160	0xbd90b8cd	-0.07066498
161	0xbd8e152b	-0.06937631
162	0x3d5a29a4	0.053262368
163	0xbd9ef4b3	-0.077615164
164	0xbda5b2b1	-0.08090723
165	0x3d90141b	0.07035085
166	0x3b8e041c	0.004333986
167	0xbd99e3d4	-0.07514158
168	0x3d90a8bb	0.07063433
169	0xbd91a203	-0.071109794
170	0x3d4a74f8	0.049427956
171	0x3d8f5473	0.06998529
172	0x3d9740cf	0.07385408
173	0xbcc5d582	-0.02414966
174	0xbd4b2eb0	-0.04960507
175	0xbcbe4a78	-0.023228869
176	0xbda1eb62	-0.07906224
177	0xbdad7e40	-0.08471346
178	0xbd7c79e2	-0.061639674
179	0x3d66622d	0.05624597
180	0x3db228cc	0.08699188
181	0x3c507b8a	0.0127247665
182	0xbcd7d88b	-0.026348373
183	0xbbfe609e	-0.0077629825
184	0x3cfb7f1d	0.03070026
185	0xbd8375ba	-0.06418939
186	0xbd845dc4	-0.06463197
187	0x3d70dec2	0.05880619
188	0x3d92839a	0.07154007
189	0xbcc63b4d	-0.024198199
190	0xbc2badb1	-0.010478423
191	0x3cd623c7	0.026140107
192	0xbc92447f	-0.017854927
193	0xbd715380	-0.058917522
194	0xbcf786ae	-0.030215587
195	0xb9041b25	-0.00012598613
196	0x3d81f31b	0.06345197
197	0xbd3c41c6	-0.045961164
198	0xbae03a4c	-0.0017107218
199	0x3db34478	0.08753294
200	0x3d2a0d80	0.04151678
201	0xbd883bc1	-0.06652022
202	0x3cfaa9f5	0.03059862
203	0x3c1441f7	0.00904893
204	0xbcec7e6a	-0.028868873
205	0x3d64572b	0.055747192
206	0x3da22063	0.079163335
207	0x3c88a732	0.016681287
208	0xbd68adb9	-0.0568063
209	0x3d4822c3	0.048861276
210	0x3c56375b	0.013074721
211	0x3d41f7d2	0.04735548
212	0x3d150a0e	0.036386542
213	0x3d2d1eed	0.04226582
214	0xbcc394a4	-0.023874588
215	0x3d114804	0.03546907
216	0xbc51d019	-0.012805962
217	0xbce9875c	-0.028506927
218	0x3ce0114a	0.027351994
219	0xbce29e97	-0.027663512
220	0xbcf7814f	-0.030213026
221	0x3d627943	0.055291425
222	0x3d6e4fe4	0.05818166
223	0x3ce6d01b	0.028175404
224	0xbc798e98	-0.015231751
225	0xbd8a3920	-0.06749177
226	0xbda7e6dc	-0.0819833
227	0x3b4432d3	0.002993752
228	0x3cc3d214	0.023903884
229	0x3dc543ae	0.096320495
230	0x3d8475f0	0.06467807
231	0xbd48c55a	-0.049016334
232	0x3dac0333	0.08399048
233	0xbc725538	-0.014790826
234	0xbc90f6ae	-0.017695751
235	0x3d2c9779	0.042136643
236	0x3d68a619	0.056799028
237	0x3da73f82	0.0816641
238	0x3c4a2878	0.01233875
239	0x3dabc931	0.083879836
240	0xbc5aa2c1	-0.013344468
241	0x3d1348d0	0.03595811
242	0x3d8c3560	0.06846118
243	0xbc8a31a6	-0.016869377
244	0x3c43092e	0.011904044
245	0xbbf0c6bd	-0.00734791
246	0x3cf1b7b0	0.029506534
247	0x3a2ca7a2	0.00065862585
248	0xbd2f269d	-0.042761434
249	0x3d15ee56	0.036604248
250	0x3d08582f	0.033287223
251	0x3d887792	0.06663431
252	0xbd41b35a	-0.047290184
253	0x3d88dfc1	0.06683303
254	0x3d8618a6	0.0654767
255	0xbd0656fd	-0.032797802

weight f4 [64, 128]
0	0x3d8647a3	0.06556632
1	0x3d8c00a9	0.068360634
2	0x3c7c898d	0.015413654
3	0xbd283864	-0.041069403
4	0x3c0baa8f	0.008524551
5	0x3d9d4c60	0.07680583
6	0xbd581532	-0.05275459
7	0x3d9bbbb0	0.07604158
8	0xbd85f729	-0.06541283
9	0x3d890219	0.06689853
10	0x3d63e87b	0.055641633
11	0xbc1a2f61	-0.00941071
12	0xbcd700fc	-0.026245587
13	0x3d5907ac	0.052985832
14	0x3c1edf66	0.009696817
15	0x3c97987b	0.018505326
16	0xbda34d04	-0.07973674
17	0x3cc94a21	0.02457148
18	0x3ca4aaa5	0.0201009
19	0xbca763e6	-0.020433377
20	0xbce5704f	-0.028007654
21	0x3d760883	0.06006671
22	0xbd60e04b	-0.054901402
23	0xbd4ebd0c	-0.050473258
24	0x3b83afea	0.0040187733
25	0xbd62c679	-0.05536506
26	0x3d828c6d	0.0637444
27	0x3d135820	0.035972714
28	0xbce2949f	-0.027658759
29	0xbd67759a	-0.056508638
30	0x3cc285c3	0.023745423
31	0x3d8ce283	0.06879141
32	0x3d97dab3	0.074147604
33	0xbda2539a	-0.07926102
34	0x3cb0927d	0.021554226
35	0x3cb93cb0	0.022611946
36	0xbd9f9d11	-0.0779363
37	0x3be3f04a	0.006956135
38	0xbd66d5d9	-0.056356285
39	0xbd8de9a2	-0.069293275
40	0x3cae72d7	0.021294994
41	0x3d5d1765	0.05397739
42	0x3dc004ca	0.093759134
43	0x3d43261a	0.04764376
44	0xbcdf42c2	-0.027253512
45	0xbd891e45	-0.066952266
46	0x3cf7faab	0.030270895
47	0x3d3913b3	0.045184802
48	0xbd9f8ebb	-0.077908956
49	0xbd5cfc1c	-0.053951368
50	0x3cf9b6b1	0.030482622
51	0x3d9c1d54	0.076227814
52	0xbd20d5a6	-0.03926625
53	0x3d89e8aa	0.0673383
54	0xbcb59f44	-0.02217067
55	0x3d9e4cb5	0.077294745
56	0xbd1df34b	-0.0385621
57	0xbc81c097	-0.015838904
58	0x3cd6e7ca	0.026233573
59	0x3d3546dd	0.044257034
60	0xbb4e5fe8	-0.003149027
61	0xbd00beaa	-0.03143183
62	0x3d68d404	0.05684282
63	0x3d4e8bad	0.050426174
64	0xbd907c0b	-0.07054909
65	0x3cad15cb	0.021128556
66	0x3d9945f6	0.07484047
67	0xbd9e0ae8	-0.07716924
68	0xbbe1bcd8	-0.006888967
69	0xbd023a9e	-0.031794183
70	0xbd8777e2	-0.06614663
71	0x39acf9bb	0.0003299246
72	0xbd978518	-0.073984325
73	0x3c872684	0.016497858
74	0x3dbf27d1	0.09333766
75	0x3da3021f	0.07959389
76	0xbd434ed8	-0.047682613
77	0x3d9c659a	0.076365665
78	0xbd0ed3b4	-0.034869865
79	0x3c8116c3	0.015757924
80	0xbaad5647	-0.0013224565
81	0xbd35ae57	-0.044355717
82	0x3dac2395	0.08405224
83	0xbc80f806	-0.015743267
84	0xbd0475e8	-0.032339007
85	0x3c9764fa	0.018480767
86	0x3d0a888c	0.033821627
87	0x3c9d25a3	0.019182986
88	0xbda31957	-0.079638176
89	0xbd20ffa6	-0.039306305
90	0xbc71e26c	-0.014763456
91	0xbc619497	-0.013768337
92	0x3d673c08	0.056453735
93	0xbd5ca1e3	-0.053865325
94	0xbd2c7e60	-0.042112708
95	0xbd37d4ca	-0.044880666
96	0xbdaf5740	-0.085615635
97	0xbcf1879e	-0.029483613
98	0x3d5a77f3	0.05333705
99	0xbda8e3a1	-0.08246542
100	0xbd52f2f6	-0.051501237
101	0x3d89a051	0.06720031
102	0xbce40bc2	-0.027837638
103	0xbd70ef12	-0.058821745
104	0x3d7e9112	0.06215007
105	0x3d17234e	0.036898904
106	0x3d424801	0.04743195
107	0x3d4d4198	0.050111383
108	0x3abd7ae3	0.0014456179
109	0x3cf2a633	0.029620266
110	0xbc01ddf5	-0.007926454
111	0xbc41cf76	-0.011829248
112	0x3c99d5a9	0.018778639
113	0xbd2ed181	-0.042680267
114	0x3d43a33a	0.047763087
115	0x3d407ff3	0.046997022
116	0xbd95ad0e	-0.07308398
117	0xbd815449	-0.06314904
118	0x3c331911	0.010931269
119	0xbc993b20	-0.01870495
120	0xbd6101a6	-0.054933213
121	0x3d9d4e4c	0.076809496
122	0xbd303d0d	-0.043026973
123	0xbd691b3e	-0.056910746
124	0xbdad895b	-0.08473464
125	0x3db38e51	0.08767379
126	0xbb6dc446	-0.0036280318
127	0xbc4ea1ce	-0.012611819
128	0x3d9dd17d	0.07705972
129	0x3d674999	0.056466673
130	0x3dc04761	0.093886144
131	0x3d94959a	0.07255097
132	0xbd99b92d	-0.075060226
133	0x3d4c8c98	0.04993877
134	0x3c8c32ab	0.017114004
135	0xbce9a1a9	-0.028519468
136	0x3d89f040	0.06735277
137	0xbd5f6239	-0.05453703
138	0xbda15f75	-0.07879535
139	0x3cf5e8b5	0.03001819
140	0xbd910d6b	-0.070826374
141	0xbd91ea72	-0.07124795
142	0x3c52e740	0.012872517
143	0xbdaff6e7	-0.08592015
144	0x3d9c56a4	0.07633713
145	0xbd23e8a5	-0.04001679
146	0xbbf44a7a	-0.0074551674
147	0x3d8dfc77	0.069329195
148	0xbda41077	-0.08010953
149	0x3cd77ac0	0.026303649
150	0xbd0e962b	-0.03481118
151	0xbc793824	-0.015211139
152	0x3cdadc65	0.02671642
153	0xbd27f18c	-0.04100184
154	0xbbdf8803	-0.006821634
155	0x3c886fec	0.016654931
156	0xbd4450c9	-0.047928605
157	0x3d85b09b	0.065278254
158	0x3b4eea77	0.0031572857
159	0xbdab7b90	-0.08373177
160	0xbd9ab7c2	-0.0755458
161	0xbd85f908	-0.065416396
162	0x3c13af89	0.009014019
163	0x3db5f6f0	0.0888499
164	0x3db65a44	0.089039356
165	0x3d9c02c6	0.076177165
166	0xbd1cff5d	-0.03832947
167	0xbcdf5a27	-0.027264668
168	0x3a3425ec	0.0006872106
169	0xbd135e48	-0.035978585
170	0x3cdce5ae	0.026964989
171	0xbdaa56e7	-0.083173566
172	0x3d971cda	0.0737855
173	0xbdaad7e7	-0.08341961
174	0xbd307266	-0.04307785
175	0xbd0d6f32	-0.034529872
176	0x3d95ba01	0.07310868
177	0x3d36f6d2	0.04466898
178	0xbd943840	-0.07237291
179	0x3d7749c6	0.06037309
180	0xbd82693d	-0.06367729
181	0xbc627f2f	-0.013824268
182	0x39df9dda	0.00042651483
183	0xbc5d9573	-0.013524401
184	0xbd3eb17f	-0.046555992
185	0x3ce47030	0.027885526
186	0x3db53e58	0.08849782
187	0x3cacbc7c	0.02108597
188	0x3d7ff8d1	0.06249315
189	0xbda34d68	-0.079737484
190	0x3d1b10a5	0.03785767
191	0x3d93180f	0.07182323
192	0x3db74601	0.08948899
193	0x3cc1dde8	0.023665383
194	0xbd124921	-0.035714272
195	0xbc0ff555	-0.008786519
196	0xbd69e96e	-0.05710738
197	0xbda0283c	-0.07820174
198	0xbd04d0e1	-0.032425765
199	0x3d9745b3	0.07386341
200	0x3d27eae3	0.04099549
201	0xbd999bbc	-0.07500407
202	0xbd9950df	-0.07486128
203	0xbda4d327	-0.080480866
204	0x3cef8d98	0.029242322
205	0xbcb40426	-0.021974634
206	0x3cd5439b	0.026033213
207	0xbd358a23	-0.04432119
208	0x3cbddb4b	0.023175856
209	0x3d6fdfa5	0.058562893
210	0xbcaede7a	-0.02134632
211	0xbd871024	-0.065948755
212	0xbdaeedab	-0.08541425
213	0x3cb0e3e7	0.021593047
214	0xbbf50b33	-0.0074781417
215	0xbcdbe218	-0.026841208
216	0xbd530710	-0.051520407
217	0x3d3c5b62	0.045985587
218	0xbd00575f	-0.031333324
219	0x3d5d8860	0.054085135
220	0xbd4bf99f	-0.049798604
221	0x3cebfbe4	0.028806634
222	0x3da44087	0.0802012
223	0xbd354858	-0.044258446
224	0x3d1dbc81	0.03850985
225	0xbd1c575f	-0.03816926
226	0x3d1631cb	0.03666858
227	0x3d959101	0.07303048
228	0xbd8ff9cc	-0.07030067
229	0x3c6efe09	0.014586934
230	0xbda695e8	-0.08134061
231	0x3d733590	0.059377253
232	0x3bd0fa86	0.006377521
233	0x3d1a3347	0.037646558
234	0xbd0ab161	-0.033860568
235	0x3db672a7	0.08908587
236	0xbd3827b5	-0.044959743
237	0xbd2e74c1	-0.042591814
238	0xbcadd794	-0.02122096
239	0x3c0d2e19	0.008616948
240	0xbd4ba98a	-0.049722232
241	0x3d93ef09	0.07223327
242	0xbd702a5c	-0.058634147
243	0xbd1df8c9	-0.03856734
244	0xbda2598c	-0.07927236
245	0xbb9f7992	-0.004866787
246	0xbd9746f4	-0.0738658
247	0x3d9cf589	0.076640196
248	0xbca8a39b	-0.020585826
249	0xbb020e80	-0.0019845068
250	0x3d18f262	0.03734053
251	0xbd0bbb3e	-0.034114115
252	0x3d26415c	0.040589675
253	0x3d1027dd	0.035194267
254	0xbc9218e6	-0.017834138
255	0xbd8f9e93	-0.070126675

bias f4 [64]
0	0x3d607cb8	0.05480644
1	0xbc149254	-0.0090680905
2	0x3d5c16d7	0.05373272
3	0x3d5f4375	0.05450769
4	0xbd098de4	-0.033582583
5	0x3d93dc52	0.07219757
6	0xbb059960	-0.0020385608
7	0x3d1eb1af	0.03874367
8	0xbd60a236	-0.054842196
9	0x3da12882	0.078690544
10	0x3d4483b0	0.04797715
11	0x3da30807	0.079605155
12	0x3db1f078	0.08688444
13	0x3d6d138a	0.057879962
14	0xbc74dc5c	-0.014945116
15	0x3da2162e	0.07914387
16	0xbd466c72	-0.048443265
17	0xbcaa318e	-0.020775583
18	0xbccbefd2	-0.024894629
19	0xbd861980	-0.065478325
20	0xbd85e331	-0.06537474
21	0xbca3e954	-0.02000872
22	0xbd3aa1f1	-0.045564596
23	0xbce9619c	-0.028488927
24	0x3c192c14	0.009348888
25	0xbb0e122d	-0.0021678314
26	0x3d873b32	0.066030875
27	0x3ab51e4e	0.0013818236
28	0x3d9e3bc2	0.07726242
29	0x3d774367	0.060367014
30	0xbda15dbf	-0.07879209
31	0xbd17828a	-0.036989726
32	0x3d78d004	0.060745254
33	0x3d6aae16	0.057294928
34	0x3c8ecd12	0.01743177
35	0x39a5e74b	0.0003164358
36	0xbd59770d	-0.05309205
37	0xbd8e288a	-0.06941326
38	0x3d0a7069	0.03379861
39	0x3c9eb0b6	0.019371372
40	0x3d2dda34	0.042444423
41	0x3d7778e4	0.060418025
42	0x3cf1fb08	0.029538646
43	0x3cc576e8	0.02410455
44	0x3d02e142	0.031953104
45	0xbaca3bdf	-0.001542922
46	0x3d254306	0.04034712
47	0xbd81c9e4	-0.06337336
48	0xbc9f36aa	-0.019435246
49	0xbd712a3c	-0.05887817
50	0x3da8e8be	0.08247517
51	0xbd939e5c	-0.07207939
52	0x3da94097	0.08264273
53	0x3c8b2485	0.016985187
54	0x3a7c5bdf	0.0009626727
55	0x3b70deaf	0.0036753824
56	0x3d9bc333	0.07605591
57	0xbd87ba40	-0.06627321
58	0x3d64c0dc	0.055847988
59	0x3baeddf6	0.0053365184
60	0xbdacc88b	-0.08436688
61	0xbc4f44a8	-0.012650646
62	0xbd7e976e	-0.062156133
63	0x3d6be8ae	0.057594948

weight f4 [64]
0	0x3f810b8b	1.0081648
1	0x3f7f2671	0.9966803
2	0x3f7f4e0a	0.99728453
3	0x3f7fffca	0.9999968
4	0x3f7f02eb	0.9961383
5	0x3f808c9c	1.004291
6	0x3f7d43d7	0.9893164
7	0x3f8032eb	1.0015539
8	0x3f7f744c	0.9978683
9	0x3f7f9a07	0.998444
10	0x3f7db943	0.9911081
11	0x3f803394	1.001574
12	0x3f7e256c	0.9927585
13	0x3f811107	1.0083321
14	0x3f7fb3c6	0.9988369
15	0x3f805a4e	1.0027559
16	0x3f7f4c05	0.9972537
17	0x3f8075eb	1.0035986
18	0x3f7d01ef	0.98831075
19	0x3f81287f	1.0090483
20	0x3f810c61	1.0081903
21	0x3f7fc4a8	0.9990945
22	0x3f804d9f	1.0023688
23	0x3f7ea792	0.9947444
24	0x3f806815	1.0031763
25	0x3f7f69ac	0.9977062
26	0x3f806dab	1.0033468
27	0x3f7e452e	0.9932431
28	0x3f7e0f99	0.9924255
29	0x3f7e6c6f	0.99384207
30	0x3f806146	1.0029685
31	0x3f8040d8	1.0019789
32	0x3f808632	1.0040953
33	0x3f807ca1	1.0038034
34	0x3f7e9b2e	0.99455535
35	0x3f7f566e	0.99741256
36	0x3f7f1192	0.99636185
37	0x3f80a5a4	1.005055
38	0x3f7e9070	0.99439144
39	0x3f7ebdb7	0.9950823
40	0x3f809a5c	1.0047107
41	0x3f7e7f27	0.9941277
42	0x3f7edc4a	0.99554884
43	0x3f7d124f	0.9885606
44	0x3f8030a8	1.0014849
45	0x3f7f9b47	0.9984631
46	0x3f7f129c	0.9963777
47	0x3f7d1c9c	0.9887178
48	0x3f7d89ba	0.9903828
49	0x3f81b7b4	1.0134187
50	0x3f7e3455	0.992986
51	0x3f810836	1.0080631
52	0x3f816983	1.0110325
53	0x3f81b00c	1.013185
54	0x3f819385	1.0123144
55	0x3f7f95d2	0.9983798
56	0x3f7ea5fa	0.9947201
57	0x3f7ce3ab	0.98784894
58	0x3f816994	1.0110345
59	0x3f7d56fe	0.98960865
60	0x3f7eb49f	0.99494356
61	0x3f809e0c	1.0048232
62	0x3f803ff5	1.0019518
63	0x3f81a035	1.0127016

bias f4 [64]
0	0x3c42a9b5	0.011881282
1	0xbaf8f08f	-0.001899259
2	0x3c0eefa5	0.008724128
3	0xba493c09	-0.00076764874
4	0x3b4da651	0.003137965
5	0x3bc93418	0.0061402433
6	0x39de7e91	0.0004243744
7	0xba50637d	-0.0007949395
8	0x3bcc626f	0.00623732
9	0x3bb797f7	0.0056028324
10	0x3ae30175	0.001731916
11	0x3a181164	0.0005800931
12	0xba5f5150	-0.00085188914
13	0x3bc20d74	0.005922014
14	0x3b77d123	0.0037813864
15	0x3bad0846	0.0052805273
16	0x3bccbb02	0.006247879
17	0x3be01079	0.006837901
18	0xbb9ef3a6	-0.0048508225
19	0x3b8a9207	0.0042288336
20	0x3c151ea3	0.009101543
21	0xbb96f042	-0.0046062777
22	0x3bc1c53f	0.005913406
23	0x3a214319	0.0006151661
24	0xbb00e8e4	-0.0019670064
25	0xba8cf483	-0.0010754023
26	0x3b80bc2b	0.0039286814
27	0xbb539429	-0.0032284355
28	0xbc11501c	-0.008869197
29	0x3bc93d48	0.0061413385
30	0x3b4437ee	0.0029940563
31	0x3bbb073c	0.0057076495
32	0x3bb445b7	0.0055014747
33	0x3c326cc1	0.010890187
34	0x3b274744	0.0025524655
35	0xba35411a	-0.0006914303
36	0xbae41d84	-0.0017403816
37	0x3c8774ec	0.016535245
38	0xbbc94e26	-0.006143349
39	0xbb793c32	-0.0038030264
40	0x3c1e1258	0.009647928
41	0x39129c5f	0.00013981898
42	0xbbeb7bf2	-0.0071864063
43	0xbbdf8f5d	-0.00682251
44	0x3abccce3	0.0014404323
45	0xbb158dd7	-0.002282014
46	0x3bd277dc	0.0064229798
47	0xbbb8e15c	-0.0056420993
48	0xbbc91d83	-0.0061375513
49	0x3c876ff5	0.016532877
50	0xba71b015	-0.00092196587
51	0x3bba785a	0.0056906166
52	0x3c00a2bf	0.007851302
53	0x3c5bf69d	0.013425496
54	0x3c0e9e0b	0.008704673
55	0x3c1ab26e	0.009441955
56	0x3b793434	0.00380255
57	0xbc367778	-0.011136882
58	0x3bbcf367	0.0057663205
59	0xbbb84e5e	-0.0056245765
60	0xbb056a83	-0.0020357675
61	0x3c27342f	0.010205313
62	0xbb3e28e5	-0.0029016074
63	0x3be00f28	0.0068377443

running_mean f4 [64]
0	0x3dbcea1b	0.092243396
1	0x3d694766	0.056952856
2	0x3c9639f3	0.01833818
3	0x3d4ccba2	0.049998887
4	0xbda213a2	-0.07913901
5	0x3dcee7b9	0.10102791
6	0x3d95fef1	0.07324017
7	0x3d01590e	0.03157907
8	0xbcfb062d	-0.030642593
9	0x3dc05b68	0.09392434
10	0x3d8b6195	0.06805722
11	0x3c4f8c3b	0.012667711
12	0x3d6d6819	0.057960603
13	0x3dad03b7	0.08447974
14	0x3d9655d8	0.07340592
15	0x3cc0d5aa	0.023539383
16	0xbb5fb4e9	-0.003413493
17	0xbd65ab42	-0.056071527
18	0xbddfa1b1	-0.10919512
19	0xbd3ce85b	-0.04612003
20	0xbdb62187	-0.088931136
21	0xbd5f35cb	-0.05449466
22	0xbd572488	-0.052525073
23	0xbb248e0b	-0.0025109078
24	0x3cc898cf	0.024486927
25	0x3cd6519c	0.026161961
26	0x3ce0e596	0.027453225
27	0xbd11b1e2	-0.035570033
28	0x3dd8891c	0.105730265
29	0x3d50191a	0.05080519
30	0xbdb5c6cb	-0.088758074
31	0x3cd75d58	0.026289627
32	0x3dc554eb	0.096353374
33	0x3d5d69eb	0.05405609
34	0xbc2c0394	-0.0104989
35	0xbd16d0ac	-0.0368201
36	0xbe13caa2	-0.14432767
37	0xbd10208f	-0.0351873
38	0x3cf1b64f	0.029505877
39	0xbc210632	-0.009828137
40	0x3e24c7e4	0.16091877
41	0xbc896965	-0.016773889
42	0xbc24ae20	-0.01005128
43	0x3d79c671	0.060980264
44	0x3d5a4804	0.053291336
45	0x3c84b23b	0.016198268
46	0xbcf0b8ff	-0.029385088
47	0xbde574d4	-0.11203924
48	0xbd212345	-0.039340276
49	0xbd6cd623	-0.057821404
50	0x3cd12bfb	0.025533667
51	0xbcc2ed56	-0.023794811
52	0x3db91dae	0.09038864
53	0x3deaa814	0.114578396
54	0xbcd26056	-0.025680702
55	0x3d1c0527	0.03809085
56	0x3dc41208	0.09573752
57	0xbad7010d	-0.0016403511
58	0x3c43ff33	0.0119627
59	0x3d3beeb1	0.04588193
60	0xbe12fd9c	-0.14354557
61	0x3cbdf4ea	0.023188073
62	0xbdec845a	-0.115486816
63	0x3d36f4e8	0.044667155

running_var f4 [64]
0	0x3a9c6fd6	0.0011935185
1	0x3a221746	0.00061832776
2	0x3920e6c9	0.00015344763
3	0x3a1c4bfb	0.00059622497
4	0x39f81ec9	0.00047325183
5	0x3a455d4d	0.00075288565
6	0x39da9c66	0.00041696726
7	0x38f0efaf	0.00011488736
8	0x39b6b7ff	0.00034850833
9	0x3a8e8367	0.0010872901
10	0x3ab10377	0.0013505061
11	0x3a09fb69	0.0005263598
12	0x39af7e18	0.00033472548
13	0x39e1b5f3	0.00043050907
14	0x399c909b	0.00029862378
15	0x39d0d096	0.0003982826
16	0x3929ea58	0.00016204396
17	0x39b0c5f6	0.00033716828
18	0x3b40f449	0.002944248
19	0x3b0f1e21	0.0021838027
20	0x390f208d	0.00013649669
21	0x397696a6	0.00023516509
22	0x39ec790d	0.00045103618
23	0x394b0660	0.00019361963
24	0x389e53b8	7.549621e-05
25	0x39946b6c	0.00028308795
26	0x3a8c9616	0.0010725881
27	0x3a0c6f52	0.0005357164
28	0x3a822a4e	0.0009930821
29	0x392eb3d2	0.00016660921
30	0x39cac3c0	0.00038674287
31	0x3a3b82b2	0.0007152959
32	0x3a81a594	0.0009891265
33	0x399de175	0.00030113352
34	0x39970e0c	0.0002881143
35	0x38b90cbc	8.8238594e-05
36	0x392fca27	0.00016764608
37	0x39b2af39	0.00034081357
38	0x3977a8bc	0.00023618614
39	0x39521a1e	0.0002003689
40	0x396fb644	0.00022860715
41	0x3995c675	0.00028567357
42	0x3a8b330c	0.0010620072
43	0x39ed3e6e	0.00045250676
44	0x39cc0ed0	0.00038920948
45	0x3a175bc3	0.00057738664
46	0x394ff18e	0.00019831044
47	0x392f317d	0.00016707736
48	0x39578238	0.00020552508
49	0x38dddac7	0.00010578852
50	0x3995987a	0.00028533099
51	0x3a18dd01	0.0005831272
52	0x3a62fe24	0.0008659086
53	0x38f3e6fd	0.00011630168
54	0x38a0b611	7.663307e-05
55	0x3928dee7	0.00016104766
56	0x389916ec	7.299878e-05
57	0x3a142396	0.00056510547
58	0x3a831cb0	0.0010003056
59	0x3a0ad9b1	0.0005296721
60	0x3a2ca6a7	0.00065861124
61	0x3a8960c4	0.0010481109
62	0x3a0cbe13	0.00053688994
63	0x39000d2d	0.0001221194

weight f4 [32, 64]
0	0xbc0d7069	-0.008632758
1	0x3ce16f6e	0.027518954
2	0xbdb83efd	-0.08996389
3	0x3d1f2e2b	0.03886239
4	0x3b8aa6cd	0.00423131
5	0xbc75b532	-0.014996814
6	0xbd2689f6	-0.040658914
7	0xbd8dc6c8	-0.0692268
8	0xbd54dbb0	-0.051967323
9	0x3da41692	0.080121174
10	0xbda4812b	-0.08032449
11	0xbded7cee	-0.11596094
12	0xbd97c85d	-0.07411263
13	0x3dd224cf	0.10260927
14	0xbdaa04b0	-0.08301675
15	0x3dc8c260	0.09802699
16	0xbd8a28fc	-0.067460984
17	0xbc913301	-0.017724516
18	0xbdf5abe9	-0.1199568
19	0x3dc92d26	0.098230645
20	0xbddf1339	-0.10892338
21	0x3c82a9c9	0.0159501
22	0xbd6253fe	-0.055255882
23	0xbe0003c5	-0.12501438
24	0xbd73cb8f	-0.0595203
25	0xbd168b66	-0.036754034
26	0x3dd7359d	0.10508273
27	0x3dbe569a	0.09293862
28	0x3d9adf9f	0.075621836
29	0xbd955796	-0.07292096
30	0x3d8917ed	0.066940166
31	0xbd771e24	-0.06033148
32	0xbd855144	-0.06509641
33	0x3cf7f1c9	0.03026666
34	0x3dcf506c	0.10122761
35	0xbd7401b9	-0.059571955
36	0x3d181264	0.037126914
37	0xbcd1a01b	-0.02558904
38	0xbd785079	-0.06062362
39	0xbbca85f4	-0.0061805192
40	0x3beb7ff5	0.0071868845
41	0x3bada888	0.0052996315
42	0x3d120019	0.035644624
43	0xbda41450	-0.08011687
44	0x3ce738cf	0.02822533
45	0x3c95dd93	0.018294131
46	0x3d10a67d	0.035315026
47	0xbcd1ed5d	-0.025625879
48	0xbdb9d055	-0.09072939
49	0xbdbc6e2e	-0.092007026
50	0x3d9be41c	0.07611868
51	0x3cc05e25	0.023482392
52	0x3dece132	0.1156639
53	0xbc69cc6d	-0.01426993
54	0x3ca9a6fa	0.020709503
55	0x3dc28d14	0.09499565
56	0xbd2a3bac	-0.041560814
57	0x3d5f09e6	0.0544528
58	0xbd85f184	-0.06540206
59	0xbc818645	-0.015811095
60	0xbcdf7388	-0.02727677
61	0x3d630c63	0.055431735
62	0xbd120bd3	-0.035655808
63	0xbd37d351	-0.04487926
64	0x3d3857fa	0.045005776
65	0x3d883e9c	0.06652567
66	0xbdc78809	-0.097427435
67	0x3dc0f3f8	0.09421533
68	0x3d96c1da	0.07361193
69	0xbc8e4c81	-0.017370464
70	0x3cce49f0	0.02518174
71	0x3db92a11	0.09041227
72	0xbd1eb1cd	-0.038743783
73	0x3dc0bc4a	0.09410913
74	0xbd561423	-0.052265298
75	0xbcb245e9	-0.021761851
76	0x3d8ce4e6	0.068795964
77	0xbcfd50a4	-0.030922242
78	0xbbb09be9	-0.0053896797
79	0xbdd09c54	-0.10186067
80	0xbd75c1d4	-0.059999302
81	0x3e00984d	0.12558098
82	0x3db44d11	0.08803762
83	0xbdea0881	-0.11427403
84	0xbd0791cb	-0.033098023
85	0xbdb9e516	-0.09076898
86	0x3d86eb84	0.0658789
87	0x3d5fa3f4	0.054599717
88	0xbb8b199b	-0.004244996
89	0xbdf2b341	-0.11850596
90	0x3df87dac	0.12133345
91	0x3dc121e9	0.09430296
92	0xbdeb03fb	-0.114753686
93	0x3d1172a2	0.035509713
94	0x3ddd5da1	0.10808874
95	0x3def906e	0.1169747
96	0xbd77e59a	-0.0605217
97	0xbd8f557d	-0.069987275
98	0x3d976460	0.07392192
99	0x3de47bb1	0.11156405
100	0xbdd848a6	-0.105607316
101	0x3da28f75	0.079375185
102	0xbd6ab51a	-0.05730162
103	0x3ddfbdab	0.10924848
104	0x3dd2b16f	0.10287749
105	0xbcc63614	-0.024195708
106	0x3d6f9323	0.05848993
107	0xbd833649	-0.064068384
108	0xbddc221e	-0.10748695
109	0xbd45e8f7	-0.048317876
110	0x3d70c0af	0.058777507
111	0xbdf52249	-0.1196943
112	0xbd0dfc99	-0.034664724
113	0x3c7e6004	0.015525822
114	0xbdb4e8e7	-0.08833485
115	0xbd7f5cb1	-0.062344257
116	0x3c19a696	0.009378096
117	0xbd951d20	-0.07280946
118	0xbdbf59dd	-0.09343312
119	0xbe00866c	-0.12551278
120	0x3df22bbb	0.11824747
121	0x3d24c84a	0.040230073
122	0xbdc30175	-0.09521762
123	0x3dae2efe	0.08505057
124	0x3c6b794d	0.014372182
125	0x3d1acf84	0.03779556
126	0xbd681be0	-0.05666721
127	0x3d986c12	0.07442488
128	0x3d98ff9a	0.07470627
129	0x3a41b3e7	0.0007389173
130	0xbd2d9b63	-0.042384516
131	0xbd881a76	-0.06645672
132	0x3df6a593	0.120432995
133	0x3d24f1ff	0.040269848
134	0xbdad51d6	-0.084628746
135	0x3daa2553	0.083079
136	0x3d043024	0.032272473
137	0x3d15e4d1	0.03659517
138	0xbcf44b8f	-0.029821185
139	0xb9cb89cf	-0.00038821853
140	0xbd687a9e	-0.05675756
141	0x3d65d9a9	0.05611578
142	0x3ddeb0d7	0.10873573
143	0xbd0cdf26	-0.0343925
144	0xbdc38268	-0.095463574
145	0xbd770f5d	-0.060317386
146	0xbde6bc56	-0.11266391
147	0xbd55443b	-0.052067023
148	0x3da53ce5	0.08068255
149	0xbda6405a	-0.08117743
150	0xbd5ada1f	-0.053430673
151	0x3e023038	0.12713706
152	0xbc47e849	-0.012201377
153	0x3d17dfd5	0.037078697
154	0x3ad44973	0.0016196206
155	0x3cb5432c	0.022126757
156	0xbde54051	-0.11193908
157	0xbdaa0f46	-0.083036944
158	0xbdd38496	-0.10328023
159	0xbd5a90cb	-0.05336074
160	0xbd13bfa5	-0.03607144
161	0xbdedba55	-0.11607806
162	0x3d663eb0	0.056212127
163	0xbd58d13d	-0.05293392
164	0xbde96cce	-0.11397706
165	0x3e04e6c1	0.1297865
166	0x3d78d98d	0.060754348
167	0xbd164e77	-0.036695924
168	0x3da5d18b	0.08096608
169	0xbdb2efb1	-0.08737124
170	0xbd751942	-0.05983854
171	0x3ce62915	0.028095761
172	0xbde4ddec	-0.11175141
173	0x3d9e9a4a	0.07744272
174	0xbd7fa7d0	-0.062415898
175	0x3ddfe9f0	0.10933292
176	0xbdd19fe5	-0.102355756
177	0x3dcc5822	0.099777475
178	0xbd1bcf04	-0.038039222
179	0x3b8bbbb5	0.00426432
180	0x3d5aefaf	0.053451236
181	0x3d888feb	0.06668075
182	0x3d28fd60	0.041257262
183	0xbdafa2fd	-0.085760094
184	0xbd94ecbd	-0.07271717
185	0xbdd20381	-0.102545746
186	0x3dd26419	0.10272998
187	0x3e0372ed	0.1283681
188	0xbd9b4cdd	-0.0758302
189	0x3db8b9ee	0.09019838
190	0x3bb7ee95	0.005613158
191	0x3e09b968	0.13449633
192	0xbd571571	-0.052510682
193	0x3d79ddac	0.06100242
194	0x3c72e585	0.0148252295
195	0xbcf7255f	-0.030169187
196	0x3d8b0cac	0.06789526
197	0x3e027029	0.12738098
198	0xbd313a67	-0.043268587
199	0xbd58d3cc	-0.05293636
200	0xbcc87839	-0.02447139
201	0x3dc40d90	0.09572899
202	0xbd31d33a	-0.043414332
203	0xbdad589e	-0.08464168
204	0xbe07b119	-0.13251151
205	0xbdc0acf3	-0.094079874
206	0xbc2dc9c5	-0.010607188
207	0xbde146a7	-0.10999804
208	0xbbc70faf	-0.0060748677
209	0x3b5a2807	0.0033288018
210	0xbde3d16e	-0.1112393
211	0xbca1c5dc	-0.019747667
212	0xbd431acd	-0.04763298
213	0x3deb3c5b	0.11486121
214	0xbd27d84e	-0.04097777
215	0xbdf64439	-0.12024731
216	0x3dd10c35	0.102074064
217	0xbcc89c7c	-0.02448868
218	0xbaa54e00	-0.0012611747
219	0xbc8b6128	-0.017014101
220	0xbd9a675b	-0.07539245
221	0x3de2f780	0.11082363
222	0x3c9386b6	0.018008571
223	0xbbeda407	-0.0072522196
224	0xbd92dce4	-0.07171038
225	0xbddfa01b	-0.109192096
226	0xbd49377e	-0.049125187
227	0xbd9b9ab5	-0.075978674
228	0x3dfa6cce	0.12227784
229	0x3de469b2	0.11152972
230	0xbd72c3bc	-0.059268698
231	0xbde31994	-0.11088863
232	0x3de2c7a5	0.110732354
233	0xbd63210e	-0.055451445
234	0xbd3ccf60	-0.046096206
235	0x3dc4f0d4	0.09616247
236	0xbdafddbd	-0.08587215
237	0x3da384b1	0.07984293
238	0xbdb8cbe3	-0.09023263
239	0x3d50c608	0.050970107
240	0xbdf74d58	-0.12075299
241	0xbd46fe9e	-0.048582666
242	0x3ddd0827	0.107925706
243	0x3c8d9e67	0.017287446
244	0x3c9274f9	0.017878043
245	0x3d4844a9	0.048893604
246	0xbd83ea17	-0.064411335
247	0x3df23a0d	0.118274786
248	0xbd182002	-0.0371399
249	0x3d187c57	0.037227955
250	0x3db33bae	0.08751617
251	0x3cc89680	0.024485826
252	0xbd97ac79	-0.074059434
253	0x3df00024	0.11718777
254	0x3d7aa901	0.06119633
255	0xbce15081	-0.027504208
