reskill/results/saved_rl_models/fetch_block_40000/ppo_agent.pth (torch, 27667 bytes, 7 tensors)

log_std f4 [4]
000000 76 21 ce bf 71 1e ce bf f5 42 ce bf 85 0b ce bf
       -1.6103961 -1.610304 -1.6114184 -1.6097265

weight f4 [64, 25]
000000 ed 8a 12 bd 61 f0 e3 3c 77 f4 83 be 82 75 a5 be
       -0.03577702 0.027824583 -0.2577245 -0.32316214
000010 c1 95 a6 3e d6 e1 e6 bc 5f 41 1a 3e f0 a4 c1 bd
       0.32536128 -0.028183859 0.15064 -0.094552875
000020 7c c8 95 be ee 98 8a 3b c6 c3 20 3e 72 33 41 be
       -0.2925452 0.0042296564 0.15699682 -0.18867281
000030 ca d2 7e be b6 32 c0 bd e1 3c eb 3d a9 e8 19 bf
       -0.24885097 -0.09384672 0.11486221 -0.60120636
000040 cb d9 0e be 34 dc d7 be 36 cf 08 bf 0a 89 bc 3d
       -0.13950269 -0.4216019 -0.5344118 0.092058256
000050 e4 6f 98 3d 16 f5 9e 3d 0a 0c 36 be cd 15 db bd
       0.074432164 0.0776159 -0.1777803 -0.106975175
000060 50 eb 1f be d9 fd b7 bc 63 23 e0 3c 81 42 0a be
       -0.15617108 -0.022459911 0.027360624 -0.13501932
000070 79 11 41 3f f3 cf cb 3e b6 34 f4 3d e1 cd ee 3e
       0.75417286 0.3980709 0.11924116 0.46641448
000080 55 97 69 bc 5e 35 9b bd c4 fc 17 be 3b 25 45 be
       -0.014257272 -0.07578538 -0.14842516 -0.19252484
000090 44 f9 a3 bd 52 3f 99 3e 03 78 ca 3d b3 78 99 bd
       -0.08006528 0.29931122 0.09886172 -0.07493725
0000a0 47 4f 0e 3f 5f 6a a1 bd 37 1c 39 3f 54 d8 b1 3e
       0.5558972 -0.07881617 0.7230868 0.34735358
0000b0 54 3d 01 be 37 3f 6d bd 05 89 8c bd 90 99 44 3e
       -0.12621051 -0.057921614 -0.06862072 0.19199204
0000c0 0a 2a dd 3d b3 a8 36 3e 6a 20 dc 3d 3f c5 fa 3c
       0.10799034 0.17837791 0.1074837 0.030611632
0000d0 14 5d 35 3c 63 55 b1 3d 16 18 d6 bd aa 41 76 3e
       0.011069555 0.08658864 -0.10453813 0.24048486
0000e0 ae 1d e0 3c 77 e9 80 3c b1 e3 9c 3e 4f d0 ee 3c
       0.027357902 0.015736325 0.30642465 0.029152064
0000f0 2d e8 00 3e 05 67 d4 bd 26 52 aa 3e b2 3e 4a 3e
       0.12588568 -0.10371212 0.332658 0.19750479
000100 5d de ba be 78 1a 08 3f c6 2e d3 3d 06 e7 35 3e
       -0.36497775 0.5316539 0.10311656 0.1776391
000110 ee f9 0c 3f 23 d1 03 bd 7f 39 fb bd 79 d1 96 3d
       0.5506886 -0.03218187 -0.12266826 0.073641725
000120 4d d1 04 bd 97 ee 40 3e 00 fa bc bb a6 46 11 be
       -0.032426167 0.18841015 -0.005767107 -0.14187106
000130 4c 52 37 bc 33 6e 30 be c1 32 a3 be db 1b ad be
       -0.011189055 -0.17229538 -0.3187466 -0.33810315
000140 55 58 b8 be 57 43 57 be 83 3b 89 3e 09 e3 af bd
       -0.36004892 -0.21021782 0.26803216 -0.085882254
000150 2b 11 a6 be d5 55 43 bd c4 a8 94 3d ae ec e8 3c
       -0.32434973 -0.047689278 0.07258752 0.02843317
000160 13 bf 42 3e 24 99 06 bf da ce 9f 3d c2 96 19 3e
       0.19018202 -0.52577424 0.07803126 0.14998916
000170 3a 88 be be 08 d3 2e bf 9e b8 39 3e aa fc f2 b9
       -0.37213308 -0.6829076 0.18136832 -0.00046346086
000180 13 33 68 3e 9d 46 41 be 4d 29 d5 bd fa 78 51 bd
       0.22675733 -0.18874593 -0.10408268 -0.051140763
000190 b2 ef 25 3e e1 5c 31 be 7d ec 15 be 9f 2d 03 be
       0.16204718 -0.17320587 -0.14640994 -0.12810372
0001a0 e4 41 e7 be 3d 74 8c be 2a 2b c9 3e 22 7a 92 3f
       -0.45167458 -0.27432433 0.39290744 1.1443522
0001b0 56 2f d8 bd 10 a4 9e be c9 24 b8 3d 43 55 02 3e
       -0.105559036 -0.30984545 0.08991391 0.12727837
0001c0 5e d0 a4 bd 9c 16 22 3e 50 5b 39 be 27 d2 1c 3f
       -0.080475554 0.15828937 -0.18101239 0.6125817
0001d0 63 2a 57 3e 41 2e 2f 3f f0 04 fb be 59 bf da 3d
       0.21012263 0.6842995 -0.49027205 0.10681028
0001e0 ce 36 7e 3e 69 0e ba 3d 80 35 10 be 6b a1 33 3e
       0.24825594 0.0908478 -0.14082909 0.17542045
0001f0 c7 0c 07 bd 76 91 e7 3d 33 f4 ab bd 9a ad e4 3d
       -0.03297117 0.11307041 -0.08396187 0.11165924
000200 32 db 2a 3e 57 70 df 3e 2a f9 06 3f 84 78 43 3f
       0.16685179 0.43640396 0.52723944 0.7635577
000210 a2 e8 dd be fc a3 b4 3d f7 36 5d 3f 2c 46 5f 3d
       -0.43341547 0.0882034 0.86411995 0.05451028
000220 dd 15 73 be ab d6 83 3b b5 c8 e6 be f1 3a 19 be
       -0.23738809 0.004023393 -0.45075002 -0.1496389
000230 10 26 44 bf c4 fc 27 bf a2 f5 a0 3e 20 8d 6c be
       -0.7662058 -0.65620065 0.31437403 -0.2310071
000240 08 91 9d 3d d0 47 b7 3c 5e 25 20 bb a7 f2 b9 bc
       0.07693678 0.02237311 -0.0024436335 -0.022698713
000250 a7 70 93 3c 43 4b 06 be 43 a0 9e 3c 58 bc be bd
       0.017998053 -0.13114648 0.019363528 -0.093132675
000260 bb ee 0d be dd 94 0a 3f d1 95 e9 3e 2b 2e 62 bf
       -0.138606 0.541334 0.45622113 -0.88351697
000270 bc 40 9d 3e d3 54 48 3f d5 1a 87 3e 74 d5 b1 3e
       0.3071345 0.7825443 0.2638766 0.34733164
000280 b9 41 26 bb 72 43 aa bd 0b e6 1f bd 71 89 37 be
       -0.0025368764 -0.083136454 -0.039037745 -0.17923523
000290 bf 7c 5c 3e f2 b7 14 3f 89 d1 3e 3e 09 ca aa 3f
       0.21531962 0.5809318 0.18634619 1.3342906
0002a0 66 33 1d bf 82 ef 57 bd 54 53 45 3e 1c 20 6b 3d
       -0.6140655 -0.052718647 0.19270068 0.05740367
0002b0 33 2f b8 bc 78 89 0e 3e fb 2d 34 3e 81 6f f2 bc
       -0.022483444 0.13919628 0.17595665 -0.029594185
0002c0 0b be 9c 3d 83 74 c5 3d f9 0f 13 bf 20 8d 3c bf
       0.07653435 0.096413635 -0.5744625 -0.7365284
0002d0 59 e4 ed 3d d3 7d 40 3e 1f 05 ee 3e 09 e5 a3 be
       0.116158195 0.18797998 0.46488282 -0.32010677
0002e0 b1 72 19 bf 08 b7 37 be a4 1d 30 3e cf 4f 80 bd
       -0.5994063 -0.17940915 0.17198807 -0.06265222
0002f0 bf e5 9b 3d 1f c5 11 bf 05 d3 67 3e 1f ca 56 3c
       0.0761218 -0.5694141 0.22639091 0.013109713
000300 ac 94 48 bf 35 31 df be d2 42 39 3e 98 58 05 3e
       -0.78351855 -0.4359223 0.18091896 0.13022077
000310 36 9b d9 bd f7 4b d6 3d 57 b7 8a bd 9a a5 2e 3e
       -0.10625307 0.10463708 -0.067732506 0.1705536
000320 c3 25 cc 3d 83 44 ea bd 43 6f 3a bd 87 01 60 be
       0.0996814 -0.11438849 -0.045516264 -0.21875583
000330 68 06 fc ba 5b 47 35 3e 09 f9 c3 bb f1 5f be bd
       -0.0019227983 0.17703001 -0.005980615 -0.09295643
000340 16 89 2d bf a9 f7 c0 be a6 91 a1 bd 86 89 19 be
       -0.677873 -0.3768895 -0.07889108 -0.14993867
000350 90 fd f4 bd 18 b1 3a bd 18 42 6e be 6c b2 1a bf
       -0.11962426 -0.045579046 -0.232674 -0.604285
000360 81 df 87 be 09 f6 a1 3e bb e0 57 bf a6 36 2d 3c
       -0.26537707 0.31633022 -0.84327286 0.010572111
000370 a6 4d 68 3e 0a c6 5d 3e 32 98 34 3e 00 6e 61 3d
       0.2268587 0.21657577 0.17636183 0.055036545
000380 e8 79 17 be 4c 67 02 3e fc 85 ab 3c ce cc 70 be
       -0.14792597 0.12734717 0.020937912 -0.23515627
000390 21 18 87 be 99 8e b9 be 39 d3 a8 be 55 80 a9 3d
       -0.26385596 -0.36241606 -0.3297365 0.082764305
0003a0 93 2b 1a 3f 45 df 05 be 5d c6 09 3d 9c 6a 82 bd
       0.6022274 -0.13073452 0.03363644 -0.063679904
0003b0 37 4e f1 bd b8 a6 5e be 19 d2 d2 3c 1e a6 49 be
       -0.117824964 -0.21743286 0.025734948 -0.19692275
0003c0 18 84 5f 3e 66 e8 85 3d b0 88 04 bf 70 dd 2f bf
       0.21827734 0.06538467 -0.5177107 -0.6869726
0003d0 95 69 04 3e 19 91 ef bd c1 96 2f 3e 7a e3 6e 3d
       0.12930901 -0.11697597 0.17147352 0.058322407
0003e0 5d 21 cd bd 6b 69 1e 3e 6d 64 8d 3d 36 d7 3c 3e
       -0.10016129 0.15469901 0.0690392 0.18441471
0003f0 62 aa 1a 3e 20 3f 50 be f7 32 93 be 22 64 1d 3e
       0.15104058 -0.2033658 -0.2874982 0.15370229

bias f4 [64]
000000 94 f4 49 3e 44 ea 88 be f6 a6 23 be 19 ed a7 3d
       0.19722205 -0.2674123 -0.1598166 0.0819952
000010 86 11 e5 bd fa 95 04 3e 6a 70 0f 3e 50 b0 52 be
       -0.11184983 0.12947837 0.14007726 -0.2057507
000020 52 5b 66 bd 3f 69 6b 3e ba 22 4b bd 6b 26 31 bd
       -0.056239434 0.22989367 -0.049593665 -0.04324953
000030 a1 55 1a 3e 2f d1 d1 bc 4d 05 19 3c fe 89 10 3d
       0.15071727 -0.025612442 0.009339643 0.03528785
000040 a4 ca c3 3b 92 ec 80 be 86 20 d1 bd 00 5c a0 3d
       0.0059750844 -0.2518049 -0.102112815 0.078300476
000050 7a 85 08 3e 91 df d2 3d 59 ae 16 3e 21 38 45 bd
       0.13332167 0.10296548 0.14714946 -0.04814923
000060 32 5c 03 3e 6e b0 e2 3d dc 7b 0c 3e f6 b8 5e bc
       0.12828138 0.110688075 0.13719124 -0.013593903
000070 1a 41 fa bc 84 b9 2c be b7 25 55 3e ac fc 03 3d
       -0.030548621 -0.16867644 0.20815168 0.03222339
000080 da 7d 8a 3d d7 e4 88 3d ae 5b 39 be 8a 59 f1 bd
       0.067622855 0.06684273 -0.1810138 -0.11784656
000090 fa 32 10 3e 1c e3 9c 3b 79 71 30 3e 9a 63 a0 bc
       0.14081946 0.0047878157 0.17230786 -0.019578744
0000a0 71 ca 0f bd 62 25 d1 3d 53 00 4f be 73 57 09 bd
       -0.035105173 0.10212208 -0.20214967 -0.033530664
0000b0 f6 5c 1a 3e b1 81 26 3e 43 c0 b6 bb 7c f0 1f bd
       0.15074524 0.16260411 -0.0055771186 -0.039047703
0000c0 9f 6b 7c 3d d7 fa 99 3d 16 7f c0 bd cc 24 00 be
       0.061626073 0.07518547 -0.0939924 -0.12514037
0000d0 8f 58 64 3e 33 c6 30 bd bd b3 fb bb fa eb b4 3d
       0.22299407 -0.043157768 -0.0076813386 0.088340715
0000e0 08 0a 3c 3e ba 2e 12 be 87 1f d4 3c 26 c9 da bd
       0.18363202 -0.14275637 0.02589394 -0.10682897
0000f0 ae 23 dc 3d 2e 5b fe bd f7 6f 1f 3e b7 27 cd 3d
       0.10748993 -0.12419735 0.15570055 0.10017341

weight f4 [64, 64]
000000 d9 53 6f bd fc 58 12 3e 06 ab 7f be f0 1a d9 bd
       -0.058429573 0.14291757 -0.24967584 -0.10600841
000010 64 b4 5a 3d 7d e9 f6 bd 9c 8b e4 3e 38 64 43 bf
       0.05339469 -0.12056253 0.44637764 -0.76324797
000020 ec c6 c3 bd 85 66 2a 3e 68 a2 07 be a0 45 4e bc
       -0.09559426 0.1664067 -0.13245547 -0.012589842
000030 c4 01 4a bd 5d 7b 92 be bd 03 86 3e 03 74 1b be
       -0.04931809 -0.28609744 0.26174727 -0.15180974
000040 8e 86 f6 3e 33 6b ad be 53 58 72 be 27 36 88 3d
       0.48149532 -0.3387085 -0.23666506 0.06650954
000050 5b 9c a9 bd b0 1c 5e 3e cb 71 03 be 1b eb 84 3d
       -0.082817756 0.21690631 -0.12836377 0.06490155
000060 8b 18 c3 be 43 40 82 3e d7 3b bf 3e de 2a f0 bd
       -0.38104662 0.25439653 0.37350342 -0.11726926
000070 86 c8 39 3b cd 78 da 3c 91 6b 66 3e a4 1a 8f 3e
       0.002834828 0.02666893 0.22501971 0.27950013
000080 df 82 0a 3d 84 ba 42 bd 2a 8c ac be f7 1e 58 3e
       0.033816215 -0.047541156 -0.33700687 0.21105562
000090 a9 b0 93 3d 0b 3f 3d be 6c 69 62 3d 6e 54 2a 3e
       0.072114296 -0.1848108 0.05527632 0.1663377
0000a0 a7 86 5c 3e e7 d1 9f bc e7 c4 eb bd 7d 95 87 bd
       0.21535741 -0.019509269 -0.115121655 -0.066203095
0000b0 b1 a7 27 3f 45 50 30 3e 21 73 78 be 56 e8 01 be
       0.6549025 0.1721812 -0.24262668 -0.12686285
0000c0 53 0c 31 3f c6 6e 3f 3e 8e b2 4e 3e 1b 25 01 3d
       0.6915943 0.186946 0.201853 0.031529527
0000d0 43 b2 ef 3e 75 ce 1c bd 02 8e 02 3e 2d 00 0e bd
       0.4681569 -0.03828283 0.12749484 -0.034668136
0000e0 04 7d 9f be b0 2f 54 3e db 5c 09 3e e0 0b 13 be
       -0.31150067 0.20721316 0.13414328 -0.14359999
0000f0 f2 16 83 bc 3e ce 09 be 47 7c 7b 3e 26 48 ab 3e
       -0.016002152 -0.13457581 0.24559127 0.33453482
000100 d4 d1 3f bd 9e 43 e0 3d c8 36 b2 bd cf 72 ba 3d
       -0.046830967 0.10950397 -0.08701855 0.09103929
000110 d9 b8 b3 bd 21 b9 d6 bd f9 39 4e be 05 0b ca 3e
       -0.08775491 -0.10484529 -0.20139302 0.39461532
000120 8b 40 88 be 2d a3 0d 3e d6 2a 35 3e 72 2b cf bd
       -0.26611742 0.13831778 0.17692122 -0.101157084
000130 5d 81 c8 bc 9f 15 d2 3d 75 27 22 be 77 43 15 bd
       -0.024475748 0.1025803 -0.15835364 -0.036441293
000140 ad 7a af 3e cc 77 ae 3d a0 1d 95 3e fa 81 0d bf
       0.34273282 0.08518943 0.29124165 -0.55276453
000150 28 95 b9 bd 68 45 21 3e 3f b3 1d be 3e 72 ea bd
       -0.090616524 0.15749133 -0.15400408 -0.11447571
000160 0f ec 6c 3e d9 3f 4f be 7a cf 63 bc 40 4c 1e 3e
       0.23136924 -0.202392 -0.013904447 0.15458775
000170 53 4e ac 3d df 4b 28 be d5 93 2b 3e 23 0e 01 3e
       0.08413377 -0.16435193 0.16755612 0.12603049
000180 40 d5 af 3d bf 2a 11 3e 46 6e f0 3e 94 db 82 bd
       0.08585596 0.14176463 0.46959132 -0.063895375
000190 f1 ad 40 be e6 60 d8 bc 2b 00 bf 3e 6e 5a 7e 3e
       -0.18816353 -0.026413392 0.37304816 0.24839184
0001a0 6c 46 90 bd 9a ae fb 3d 86 c0 38 be cd dc a2 3d
       -0.07044682 0.12289162 -0.18042192 0.07952271
0001b0 8e a7 24 be 88 75 04 bf a8 26 5c 3b 29 84 8f bd
       -0.16079542 -0.5174184 0.0033592377 -0.070076294
0001c0 29 19 cb 3e 26 51 28 3e 19 67 c1 3d 26 30 fa bc
       0.39667633 0.16437206 0.094434924 -0.030540537
0001d0 51 4d 38 3e ee b8 c9 be aa a0 04 3d 27 88 7d bd
       0.17998244 -0.39398903 0.032379784 -0.061897423
0001e0 63 55 76 3f 2f 04 ce 3c 98 4e 64 3d df d3 3f bd
       0.9622404 0.02514848 0.055739015 -0.046832915
0001f0 b2 a0 84 be 87 41 98 3e 55 d5 f6 bd 7c f2 32 3c
       -0.2590385 0.29737493 -0.120524086 0.010922071
000200 c4 13 ba 3d c0 cf a9 bc 56 ec ca 3c aa 0e 92 3e
       0.09085801 -0.020728946 0.024770897 0.28526813
000210 ae 46 1a 3e c9 94 00 3e f5 a3 3f 3e 62 69 14 bd
       0.15066025 0.12556757 0.18714888 -0.036233313
000220 fa 34 c4 3e 7f 79 8d 3d b9 2e b3 be 04 9f ea bd
       0.38321668 0.06907939 -0.34996584 -0.11456111
000230 0c c1 38 be 60 8a db 3e 26 0d 8d bd 22 20 66 3c
       -0.18042392 0.4287901 -0.068872735 0.014045747
000240 a0 e0 6a be 7f 88 07 be 8d 3b 3a be 7b c2 61 3d
       -0.2293725 -0.13235663 -0.1818678 0.05511711
000250 b0 43 42 be e0 46 db 3d e2 66 7f bc 65 2d 88 bc
       -0.18971133 0.10706878 -0.015588494 -0.016623208
000260 58 bf 0f bd 01 62 1b bc ed a1 cd bd ff c7 50 be
       -0.03509459 -0.009483815 -0.100406505 -0.20388792
000270 3c 37 25 bd 8d 65 87 bd 75 f5 aa bd 12 17 cc 3c
       -0.04033588 -0.06611166 -0.083475985 0.024913345
000280 f7 fe 9e bc 52 77 70 3c 70 e9 8c be 36 d6 7a 3c
       -0.019408686 0.014676886 -0.2752185 0.015309861
000290 3a 0a 8a 3d d0 50 94 bd e8 d2 f9 bd a3 96 3c bd
       0.06740232 -0.07241976 -0.1219843 -0.046042096
0002a0 94 31 04 3e e6 d5 2e 3e c9 1a a5 3d e9 4f 0c 3e
       0.12909538 0.17073783 0.080617495 0.13702358
0002b0 3b b1 a6 3d e5 80 1a 3f ff 9c 0a be af 3e 32 be
       0.08139273 0.6035293 -0.13536452 -0.17406724
0002c0 3c ca 9c be 39 dc 27 3e 68 c5 c7 3e d9 4a 39 be
       -0.30623043 0.16392602 0.39017797 -0.18094958
0002d0 59 11 41 bc 6e a6 92 3e c4 d4 cd bd 51 48 fa bd
       -0.011783921 0.286426 -0.100503474 -0.122208245
0002e0 24 22 bb be 3e df 07 3e b3 bc 9c bd f6 b1 00 3e
       -0.36549485 0.13268754 -0.07653179 0.12567887
0002f0 b0 fd 39 bb f9 49 0f 3b 8f 5f 16 3e 79 17 e1 3e
       -0.002837997 0.002186416 0.1468489 0.4396322
000300 15 99 45 3d eb c7 06 be b5 ca 0b 3e 5f d1 8d 3d
       0.048241694 -0.131622 0.13651545 0.069247
000310 11 60 32 3d 24 0b 09 3b ce 61 29 be 6f 53 8c be
       0.043548647 0.0020911181 -0.16541216 -0.27407405
000320 8a e3 27 bf 3f e6 c9 3d 97 56 71 3d fe db 4b 3d
       -0.6558157 0.09858369 0.05892047 0.049770348
000330 48 ac 51 bc 85 56 e3 be 4f 08 3b be 1f 1f 27 be
       -0.012797423 -0.44401947 -0.18264888 -0.16320466
000340 d8 6d cf 3e 8c 08 d9 bc 58 9f b6 bd fd 24 85 be
       0.40513492 -0.026493333 -0.08917111 -0.26004782
000350 9b 74 11 3e 54 72 d0 3c ca a6 fb 3d 63 a8 2d 3d
       0.14204638 0.02544514 0.12287672 0.042396914
000360 9d e9 b7 3d 4a 52 8c be 70 b0 a1 3d ba 3a 8c 3e
       0.08980105 -0.27406532 0.07894981 0.27388555
000370 f8 23 6c be 29 b7 0a be 63 09 7e 3d 4a 3e 57 3e
       -0.23060596 -0.13546433 0.06202067 0.21019855
000380 2c 88 03 bd b2 2d 43 bd ee 37 a6 3e b1 5d e8 bd
       -0.032112285 -0.047651 0.32464546 -0.11345995
000390 54 06 b0 bd 8b d6 90 3b e7 41 7c 3e df c6 da 3d
       -0.08594957 0.0044201068 0.24634515 0.10682463
0003a0 96 ca b0 bd 65 72 c6 bd 22 e7 d0 3d ac f7 26 be
       -0.0863239 -0.09689788 0.10200335 -0.16305417
0003b0 02 54 49 3e f8 8c 14 bf 90 82 2b 3e c3 40 58 bd
       0.19660953 -0.580276 0.16749024 -0.052796137
0003c0 46 b2 eb 3e 55 e6 00 be c9 8f 4b be f9 f2 77 3d
       0.4603445 -0.12587865 -0.19879068 0.06053445
0003d0 4f 22 13 3e c3 82 0f bf 8d 66 13 3a dd 05 4e 3e
       0.14368556 -0.560589 0.0005622886 0.20119424
0003e0 80 40 fb 3e bf e2 6f bd 59 59 c4 3c 5e c5 30 3a
       0.49072647 -0.05856585 0.023968386 0.0006743277
0003f0 25 6f 85 bd 39 28 4a 3e 79 db f4 bd 05 f0 11 be
       -0.0651534 0.19741906 -0.119559236 -0.14251716

bias f4 [64]
000000 f6 32 13 be 09 85 93 bd 05 ce 16 3e dc ed 28 bc
       -0.14374909 -0.07203109 0.14727028 -0.010310616
000010 83 8b b2 3d 15 5d 91 3d 8d a8 ef bd c8 c7 cb 3b
       0.08718016 0.07097832 -0.117020704 0.006218884
000020 d3 4b 24 3d 15 52 32 3c e9 2c 76 3d 83 c6 00 3e
       0.040111374 0.010883828 0.060101423 0.12575726
000030 40 f0 8b 3d 0a 71 c8 3b 49 e5 9f bc a9 1f 19 3d
       0.068329334 0.006116991 -0.019518511 0.03738371
000040 1d da 4b 3d cd e3 c6 bc 27 47 1e 3d 38 cc 83 bd
       0.049768556 -0.024278546 0.038642075 -0.06435436
000050 e2 9b 0c 3d bf 1a ce bd 87 b8 03 3e 2b 44 ae bd
       0.03432835 -0.10063695 0.1286336 -0.08509096
000060 81 a7 5b bd 08 32 d2 3d d7 df 09 3e 24 aa b4 3d
       -0.05362654 0.10263449 0.13464294 0.08821514
000070 c4 88 c7 bb 1c f9 a9 bd a3 63 b5 bd 90 4d 7e bd
       -0.006089302 -0.08299467 -0.08856895 -0.062085688
000080 b7 8e b7 bd 19 f4 e4 bc 0c e8 0e 3c 1c b8 54 3d
       -0.089627676 -0.027948426 0.0087223165 0.051933393
000090 f1 cd 6b 3c 38 77 4a bd 86 f6 e2 bd 70 53 cf 3d
       0.014392362 -0.049430102 -0.11082177 0.10123336
0000a0 4a ff fa 3d b6 40 00 bd b1 c5 89 3d 99 5f 99 bc
       0.12255724 -0.031311713 0.0672716 -0.018722342
0000b0 b5 87 95 bd 04 c8 3e bd 84 a3 a3 bd ec 78 f0 bd
       -0.07301275 -0.04657747 -0.079901725 -0.11741814
0000c0 c2 bd a7 3d 1f ff ae 3d 97 37 28 3d 41 05 d8 bd
       0.0819049 0.08544754 0.04106864 -0.10547877
0000d0 4f 7c bd 3d 80 1b 26 bd 8b 0e d1 3c d7 62 6a 3d
       0.092522256 -0.04055357 0.02551963 0.057223167
0000e0 21 28 0d bc f3 78 94 3d 9d ec 7a bd 39 26 3f bd
       -0.0086155245 0.07249632 -0.06126081 -0.04666731
0000f0 da 1b 0d be 33 3c 4f 3e 4b f9 be bd d3 4d 22 be
       -0.13780156 0.20237808 -0.093248926 -0.1585

weight f4 [4, 64]
000000 dd ab ac 3d 9f 55 4f be 07 87 f0 be ce d9 52 bd
       0.08431218 -0.20247506 -0.46978018 -0.051477246
000010 d4 da 8f 3e 12 11 9f bc 1f eb e2 3e 76 7f 7a 3e
       0.2809664 -0.01941732 0.44320008 0.24462685
000020 8b 26 4d bd 6f da fb 3e a4 30 a7 be 21 a2 0e be
       -0.050085586 0.4919009 -0.32654297 -0.13929035
000030 e4 0f 11 bf 8c 81 7c 3e ea 84 5d 3e fd f8 bb be
       -0.5666487 0.24658793 0.21632734 -0.367134
000040 76 99 07 3d f6 d1 db 3c aa a5 ec be 5b 6a 97 bd
       0.033105336 0.026833516 -0.46220142 -0.073933326
000050 b3 18 84 3d 7e 43 a9 3e 5f 18 8b 3b 34 6f 0d 3e
       0.064500235 0.33059305 0.0042448486 0.13811952
000060 6a b8 67 be 8a 1e 8b 3e 97 c0 4c bd c8 f4 45 bd
       -0.22628942 0.27171737 -0.049988355 -0.048329145
000070 ce 83 c7 3d 24 64 66 3e 59 5b 03 3e 4c ff c4 bc
       0.097419366 0.22499138 0.12827815 -0.024047516
000080 32 16 4e be 62 80 e8 be b3 ea 17 bf f5 f1 93 3d
       -0.20125654 -0.45410448 -0.593425 0.07223884
000090 51 1b 8d bd 06 f2 b6 be 0c 73 1e 3f 06 15 c4 be
       -0.06889976 -0.35731524 0.618943 -0.3829729
0000a0 68 a1 85 3e 2a 41 c7 be 86 ea 82 3e f0 b9 b9 bc
       0.26099706 -0.38916904 0.25569552 -0.02267167
0000b0 bf 46 cf bd 0d 38 d0 bd 26 6d 49 3e 14 72 09 3f
       -0.101209156 -0.10166941 0.19670543 0.53689694
0000c0 70 21 08 3f f5 9c 52 3e 5e 11 50 be 95 fe da 3e
       0.5317602 0.20567687 -0.20319125 0.42772356
0000d0 ca da 3b 3e c6 8b b8 be 14 db bd 3e 29 eb 4a bf
       0.1834518 -0.3604414 0.37081206 -0.79265076
0000e0 25 50 d1 be 2b 9f af 3e 9c 06 06 3f 55 74 9c bd
       -0.40881458 0.34301123 0.52353835 -0.07639376
0000f0 89 e1 90 3e c0 b1 b5 3d f7 b5 82 3e ca 7a a1 3e
       0.2829707 0.08871794 0.25529453 0.31538993
000100 d1 87 98 3e fd 5e 97 be a6 94 4e 3d ca d7 b5 bd
       0.2979112 -0.29564658 0.05043473 -0.08879049
000110 b1 c2 a7 3e 5f 64 68 bd df 9d d2 bd 30 65 cd 3e
       0.32765725 -0.056736346 -0.10284018 0.40116262
000120 01 a3 c1 bd fa b2 44 3e 95 84 44 3e 75 ff 98 3e
       -0.09454919 0.19208899 0.19191201 0.29882398
000130 56 82 b6 be cd 06 99 3e fb a5 8e 3d 41 7e a1 be
       -0.35646313 0.29888 0.06965252 -0.31541637
000140 97 3c e7 3d cc da 8f bd 28 b9 ed bd ff 11 d8 bd
       0.112908535 -0.07024154 -0.116075814 -0.105503075
000150 44 24 d1 3e 95 20 7e bd 66 e8 ad 3e 25 be 1c 3e
       0.4084798 -0.06204279 0.33966368 0.1530691
000160 a6 70 bc be 32 8c b7 3e ef 0c 51 be 79 46 74 be
       -0.36804694 0.35849148 -0.2041509 -0.23855008
000170 b4 b0 47 3e 84 99 b5 3d 18 a9 a3 3e bb 11 ec be
       0.19501 0.088671714 0.31964946 -0.46107277
000180 e7 07 8e be f7 d8 ab be c4 c3 89 bc 9f bf 45 3e
       -0.27740404 -0.3356397 -0.016816981 0.19311379
000190 93 26 c9 be 69 4d ed 3e 72 83 16 3e b0 ea 84 bd
       -0.39287242 0.46348122 0.1469858 -0.064900756
0001a0 b8 44 33 be 78 d4 06 bf b0 f4 78 be 23 bd a5 3e
       -0.17506683 -0.5266795 -0.24312091 0.32370862
0001b0 27 3d 44 3f 21 be 1a bd d5 68 b9 3e a9 5a 9d be
       0.7665581 -0.037778977 0.36212793 -0.3073323
0001c0 f2 42 20 3e f5 c5 49 3e b1 9c 9f be 1c 7a 84 3e
       0.15650538 0.19704421 -0.31174234 0.25874412
0001d0 2c 19 9b be ef 6a 9f 3d 0f 1f 00 bd 35 97 a5 3e
       -0.30292642 0.07784068 -0.03127962 0.32341924
0001e0 5a af 6e be 7c db e2 3d bc 46 88 3d aa 02 0e be
       -0.23309079 0.110770196 0.066541165 -0.13868204
0001f0 dd 32 e6 bd c3 fd 51 bf 3b 3f f9 be e1 32 7e bd
       -0.1124017 -0.82027835 -0.48681054 -0.06206024
000200 d7 ea c6 bc c0 32 1a bf dd 35 27 3f ec 41 33 bf
       -0.024281902 -0.6023369 0.65316564 -0.70022464
000210 5d dc 83 be 22 8e f0 3e 9c 05 10 bf 6b 4d 1a 3e
       -0.2575406 0.4698344 -0.5625856 0.15068595
000220 e7 63 96 3e 20 56 97 be a7 a5 09 3d 42 67 9c be
       0.29373094 -0.29557896 0.033605244 -0.3054753
000230 cf 64 8e bd 05 3e a0 3e 05 3d fb 3d d8 68 6d 3e
       -0.069528215 0.31297317 0.12267498 0.23184526
000240 83 10 b1 be e4 cd a3 3d f8 6d 89 be 87 3f 81 bb
       -0.3458291 0.07998255 -0.26841712 -0.0039443406
000250 73 1d 39 3f 95 81 52 bf f9 fc b9 3e 06 1b a3 3e
       0.7231056 -0.82228976 0.36325815 0.31856555
000260 15 5a 05 bf 04 e9 01 3d 8c 38 02 bf 8a 80 14 3e
       -0.5209058 0.03171636 -0.50867534 0.14502159
000270 81 f1 f4 3e d0 7b 09 3f 13 ef b8 bc b8 ba 08 bf
       0.47840503 0.5370455 -0.022574937 -0.5340991
000280 24 60 cd 3e ac 15 eb 3c 2b 15 0d 3d 1e 41 7c 3e
       0.40112412 0.028696857 0.034444015 0.24634215
000290 e0 85 09 bf 6e 73 1e 3f 33 cf 5e bd 4f 79 17 bf
       -0.537199 0.6189488 -0.05439682 -0.5916948
0002a0 6c 31 56 3e 96 70 11 be 79 6a 22 bf 71 6c 27 3f
       0.2091729 -0.14203104 -0.63443714 0.65399843
0002b0 7a e4 08 3f c8 25 a5 be 0c af 4d 3e ca 2c d0 be
       0.5347363 -0.32255387 0.20086306 -0.4065917
0002c0 19 91 ec be 09 fb 0e be 46 0a de bd bb ce 0f be
       -0.4620445 -0.1396295 -0.10841803 -0.14043705
0002d0 b0 1f ed 3c 90 cf 02 bf 16 0a b0 be 70 3e 8b 3e
       0.028945774 -0.51097965 -0.34382695 0.27196074
0002e0 03 b8 38 3f 44 df f7 3d 73 58 25 bf 15 59 1c 3f
       0.7215578 0.121031314 -0.6458809 0.6107343
0002f0 f8 ac 18 bf a6 ad ea be c3 1c 1a bf ee 10 ad be
       -0.5963893 -0.45835608 -0.60200137 -0.3380198
000300 bc 1e 54 be 6c f8 dd be 5b 9f 75 bd e8 22 41 be
       -0.20714849 -0.43353593 -0.059966426 -0.18860972
000310 74 d7 da be 13 01 7d 3e 00 c7 ae 3e c1 a1 a7 be
       -0.42742503 0.24707441 0.341362 -0.32740596
000320 84 f6 ab 3e 8e 0f 32 3d b2 81 0b 3e c8 52 36 be
       0.33586514 0.043471865 0.13623694 -0.17805016
000330 3a 64 c9 bd f9 25 c9 be 9d 44 d9 3d 91 5b c3 be
       -0.0983357 -0.39286783 0.1060879 -0.38155797
000340 d9 69 a8 3e 61 78 18 3f aa 92 f0 bd d7 c8 ee be
       0.32893255 0.59558684 -0.11746724 -0.46637604
000350 5d c3 a9 bd 64 24 a8 bd ac a7 21 3d 94 bd ca be
       -0.08289216 -0.08210066 0.039466545 -0.39597762
000360 e3 81 96 bd 98 1c 0a bf c3 7f 72 3d 70 a8 7a 3e
       -0.07348993 -0.5394988 0.059203874 0.24478316
000370 24 ad de 3e 19 5e 9a 3e f8 ce 41 be 8d cb 3c 3e
       0.4349147 0.30149916 -0.18926609 0.18437023
000380 64 fb a6 bd 64 25 32 be 94 11 56 bf 24 67 ca be
       -0.08153418 -0.17397076 -0.8362057 -0.39531815
000390 a5 f7 ba 3c d5 7c fe 3e 10 5f e0 3e b3 45 8b be
       0.022823164 0.49704614 0.43822527 -0.27201614
0003a0 81 c3 e0 bd e4 62 63 be ac 5e db be bc db 0d bd
       -0.109747894 -0.22205693 -0.42845666 -0.034633383
0003b0 2d bd c9 3e 67 d0 06 bf 78 c8 11 3f f2 27 6e 3f
       0.39402142 -0.52661747 0.56946516 0.930297
0003c0 28 74 9b bd 59 6f eb 3e a0 aa 52 3e 1d e5 60 3d
       -0.075905144 0.4598339 0.20572901 0.054906
0003d0 01 f9 b4 3e 07 f4 6e bd ce 3a f3 bb d5 11 e8 3e
       0.35346225 -0.05833819 -0.0074227815 0.45326105
0003e0 76 12 52 3e 0d f0 a0 be e1 c6 d1 3e 0f 26 6a 3e
       0.20514855 -0.31433144 0.40972045 0.2286608
0003f0 4c fc 12 3f 17 04 ae be 43 64 8d bd 05 1b f1 3d
       0.57416224 -0.33987495 -0.06903889 0.11772732

bias f4 [4]
000000 bf 57 38 be c0 d9 8f 3d 7b 8b 95 3d 3c a7 d4 bd
       -0.18002222 0.070239544 0.073019944 -0.1038346
