reskill/results/saved_rl_models/fetch_block_40000/ppo_residual_agent.pth (torch, 29715 bytes, 7 tensors)

log_std f4 [4]
-1.6102622 -1.6102508 -1.6098844 -1.6107281
00000000: 121d cebf b31c cebf b110 cebf 572c cebf

weight f4 [64, 33]
0.118314974 0.015148431 -0.060512155 -0.056586433 0.2003226 1.1452459 0.066083625 -0.10262568
0.2682852 0.19431762 0.35379598 -0.17624728 0.16665581 1.320427 0.046635155 0.27427337
-0.50997275 -0.41881073 -0.10634783 -0.09848462 0.251874 0.07816556 -0.15473789 -0.09310994
-0.13592948 0.0036386524 0.05026259 -0.20188698 0.40642086 0.08267535 -0.053699873 0.10320849
-0.2478889 -0.25872362 -0.22981118 -0.25021613 0.24559928 0.45715228 -0.15419337 0.0214687
-0.6851411 -0.11508959 -0.22030747 -0.25152373 -0.1856334 -0.2511591 0.3248973 1.1686682
0.0047142413 0.6786907 0.5546197 0.7754362 -0.17036335 -0.2958166 -0.066544674 0.10586247
-0.012106714 -0.09783622 0.20035306 -0.011893892 0.16773255 -0.33485267 0.09156253 -0.029779814
-0.28625873 0.25408682 0.124523394 0.24077794 0.49015447 -0.6538136 -0.8260545 1.137981
0.58927226 -0.3096941 -0.2100424 -0.3059634 -0.0032171858 -0.0611575 0.32938954 -0.7529273
-0.732902 -0.05875996 0.6193412 0.10215458 0.30382076 -0.23799425 -0.007453037 -0.04364796
0.16541836 -0.10770812 -0.018017247 0.0117012635 -0.14753759 -0.029757312 0.08842039 -0.15292501
0.20289361 -0.06781643 -0.023645671 -0.10812622 0.034944266 -0.09504756 -0.053027447 0.05274021
-0.34501207 0.32758623 -0.47317705 0.76220727 0.51177204 -0.0131897945 0.09078175 0.24734035
0.07523066 1.7520941 0.10620832 1.0203196 0.52880555 0.6553621 0.08761473 0.034737986
0.03877024 0.09143455 -0.12257599 0.15268391 -0.04673665 0.10404162 -0.053918287 0.015168323
0.032128423 0.011076179 0.04167125 -0.07092709 -0.0035995564 0.026337499 0.17622334 -0.07060016
-0.33912474 0.6225978 -0.27312213 0.6068033 -0.18473947 -0.42311224 0.26337296 0.11785755
0.07382869 0.75057626 0.4061305 0.0854902 -0.32848018 -0.09806958 -0.9347338 -0.20332491
0.0540821 0.032166652 0.12869802 0.0440745 0.07384444 -0.3386188 0.23996532 -0.2775016
0.20139359 -0.029682262 -0.09833141 0.10498894 0.07878411 0.0014083831 0.2610465 -0.00482792
-0.4075849 -0.3292238 -0.09827108 -0.3030547 -0.08228325 0.22090939 0.64559174 -0.100119464
0.11693613 0.09295919 -1.4320948 -0.642881 -0.1600646 -0.09493278 0.4082575 0.50949836
0.25332668 -0.16178116 0.14273503 0.0014700486 -0.0151583925 -0.115535736 0.14170042 0.0619164
-0.17878008 0.31264424 0.23814112 0.28991908 0.09282839 -0.13861358 -0.12925115 0.1697152
0.059991483 -0.45589426 -0.47006908 -1.1626799 0.28568137 -1.0028975 0.56862694 0.572388
0.03628504 -0.123215124 0.13903947 0.12381096 -0.10797016 0.8615145 1.2047848 -0.03937298
0.35795596 0.27493984 0.08171631 0.00675152 0.15576476 0.15654851 0.15350327 0.34344518
-0.19983509 0.17375939 0.4112186 -0.1293943 -0.14372857 0.3897411 0.06087059 0.08502462
0.13108787 -0.32177618 0.048874583 0.09492928 -0.7176107 0.3116685 -0.07890781 -0.17815708
0.4391561 -0.18459415 -0.17830837 -0.22080041 -0.34510723 -1.7796105 0.26753202 0.5106614
0.08817064 0.43247738 0.08829884 0.15372545 0.12461591 0.029154608 -0.11419078 0.03551236
00000000: 1f4f f23d 2031 783c 98db 77bd 2dc7 67bd
00000010: 5e21 4d3e 6b97 923f da56 873d 6a2d d2bd
00000020: ae5c 893e 33fb 463e bf24 b53e 2b7a 34be
00000030: d2a7 2a3e c003 a93f 8104 3f3d 8f6d 8c3e
00000040: 938d 02bf 5c6e d6be e4cc d9bd 4eb2 c9bd
00000050: a1f5 803e 4415 a03d 9c73 1ebe 6db0 bebd
00000060: 1931 0bbe 7576 6e3b 25e0 4d3d 76bb 4ebe
00000070: 6516 d03e b251 a93d 66f4 5bbd f95e d33d
00000080: 96d6 7dbe 6c77 84be 9f53 6bbe 541c 80be
00000090: 617e 7b3e dd0f ea3e dee4 1dbe 21df af3c
000000a0: 6865 2fbf 17b4 ebbd 4898 61be b8c7 80be
000000b0: af16 3ebe ed97 80be f058 a63e eb96 953f
000000c0: ec79 9a3b acbe 2d3f 8ffb 0d3f fd82 463f
000000d0: bb73 2ebe 4675 97be 9348 88bd 6cce d83d
000000e0: 3d5b 46bc 5b5e c8bd 5a29 4d3e 99de 42bc
000000f0: 15c2 2b3e cf71 abbe 2385 bb3d ccf4 f3bc
00000100: 8190 92be ab17 823e 1f06 ff3d 7e8e 763e
00000110: 87f5 fa3e 5460 27bf 4f78 53bf 5da9 913f
00000120: 8cda 163f 3a90 9ebe 5b15 57be 3ca7 9cbe
00000130: 6cd7 52bb 4980 7abd bfa5 a83e d8bf 40bf
00000140: 779f 3bbf 49ae 70bd 258d 1e3f 6c36 d13d
00000150: 658e 9b3e c4b4 73be 9b38 f4bb 34c8 32bd
00000160: 6e63 293e 1396 dcbd e898 93bc a8b6 3f3c
00000170: 1814 17be 9bc5 f3bc c015 b53d 6098 1cbe
00000180: 58c3 4f3e 57e3 8abd 91b4 c1bc 4871 ddbd
00000190: b821 0f3d 4ca8 c2bd 4f33 59bd 1e06 583d
000001a0: 6ca5 b0be 62b9 a73e 4344 f2be 0420 433f
000001b0: 7e03 033f 021a 58bc c8eb b93d ca46 7d3e
000001c0: 8812 9a3d 9f44 e03f bf83 d93d d599 823f
000001d0: cd5f 073f d0c5 273f 5a6f b33d 6b49 0e3d
000001e0: 8bcd 1e3d 0a42 bb3d 1f09 fbbd 2c59 1c3e
000001f0: ee6e 3fbd c613 d53d 6cd9 5cbd 8f84 783c
00000200: 1899 033d dd78 353c 79af 2a3d 3942 91bd
00000210: 89e6 6bbb bdc1 d73c e473 343e d196 90bd
00000220: c2a1 adbe 9262 1f3f aad6 8bbe 7657 1b3f
00000230: 582c 3dbe 2ba2 d8be d2d8 863e 4d5f f13d
00000240: 7f33 973d c425 403f 56f0 cf3e 7c15 af3d
00000250: 8e2e a8be b4d8 c8bd b74a 6fbf 6834 50be
00000260: 3185 5d3d 2ec1 033d 6ac9 033e 7787 343d
00000270: c13b 973d 715f adbe 78b9 753e b114 8ebe
00000280: 1f3a 4e3e 3728 f3bc fa61 c9bd 7104 d73d
00000290: 9059 a13d 7f99 b83a e3a7 853e 8733 9ebb
000002a0: f8ae d0be 0690 a8be 5942 c9bd fc29 9bbe
000002b0: 1f84 a8bd 1236 623e 8045 253f 6f0b cdbd
000002c0: 367c ef3d 6361 be3d e24e b7bf d993 24bf
000002d0: f9e7 23be 1e6c c2bd 2107 d13e 7c6e 023f
000002e0: 09b4 813e f6a9 25be 2229 123e a5ae c03a
000002f0: e85a 78bc 009e ecbd ea19 113e 0d9c 7d3d
00000300: 2012 37be e812 a03e 44db 733e 4670 943e
00000310: d01c be3d b8f0 0dbe 6a5a 04be d2c9 2d3e
00000320: a1b9 753d f96a e9be e5ac f0be b2d2 94bf
00000330: d444 923e f25e 80bf 8991 113f 0588 123f
00000340: 9f9f 143d 3658 fcbd 5d60 0e3e 9a90 fd3d
00000350: 761f ddbd 378c 5c3f 6336 9a3f 9045 21bd
00000360: 0146 b73e eac4 8c3e e15a a73d db3b dd3b
00000370: cc80 1f3e 414e 203e f62f 1d3e 0cd8 af3e
00000380: 92a1 4cbe fbed 313e 3f8b d23e f07f 04be
00000390: 952d 13be 258c c73e 7153 793d 6321 ae3d
000003a0: e63b 063e d9bf a4be b730 483d 486a c23d
000003b0: 56b5 37bf 0393 9f3e 6b9a a1bd cf6e 36be
000003c0: 11d9 e03e 4006 3dbe 7896 36be 8119 62be
000003d0: e5b1 b0be 47ca e3bf f5f9 883e b5ba 023f
000003e0: cf92 b43d ad6d dd3e 06d6 b43d 346a 1d3e
000003f0: a036 ff3d a5d5 ee3c dbdc e9bd 6975 113d

bias f4 [64]
0.06490588 0.011352135 0.07915217 -0.20289744 0.12450151 0.16434741 0.18990345 -0.13502698
0.03819684 -0.20405844 -0.1565754 0.1368541 0.19832943 0.14087443 0.09272276 -0.027116252
0.13754816 -0.033192653 0.030284211 -0.08203995 0.054816473 0.14092088 0.08691962 0.15903436
-0.03621165 0.16532701 -0.07647583 0.0648303 -0.06598798 0.0060862373 0.059423916 0.105833896
0.043151412 -0.06872254 -0.10286435 0.05194436 -0.10079573 -0.069657095 0.10967822 0.08795841
0.027913764 0.096146934 -0.12470366 0.06922385 0.022748096 0.010373258 -0.054277625 0.014080192
0.12975618 -0.07114371 0.074557416 0.061727345 -0.0987013 -0.09209805 -0.1506199 0.053371586
0.03605344 0.037247986 -0.13282804 0.0050491346 0.118461184 0.095301606 0.24329002 -0.077508576
00000000: 60ed 843d 4efe 393c 881a a23d 59c4 4fbe
00000010: a6fa fe3d b04a 283e 0d76 423e 8344 0abe
00000020: 4a74 1c3d b2f4 50be 4d55 20be 7b23 0c3e
00000030: df16 4b3e 6341 103e 6ee5 bd3d e722 debc
00000040: 6dd9 0c3e 05f5 07bd 9816 f83c 9004 a8bd
00000050: 3d87 603d 904d 103e ea02 b23d e7d9 223e
00000060: ab52 14bd 7c4b 293e 5c9f 9cbd c0c5 843d
00000070: b524 87bd 0f6f c73b 7e66 733d 71bf d83d
00000080: 89bf 303d 67be 8cbd 8baa d2bd 9cc3 543d
00000090: fe6d cebd 61a8 8ebd f99e e03d 8a23 b43d
000000a0: 68ab e43c afe8 c43d a264 ffbd 3cc5 8d3d
000000b0: 375a ba3c 99f4 293c 3752 5ebd 9bb0 663c
000000c0: cede 043e cbb3 91bd 8fb1 983d d0d5 7c3d
000000d0: e823 cabd e79d bcbd 1a3c 1abe 2a9c 5a3d
000000e0: c6ac 133d 5891 183d 1304 08be 3673 a53b
000000f0: c79b f23d 7d2d c33d 0521 793e d1bc 9ebd

weight f4 [64, 64]
-0.036454715 -0.03148359 -0.017346043 0.012932279 -0.124974206 0.026468135 -0.006290809 -0.05156321
0.0019422184 0.08146849 -0.10882102 0.039019164 -0.102471784 0.118336655 0.29908812 0.07655307
-0.18933469 0.013788532 0.13675682 -0.2433952 -0.11065515 -0.21419849 0.104115024 -0.12686448
0.044287253 0.09052255 0.15540531 0.046660498 0.045376442 0.15886834 -0.22007015 0.17041203
0.124035515 0.17023446 0.15327309 -0.15520361 -0.08894222 0.20732108 -0.17944138 0.18829525
0.19783987 0.17691763 -0.041833043 0.033003658 0.053438727 0.033383235 -0.29372448 0.23266993
0.058967903 -0.1279806 0.08064965 -0.22218472 0.07366247 0.03905185 -0.10862904 -0.054148156
-0.42679024 -0.09695538 0.24719763 -0.20154192 -0.018451186 -0.048322108 0.24862538 -0.13292305
-0.29516345 0.34708828 -0.027367195 -0.06444236 -0.34001523 0.34924892 -0.04611045 0.007188312
-0.090954706 -0.0059024836 0.44093207 0.33482105 0.23635793 0.27640504 -0.14089215 0.039084315
-0.11514105 -0.12551004 -0.012340494 -0.24111594 1.6380677 -0.05353592 -0.19703098 -0.039863296
0.5917197 -0.22437312 0.22263092 0.34838837 0.23207955 0.34145954 -0.058715776 0.41779417
0.15954381 0.24426274 0.033673454 0.25698578 -0.10267327 0.11587561 0.82578075 0.4427126
0.20739262 -0.17245324 -0.63316137 -0.40430656 0.11320591 0.09145266 -0.1948703 0.051370498
0.020604147 0.19453175 -1.6535577 0.050112408 0.03174147 -0.15568227 -0.7207016 0.035117052
0.03977685 -0.026548095 0.4675299 0.056036327 0.10573352 -0.010825375 -0.111993186 0.11322143
-0.10435235 0.083007246 -0.36095133 0.17767072 -0.048712067 -0.044676557 0.099059895 -0.1799734
0.017176017 0.10119251 0.24967006 0.14400883 0.27277267 -0.27666235 -0.1252426 -0.06060291
-0.008388174 -0.36310714 -0.3010613 0.17345983 0.08312974 -0.18188329 -0.027711349 -0.3202515
0.103572644 -0.5246173 0.09616753 -0.01853971 -0.047295876 -0.18956639 -0.40918112 -0.30316067
0.20303743 -0.036485896 -0.22053711 -0.09766281 0.5257552 0.27635968 0.029272145 -0.3020809
-0.050975237 -0.30375737 0.3029732 0.19557977 -0.12547615 -0.042293187 -0.09477147 0.16813424
-0.031776965 -0.1420227 0.11937457 0.49139532 0.16150992 -0.09269078 -0.07001493 0.46004513
0.3673765 -0.3855966 -0.20914102 0.34189132 -0.047175072 -0.24522664 -0.12824707 0.21201232
-0.023065738 -0.122702144 -0.71482784 0.043570414 0.12060435 -0.025893247 0.055833153 -0.25209275
0.01645713 -0.54231817 0.15154271 -0.04374967 -0.16436958 -0.0076583335 0.39012405 -0.083929054
-0.0719212 0.052949056 0.003884911 -0.6303771 0.7036996 -0.75088316 -0.16685247 -0.2437171
-0.090633966 0.043433253 0.12886347 0.086920574 -0.029270234 0.13454022 -0.22040462 0.23474005
-0.01609763 -0.14536704 0.077152245 -0.21768908 0.08831345 0.7884081 0.2263079 0.14808294
0.14531574 -0.051445223 -0.009724528 -0.00768065 0.17907952 -0.11289451 -0.34507927 0.10900431
0.053142715 0.37199345 -1.2012904 0.296963 -0.21204369 -0.011437587 -0.46776217 0.14174691
-0.30401397 0.53921676 0.022947885 -0.11178383 -0.1255762 0.1773732 0.33915982 -0.14208817
00000000: 8a51 15bd f0f4 00bd 4a19 8ebc e9e1 533c
00000010: 7af2 ffbd b4d3 d83c 2123 cebb f233 53bd
00000020: 0992 fe3a f4d8 a63d 8edd debd 8fd2 1f3d
00000030: badc d1bd 7d5a f23d 1422 993e dbc7 9c3d
00000040: f4e0 41be 4be9 613c fb09 0c3e 973c 79be
00000050: 2b9f e2bd d956 5bbe 423a d53d c3e8 01be
00000060: 8d66 353d e363 b93d 9222 1f3e 141f 3f3d
00000070: a6dc 393d 62ae 223e 125a 61be 7e80 2e3e
00000080: 5506 fe3d f151 2e3e 9ff3 1c3e b2ed 1ebe
00000090: 5727 b6bd fa4b 543e 7bbf 37be 78d0 403e
000000a0: 8996 4a3e e529 353e 2059 2bbd d82e 073d
000000b0: 91e2 5a3d dcbc 083d 0e63 96be 0741 6e3e
000000c0: 5488 713d 590d 03be a52b a53d 6484 63be
000000d0: 59dc 963d d5f4 1f3d e778 debd 75ca 5dbd
000000e0: 4084 dabe 8b90 c6bd 6021 7d3e 0161 4ebe
000000f0: f126 97bc 67ed 45bd a797 7e3e fb1c 08be
00000100: aa1f 97be 8eb5 b13e 2b31 e0bc 5bfa 83bd
00000110: 7a16 aebe c1d0 b23e 50de 3cbd ee8b eb3b
00000120: 7646 babd 9f69 c1bb d9c1 e13e aa6d ab3e
00000130: d007 723e f684 8d3e 0846 10be e016 203d
00000140: 12cf ebbd b485 00be c92f 4abc 19e7 76be
00000150: 34ac d13f 7b48 5bbd 7dc2 49be b247 23bd
00000160: f17a 173f 11c2 65be 5cf9 633e f65f b23e
00000170: 43a6 6d3e c9d3 ae3e f47f 70bd 1ee9 d53e
00000180: 745f 233e 0320 7a3e 2ded 093d a493 833e
00000190: 5d46 d2bd 3150 ed3d 5e66 533f 3aab e23e
000001a0: bb5e 543e 9597 30be dd16 22bf 4501 cfbe
000001b0: 80d8 e73d 884b bb3d 148c 47be df69 523d
000001c0: 07ca a83c 5533 473e c7a7 d3bf ab42 4d3d
000001d0: 5803 023d 2c6b 1fbe e67f 38bf e6d6 0f3d
000001e0: 0ded 223d 647b d9bc 1460 ef3e 5986 653d
000001f0: d18a d83d ea5c 31bc af5c e5bd a3e0 e73d
00000200: afb6 d5bd b4ff a93d 9dce b8be 50ef 353e
00000210: 4e86 47bd c4fe 36bd eadf ca3d f24a 38be
00000220: b8b4 8c3c 053e cf3d 82a9 7f3e 0d77 133e
00000230: dca8 8b3e b0a6 8dbe 993f 00be c23a 78bd
00000240: 8d6e 09bc 2ee9 b9be b524 9abe 749f 313e
00000250: ed3f aa3d 9d3f 3abe e902 e3bc 01f8 a3be
00000260: e51d d43d 524d 06bf 7bf3 c43d 97e0 97bc
00000270: 52b9 41bd b11d 42be 3080 d1be e037 9bbe
00000280: 0be9 4f3e 3c72 15bd 7bd4 61be 7003 c8bd
00000290: e597 063f 047f 8d3e 23cc ef3c 59aa 9abe
000002a0: 69cb 50bd 1686 9bbe 4e1f 9b3e 1046 483e
000002b0: d27c 00be 9f3b 2dbd 8b17 c2bd 622b 2c3e
000002c0: 9028 02bd 666e 11be a87a f43d 2b98 fb3e
000002d0: db62 253e aad4 bdbd fd63 8fbd 098b eb3e
000002e0: c618 bc3e eb6c c5be 1029 56be 610c af3e
000002f0: a63a 41bd b11c 7bbe 3353 03be c219 593e
00000300: 5cf4 bcbc 434b fbbd f5fe 36bf e476 323d
00000310: 6aff f63d 131e d4bc 4eb1 643d 4d12 81be
00000320: 1ad1 863c 5dd5 0abf 032e 1b3e db32 33bd
00000330: 8050 28be c2f2 fabb 57be c73e ffe2 abbd
00000340: 6c4b 93bd 1ce1 583d fe99 7e3b 6560 21bf
00000350: a825 343f e139 40bf 60db 2abe fa90 79be
00000360: 4d9e b9bd 11e7 313d c9f4 033e 6a03 b23d
00000370: 21c8 efbc e9c4 093e c0b1 61be b25f 703e
00000380: 2ddf 83bc 19db 14be ff01 9e3d e3e9 5ebe
00000390: afdd b43d 1dd5 493f 42bd 673e 0ea3 173e
000003a0: a6cd 143e 3ab8 52bd a053 1fbc f6ad fbbb
000003b0: 9f60 373e 3d35 e7bd 3bae b0be a73d df3d
000003c0: 2dac 593d ed75 be3e e2c3 99bf 890b 983e
000003d0: fb21 59be b864 3bbc 867e efbe 1a26 113e
000003e0: b8a7 9bbe 1c0a 0a3f 34fd bb3c ecee e4bd
000003f0: 0c97 00be 52a1 353e 5ba6 ad3e 907f 11be

bias f4 [64]
-0.10480873 -0.118593484 -0.03586621 -0.007933974 0.14719062 0.19271466 -0.1315969 0.12746438
-0.12025054 -0.041643213 0.04237255 -0.0415473 -0.07231499 0.085439764 0.056433834 -0.030767495
-0.07047702 0.12558566 -0.1626639 0.020538595 0.0035692381 0.17279926 0.22775453 0.03649852
-0.03990073 -0.045711264 0.07467231 -0.114110075 -0.050574705 -0.16538453 -0.0839343 0.07015537
-0.06822686 0.05924338 0.09205805 0.08770143 0.074196406 0.039942678 -0.16325699 -0.024155239
-0.06460896 -0.06700655 0.04289635 0.11685224 0.088200435 0.12836127 -0.021979267 0.17292592
0.09229965 -0.077191785 -0.054424606 0.12795345 -0.01896649 0.006324315 0.09514843 0.0195145
-0.041658577 -0.047119476 -0.092861764 -0.069138445 -0.066128 -0.039240636 0.1646422 -0.10377033
00000000: f6a5 d6bd 24e1 f2bd 72e8 12bd 80fd 01bc
00000010: 23b9 163e fe56 453e 56c1 06be 0686 023e
00000020: ea45 f6bd 1392 2abd d78e 2d3d 802d 2abd
00000030: e219 94bd 0bfb ae3d 2a27 673d 1d0c fcbc
00000040: 4256 90bd 8799 003e 5e91 26be 8e40 a83c
00000050: e1e9 693b 4af2 303e 7c38 693e 797f 153d
00000060: f36e 23bd bc3b 3bbd cced 983d 8bb2 e9bd
00000070: 6c27 4fbd 905a 29be bfe5 abbd 9ead 8f3d
00000080: 86ba 8bbd 30a9 723d ee88 bc3d cf9c b33d
00000090: 49f4 973d ef9a 233d d72c 27be 35e1 c5bc
000000a0: b451 84bd bb3a 89bd 15b4 2f3d 3a50 ef3d
000000b0: 6ea2 b43d 2371 033e dd0d b4bc 7e13 313e
000000c0: 9907 bd3d ba16 9ebd 56ec 5ebd 3b06 033e
000000d0: 9d5f 9bbc 333c cf3b 2edd c23d dfdc 9f3c
000000e0: 2fa2 2abd 5a00 41bd 4f2e bebd 7598 8dbd
000000f0: 1e6e 87bd caba 20bd f797 283e 8a85 d4bd

weight f4 [4, 64]
-0.4163643 -0.4826899 0.059754018 0.706535 0.034172576 -0.6283593 -0.25349125 -0.36316866
0.31865963 0.66086864 0.6081354 0.3404516 0.47094548 -0.18330106 -0.1854655 -0.375817
0.29312348 -0.9428917 0.55677265 0.5608584 0.20911723 0.5429857 0.42963845 -0.32666007
0.373929 -0.15978456 -0.6835627 -0.14894225 0.7066605 -0.11758488 0.31397355 0.26254562
0.23494966 -0.16759636 0.38536346 -0.45857233 0.03050339 -0.55986404 0.92159104 0.5606277
0.47807094 -0.28849807 0.87362254 0.33604133 -0.18571171 0.006740056 0.37076464 -0.21404837
0.4976582 0.5783544 0.07725397 -0.08187552 0.19302182 -0.35802898 0.57701594 0.12406187
-0.029671405 0.44826123 0.08941292 -0.106347986 0.43607885 0.410643 0.58594716 0.3233374
0.5272436 0.061415214 0.010968288 0.31616077 0.15224418 -0.8041282 0.5173864 0.27063626
-0.32393694 -0.43841973 0.777669 0.11675111 0.005059011 -0.4873744 -0.026525272 0.06406972
-0.36661363 0.28776255 0.01490443 0.08322402 -0.106976435 0.09973278 0.017585613 -0.7767687
0.44543555 0.47247633 0.23875459 0.080083385 -0.6229302 0.5664904 0.30194607 0.5283014
-0.0976559 -0.19647917 0.43784764 0.034045894 0.2187527 -0.59984475 -0.07571696 0.65210694
-0.17860615 -0.179669 -1.1942592 0.03252086 -0.6047181 0.005036042 0.5030659 -0.30890554
-0.31588015 0.1630496 -0.26199165 -0.43613407 -0.24073835 0.69131535 0.14997303 0.28453505
0.68773466 -0.26139057 -0.38655907 -0.4046014 -0.46692693 -0.2422181 -0.155523 0.57656354
0.65199983 -0.28958988 -0.3700952 0.5668109 0.3974728 -0.23523416 -0.09065314 0.2714199
-0.39732268 0.59553075 -0.8355624 -0.18324764 -0.073455095 -0.88448346 -0.06622583 -0.245228
0.50238067 0.6203187 0.1024361 0.14261974 0.28971547 0.45481455 -0.17933604 0.2772532
-0.07227127 -0.5073801 1.4587544 -0.11516514 -0.21786681 -0.18206494 0.4207782 0.23459625
0.3235738 0.6361584 0.2732569 0.34605524 -0.369081 0.7347436 -0.3615604 -1.309356
-0.80950874 0.2485868 0.18619838 0.05738536 -0.3432073 -0.3344461 -0.75789624 -0.21719638
-0.020551398 -0.3208651 0.4604051 0.060848292 -0.20702149 -1.0975735 -0.71503466 -0.41363838
0.65482974 0.43113923 0.19577548 0.36268616 -0.041784618 -0.23436163 0.38233706 -0.11587081
0.08988249 -0.2255961 -0.5024634 -0.3503387 0.15708162 -0.13264753 0.40584692 0.13278942
0.046965864 0.049555626 -0.15885141 0.2556445 0.15555394 0.3633958 0.17593561 0.21380514
-0.23460084 0.035644617 -0.087052725 0.23410872 -0.38693744 -0.10776637 -0.17436096 0.023203624
-0.14926197 0.3090588 0.12599045 -0.25900155 -0.23334889 0.18490137 -0.14515525 -0.25331342
-0.40121248 -0.32266393 0.11695424 -0.11624271 0.29172817 -0.07563201 0.3217729 -0.072268866
-0.13083237 0.38359413 -0.10481297 0.41542816 -0.8326463 0.89782995 0.4537658 -0.22876126
-0.117322795 0.09655176 0.51264864 -0.026451008 0.19242352 0.23936763 0.11447536 0.2192187
-0.68052006 0.62088805 0.2651816 -0.2817834 -0.011334725 0.115971155 0.23815273 -0.23192586
00000000: b42d d5be 2123 f7be a1c0 743d 7adf 343f
00000010: 8bf8 0b3d 28dc 20bf 9bc9 81be 3ef1 b9be
00000020: 5b27 a33e b02e 293f c3ae 1b3f ac4f ae3e
00000030: c41f f13e 46b3 3bbe abea 3dbe 166b c0be
00000040: 4814 963e 5a61 71bf a788 0e3f 6b94 0f3f
00000050: d422 563e 1c01 0b3f 92f9 db3e fd3f a7be
00000060: 9f73 bf3e 909e 23be f7fd 2ebf 5184 18be
00000070: b4e7 343f 57d0 f0bd 24c1 a03e 616c 863e
00000080: a596 703e 619e 2bbe 5c4e c53e fec9 eabe
00000090: 3fe2 f93c 4053 0fbf 64ed 6b3f 4c85 0f3f
000000a0: b7c5 f43e 05b6 93be baa5 5f3f 9c0d ac3e
000000b0: 362b 3ebe b0db dc3b ddd4 bd3e 7f2f 5bbe
000000c0: 0ecd fe3e 090f 143f 5437 9e3d 5aae a7bd
000000d0: 83a7 453e 934f b7be 51b7 133f 2614 fe3d
000000e0: 7211 f3bc 7f82 e53e 1f1e b73d f9cc d9bd
000000f0: ba45 df3e cd3f d23e a200 163f 7b8c a53e
00000100: 70f9 063f 858e 7b3d 56b4 333c d3df a13e
00000110: e6e5 1b3e 59db 4dbf 6f73 043f d690 8a3e
00000120: 10db a5be 8d78 e0be 5115 473f 351b ef3d
00000130: 0fc6 a53b 2389 f9be 874b d9bc fc36 833d
00000140: c8b4 bbbe 9d55 933e b631 743c 5b71 aa3d
00000150: 7616 dbbd b340 cc3d b40f 903c 50da 46bf
00000160: 2110 e43e 6be8 f13e 157c 743e c202 a43d
00000170: 5b78 1fbf 8405 113f ad98 9a3e c33e 073f
00000180: d1ff c7bd d631 49be 912d e03e b573 0b3d
00000190: b500 603e 6d8f 19bf 7e11 9bbd 7bf0 263f
000001a0: 88e4 36be 26fb 37be 7cdd 98bf 9834 053d
000001b0: cece 1abf 6205 a53b edc8 003f de28 9ebe
000001c0: 0bbb a1be 79f6 263e c523 86be f74c dfbe
000001d0: 1d84 76be 0bfa 303f 8892 193e 94ae 913e
000001e0: 610f 303f fcd4 85be 12eb c5be ea27 cfbe
000001f0: 0c11 efbe 0608 78be 6c41 1fbe ab99 133f
00000200: 76e9 263f 2045 94be 1e7d bdbe 851a 113f
00000210: 8e81 cb3e 39e1 70be 5aa8 b9bd 8df7 8a3e
00000220: e16d cbbe b474 183f 6be7 55bf 45a5 3bbe
00000230: a06f 96bd 826d 62bf 68a1 87bd 0d1d 7bbe
00000240: 059c 003f 35cd 1e3f 05ca d13d e90a 123e
00000250: 9655 943e 74dd e83e dea3 37be 22f4 8d3e
00000260: f602 94bd aae3 01bf 77b8 ba3f b3db ebbd
00000270: 7a18 5fbe 3b6f 3abe 3d70 d73e 003a 703e
00000280: 77ab a53e 47db 223f 54e8 8b3e 272e b13e
00000290: 2ff8 bcbe 2818 3c3f 721e b9be fa98 a7bf
000002a0: f73b 4fbf 8a8d 7e3e caaa 3e3e e90c 6b3d
000002b0: deb8 afbe 853c abbe 7d05 42bf ba68 5ebe
000002c0: 685b a8bc 6e48 a4be 38ba eb3e 0f3c 793d
000002d0: 71fd 53be 4a7d 8cbf 830c 37bf 69c8 d3be
000002e0: eca2 273f 48be dc3e 5e79 483e 00b2 b93e
000002f0: 5926 2bbd 7ffc 6fbe afc1 c33e ad4d edbd
00000300: 5014 b83d aa02 67be 71a1 00bf 985f b3be
00000310: 01da 203e c1d4 07be 2bcb cf3e f3f9 073e
00000320: 475f 403d d7fa 4a3d f2a9 22be d6e3 823e
00000330: 8849 1f3e 040f ba3e 7728 343e bcef 5a3e
00000340: 343b 70be 1700 123d b348 b2bd 32ba 6f3e
00000350: aa1c c6be 9db4 dcbd ae8b 32be 8715 be3c
00000360: 21d8 18be f43c 9e3e a403 013e da9b 84be
00000370: 03f3 6ebe c956 3d3e 94a3 14be 4cb2 81be
00000380: b96b cdbe 3534 a5be b485 ef3d a810 eebd
00000390: 655d 953e f5e4 9abd 6bbf a43e b301 94bd
000003a0: ecf8 05be 7366 c43e 2fa8 d6bd 00b3 d43e
000003b0: 4f28 55bf 2fd8 653f fe53 e83e 6440 6abe
000003c0: ef46 f0bd eebc c53d f13c 033f c9af d8bc
000003d0: ac0a 453e ca1c 753e 0f72 ea3d de7a 603e
000003e0: 9036 2ebf 85f2 1e3f e2c5 873e ea45 90be
000003f0: 48b5 39bc 4982 ed3d 4fde 733e f97d 6dbe

bias f4 [4]
-0.10151545 0.008091133 -0.022803653 -0.022961494
00000000: 55e7 cfbd ac90 043c bace babc be19 bcbc
