reskill/results/saved_skill_models/fetch_hook_40000/skill_vae.pth (torch, 509052 bytes, 34 tensors)

weight_ih_l0 f4 [512, 47]
0	0xbd9eb113	-0.07748618
1	0xbcd6c60b	-0.026217481
2	0xbbf0324d	-0.007330215
3	0xbc76d67b	-0.015065785
4	0xbd14a741	-0.03629232
5	0xbd863580	-0.06553173
6	0xbd3e968c	-0.04653029
7	0x3cfb2152	0.030655537
8	0xbd63e623	-0.055639397
9	0x3d8424c9	0.06452329
10	0x3d5cfd1f	0.053952333
11	0xbd0a8afe	-0.03382396
12	0x3d04065a	0.03223262
13	0x3dbfea8a	0.09370907
14	0x3a885b78	0.0010403236
15	0xbe2cb2f9	-0.16865148
16	0xbbea6c0b	-0.007153993
17	0x3d7a9692	0.06117875
18	0x3ab5f741	0.0013882892
19	0xbd87b76c	-0.06626782
20	0x3b921eac	0.004459223
21	0x3dad35fc	0.08457562
22	0xbd09bccd	-0.03362732
23	0xbc8b4ac3	-0.017003423
24	0xbd00db97	-0.031459417
25	0x3d162dd8	0.036664814
26	0x3d9c089e	0.07618831
27	0xbd81a393	-0.063300274
28	0x3c2618d4	0.010137755
29	0x3c8e16b8	0.017344818
30	0xbdacd2bd	-0.08438633
31	0x3d65e8a8	0.05613008
32	0xbd3c21e7	-0.04593077
33	0x3d9a9511	0.075479634
34	0x3ca92eba	0.020652164
35	0x3d6734be	0.056446783
36	0x3d1b3f05	0.037901897
37	0x3cdc7371	0.026910516
38	0x3d6bcc26	0.057567738
39	0x3dc0a7a2	0.094069734
40	0x3cfdff0e	0.031005409
41	0x3d3741a7	0.044740345
42	0xbd82b762	-0.06382634
43	0xbe0058c4	-0.12533861
44	0xbd930e77	-0.07180493
45	0x3ccc0771	0.024905892
46	0x3a3302ac	0.0006828706
47	0x3db9f607	0.09080129
48	0xbdbe2cae	-0.09285866
49	0xbd70c74e	-0.05878382
50	0xbd37a8e7	-0.044838812
51	0x3c8b769b	0.017024329
52	0xbd435c25	-0.047695298
53	0x3c90c015	0.017669717
54	0x3dae3ae2	0.08507325
55	0x3d456090	0.048187792
56	0x3d9d943e	0.076942906
57	0x3dfe12a5	0.124059
58	0x3d8a2616	0.067455456
59	0x3c506c53	0.012721139
60	0xbc5b4ab8	-0.013384514
61	0xbd407188	-0.04698327
62	0xbe218621	-0.15773822
63	0x3dd8d36f	0.10587203
64	0x3d61348b	0.05498175
65	0x3d6831c1	0.056688074
66	0xbc5b84b1	-0.013398335
67	0x3c8e8fad	0.017402494
68	0x3e921ddd	0.2853841
69	0x3d6c808b	0.057739776
70	0x3dd4bc26	0.10387449
71	0xbd2aacc8	-0.041668683
72	0x3a3a1c01	0.000709951
73	0xbbc895e2	-0.006121383
74	0xbd9e7921	-0.07737947
75	0xbd07fa1b	-0.033197504
76	0x3e0bce58	0.13652933
77	0xbb2a434a	-0.0025980049
78	0xbe13594d	-0.14389534
79	0xbe29370b	-0.16524903
80	0x396b9732	0.00022467671
81	0x3dfdc863	0.12391736
82	0x3dc55019	0.09634418
83	0x3c7adbc9	0.01531119
84	0x3e2460c9	0.16052546
85	0xbd211552	-0.039326973
86	0x3d00539a	0.03132973
87	0xbd264caf	-0.040600475
88	0x3db5ee8c	0.0888339
89	0xbd96ec7d	-0.07369325
90	0x3d479cce	0.048733525
91	0x3e0cd370	0.13752532
92	0x3dfef95a	0.12449904
93	0xbd708ac9	-0.058726106
94	0xbc9c7ff0	-0.019103974
95	0xbdc3f6b4	-0.09568539
96	0xbd9f5134	-0.0777916
97	0xbdca8ac6	-0.0988975
98	0xbda7c4a0	-0.081918
99	0xbd0a2070	-0.03372234
100	0xbd96a786	-0.07356171
101	0xbe00ccc6	-0.12578115
102	0x3dfdcffe	0.12393187
103	0xbc359f21	-0.011085303
104	0xb8ba0614	-8.870303e-05
105	0x3d1a8dcb	0.03773288
106	0xbd809394	-0.06278148
107	0xbd89c6ca	-0.06727369
108	0x3d55e4a2	0.052219994
109	0xbcaa5117	-0.02079062
110	0xbd09cb7d	-0.033641327
111	0x3bad6848	0.0052919723
112	0x3d431b81	0.04763365
113	0xbd9c857e	-0.07642649
114	0xbc42de6b	-0.011893849
115	0x3d913245	0.07089666
116	0xbd561ca2	-0.0522734
117	0x3d9b47b2	0.07582034
118	0xbc8d1538	-0.017222032
119	0xbd15a334	-0.036532596
120	0xbd92577c	-0.071455926
121	0xbdc105a6	-0.094249055
122	0xbd82e3de	-0.063911185
123	0x3c959d61	0.01826352
124	0xbd456c6c	-0.048199102
125	0x3d190482	0.037357815
126	0xbd646106	-0.05575659
127	0xbdfd3fa1	-0.12365652
128	0xbd0b2870	-0.03397411
129	0xbdd248ca	-0.1026779
130	0x3d0a46d1	0.033758942
131	0x3d96da6f	0.07365882
132	0x3de07b3e	0.109610066
133	0x3d39d92e	0.045373134
134	0xbc52dc82	-0.012869956
135	0x3ccf6033	0.025314426
136	0xbdb50fe7	-0.08840924
137	0x3c97b169	0.018517213
138	0xbd677a6e	-0.056513242
139	0xbd549103	-0.051896106
140	0x3cb61573	0.022227025
141	0xbd1bf912	-0.03807933
142	0xbc1487e2	-0.0090656
143	0xbd9e52db	-0.07730647
144	0xbc48f573	-0.012265551
145	0xbd5fe89e	-0.0546652
146	0x3d96267e	0.073315606
147	0xbcb0de9e	-0.021590527
148	0xbde3420d	-0.110965826
149	0xbc31082d	-0.010805172
150	0xbd872eaa	-0.06600697
151	0xbce6d9a0	-0.028179944
152	0xbd7ac910	-0.061226904
153	0xbd16d0f4	-0.036820367
154	0xbce5f898	-0.02807264
155	0x3cb8b43a	0.022546876
156	0x3e501ddc	0.2032389
157	0x3d928f1d	0.07156203
158	0x3d9b620d	0.07587061
159	0xbdb558aa	-0.08854802
160	0x3d0c10a8	0.034195572
161	0x3e0fe247	0.14051162
162	0xbd2fac64	-0.042889014
163	0xbd7caeaa	-0.06169001
164	0x3dabe394	0.083930165
165	0xbe293a8c	-0.1652624
166	0x3d8cb5cf	0.06870615
167	0xbc61073d	-0.013734636
168	0x3d5220ae	0.051300697
169	0x3dc47196	0.09591977
170	0xbd794850	-0.06085998
171	0xbcf1b7ed	-0.029506648
172	0x3d5ae6cd	0.053442765
173	0x3ca860d9	0.020553993
174	0xbd19b43d	-0.037525404
175	0x3d9a03d7	0.07520264
176	0xbe69c918	-0.22830617
177	0x3e1d8a4d	0.15384789
178	0x3d0a1348	0.033709794
179	0xbda8885f	-0.08229136
180	0xbd4470b9	-0.047959063
181	0x3cb62a19	0.02223687
182	0x3cdbaa2c	0.026814543
183	0x3d369082	0.044571407
184	0xbcbd05b8	-0.023074016
185	0xbe24c580	-0.16090965
186	0xbcc2d065	-0.02378101
187	0x3dc3f97a	0.09569068
188	0x3c9547c2	0.018222693
189	0x3db86609	0.09003837
190	0x3da7ebc1	0.08199263
191	0xbd5a1a7b	-0.05324791
192	0x3d410c60	0.047130942
193	0x3d95e6d2	0.07319416
194	0xbd63e28c	-0.055635974
195	0xbd15db40	-0.036586046
196	0xbb134ee1	-0.0022477435
197	0xbd069a13	-0.03286178
198	0xbc15f805	-0.009153371
199	0x3d183586	0.03716042
200	0x3d825e34	0.06365624
201	0x3cf426d0	0.029803663
202	0x3d9ca5bd	0.076487996
203	0xbca8add5	-0.020590702
204	0x3e1c2c78	0.15251338
205	0xbd751073	-0.05983014
206	0xbdb650e1	-0.08902145
207	0xba619ce8	-0.00086064497
208	0xbd07a7cb	-0.033119004
209	0x3df047e2	0.117324606
210	0xbc928129	-0.017883854
211	0x3d7ac627	0.06122413
212	0x3c49e273	0.012322056
213	0xbcb0d932	-0.021587942
214	0x3d79c9f5	0.060983617
215	0x3c94e826	0.018177103
216	0xbbf72f27	-0.007543463
217	0x39eadcfb	0.000447966
218	0xbd09e1e2	-0.033662684
219	0x3dcf8e0d	0.10134516
220	0xbd95cf44	-0.073149234
221	0x3ddfa52e	0.109201774
222	0x3d012ab5	0.03153487
223	0x3d924b1e	0.07143234
224	0x3b875b2a	0.0041307406
225	0x3dad4038	0.084595144
226	0x3dc3bf51	0.09557975
227	0x3c6aab41	0.014323057
228	0xbd81dfc0	-0.06341505
229	0xbc84d733	-0.016215896
230	0xbcac8454	-0.021059193
231	0x3aaea1d8	0.001332338
232	0xbd196330	-0.03744811
233	0x3a6257ef	0.0008634319
234	0x3d9d4296	0.07678716
235	0x3d350382	0.0441928
236	0xbb8fbad8	-0.004386287
237	0xbca4d202	-0.02011967
238	0xbc0a2bfa	-0.008433336
239	0xbd8266fa	-0.063672975
240	0x3ce8d527	0.028421951
241	0xbd87f280	-0.0663805
242	0xbd82e36d	-0.06391034
243	0x3d950a25	0.072773255
244	0xbe040152	-0.12891129
245	0x3d8332b2	0.06406154
246	0xbd3d4a33	-0.04621334
247	0xbd811611	-0.06303037
248	0x3d9dc3d2	0.077033654
249	0x3d1cb8b3	0.03826208
250	0xbd42eb38	-0.047587603
251	0xbcf7155e	-0.030161556
252	0xbdbd0edd	-0.092313506
253	0x3c4aedaa	0.012385765
254	0x3bc08701	0.0058754687
255	0xbe035a20	-0.12827349

weight_hh_l0 f4 [512, 128]
0	0x3d095555	0.033528645
1	0xbd16eed2	-0.03684885
2	0x3da6b610	0.081401944
3	0xbdd77e39	-0.10522122
4	0xbd6953b1	-0.05696458
5	0x3cc5c4a1	0.024141612
6	0xbca63d20	-0.020292819
7	0x3d478178	0.048707455
8	0x3c33779b	0.010953809
9	0xbd3c1a40	-0.04592347
10	0xbc3a9032	-0.011386918
11	0xbd7a0490	-0.061039507
12	0x3d2ff81d	0.04296123
13	0xbd33c66e	-0.04389041
14	0x3d3944db	0.04523168
15	0xbd9be943	-0.076128505
16	0xbd1514f1	-0.036396924
17	0xbd844559	-0.064585395
18	0xbd04abef	-0.03239053
19	0xbc2380f2	-0.009979473
20	0x3dcf5c5e	0.101250395
21	0xbd2ca7e1	-0.04215229
22	0xbd93d10a	-0.072176054
23	0xbd8bdf68	-0.06829721
24	0xbd842502	-0.06452371
25	0xbb9f2940	-0.0048572123
26	0x3cef1afa	0.029187668
27	0x3d2f5322	0.04280389
28	0xbd83c7b6	-0.06434576
29	0x3caac16a	0.02084418
30	0x3d525311	0.05134875
31	0xbc2abba8	-0.010420717
32	0xbca2f589	-0.01989247
33	0x3d05c972	0.032662816
34	0xbcff9d66	-0.031202983
35	0xbda75cc1	-0.08171988
36	0x3d20e55c	0.039281234
37	0xbdcb760d	-0.09934626
38	0xbd8bce50	-0.0682646
39	0xbdb7ba88	-0.08971125
40	0xbca969f5	-0.020680407
41	0x3d8a72f1	0.067602046
42	0xbd5a25dc	-0.05325876
43	0xbd8e5da8	-0.06951457
44	0xbc72012e	-0.014770789
45	0xbd1c17bf	-0.038108584
46	0x3bfa7e0d	0.007644421
47	0xbd24ea20	-0.04026234
48	0xbd501029	-0.05079666
49	0x3d6c4d31	0.057690803
50	0x3acd3734	0.0015656711
51	0x3dbb2ea4	0.09139755
52	0xbd159089	-0.036514793
53	0x3d04fe4f	0.03246909
54	0x3cc05bca	0.023481268
55	0x3db748bb	0.08949419
56	0x3d5c075f	0.053717967
57	0x3bae761d	0.005324139
58	0x3d21db90	0.03951603
59	0xbcacb3e2	-0.021081869
60	0x3c410e82	0.011783244
61	0x3d6a8002	0.057250984
62	0x3ca238f6	0.019802552
63	0x3d8b3d66	0.0679882
64	0x3d4c502e	0.049881153
65	0x3b9642de	0.004585608
66	0x3d0ce8a7	0.034401562
67	0x3d0d7552	0.034535713
68	0x3dba0111	0.09082235
69	0x3d72e7b7	0.05930301
70	0xbd8c2b65	-0.06844214
71	0x3d9ec795	0.07752911
72	0x3d1b95a0	0.03798449
73	0xbca89782	-0.020580057
74	0x3dc3f8ad	0.095689155
75	0xbcc911f2	-0.02454469
76	0x3d9b485f	0.07582163
77	0x3c2425dd	0.010018793
78	0xbd4ca3ec	-0.049961016
79	0x3d1a718e	0.03770595
80	0xbcb24e88	-0.021765962
81	0xbd5b46de	-0.05353438
82	0xbc9d5df5	-0.019209841
83	0xbd7d3804	-0.061821
84	0xbc690971	-0.014223442
85	0x3d603e96	0.054747187
86	0x3d175ed3	0.036955666
87	0xbc3d161e	-0.011540918
88	0xbb26a0a5	-0.0025425341
89	0xbd172e0a	-0.03690914
90	0xbcc65ab3	-0.02421317
91	0x3d091965	0.033471484
92	0x3d54539f	0.05183756
93	0xbd795505	-0.060872097
94	0xbd1da629	-0.03848854
95	0x3cc99a5f	0.024609743
96	0xbd9f7a74	-0.07787028
97	0x3d293555	0.041310627
98	0xbe081edb	-0.1329302
99	0x3d82bd0e	0.063837156
100	0x3c492a3b	0.012278135
101	0x3cf800b4	0.030273773
102	0x3dc5b80b	0.09654244
103	0xbd53ad8d	-0.051679183
104	0xbde1ea87	-0.11031061
105	0xbc8baabc	-0.017049186
106	0x3c6d1925	0.014471327
107	0xbd0bf4e1	-0.03416908
108	0xbd86b9ec	-0.065784305
109	0xbd8728ec	-0.06599602
110	0x3acc0b44	0.0015567322
111	0x3daf6109	0.0856343
112	0xbd87b7a8	-0.066268265
113	0xb9e7f47c	-0.00044241908
114	0x3c198855	0.009370883
115	0xbd9e5c65	-0.077324666
116	0x3c792b5c	0.015208092
117	0x3c941ba9	0.018079596
118	0xbd81134c	-0.06302509
119	0xbdaec2d6	-0.08533256
120	0x3d4bdef6	0.04977318
121	0xbcb1e4fd	-0.021715635
122	0x3d388bf6	0.045055352
123	0xbd40af25	-0.04704203
124	0x3dbb4b5b	0.09145232
125	0x3db65f88	0.0890494
126	0x3da6d867	0.08146744
127	0xbd8a4d25	-0.067529954
128	0xbe098fd1	-0.13433768
129	0xbc1edf35	-0.009696771
130	0x3d93b1c9	0.07211644
131	0xbc554f95	-0.013019462
132	0xbc91aadd	-0.01778167
133	0x3d657e1a	0.056028463
134	0x3d180125	0.037110467
135	0xbdab2715	-0.08357064
136	0x3ce621d6	0.028092306
137	0xbe30e64b	-0.1727535
138	0xbdcf0516	-0.10108392
139	0xbc89f625	-0.016841004
140	0x3d6844ce	0.056706242
141	0x3c560e9f	0.013065009
142	0x3ded751c	0.115946025
143	0x3c4fc7eb	0.0126819415
144	0x3dbad1bc	0.09122035
145	0x3d587414	0.052845076
146	0x3e035295	0.12824471
147	0xbca52a71	-0.02016184
148	0x3ca02974	0.019551016
149	0x3ba65530	0.005076073
150	0x3d534504	0.05157949
151	0xbda41161	-0.08011127
152	0x3c827ea7	0.015929533
153	0x3d2842c8	0.041079313
154	0x3d42a038	0.047516078
155	0xbc8211d5	-0.015877644
156	0xbd903daf	-0.07043015
157	0xbcb2f3d7	-0.021844788
158	0xbd53a8cc	-0.05167465
159	0x3d8c1069	0.068390675
160	0x3d4e4df3	0.050367307
161	0x3d208476	0.039188825
162	0xbd37481c	-0.044746503
163	0xbcae43dd	-0.021272594
164	0x3d34ce89	0.04414228
165	0xbdc71745	-0.09721235
166	0x3d70f437	0.05882665
167	0x3caab905	0.020840177
168	0x3cdf508f	0.027260093
169	0xbd72dffb	-0.059295636
170	0xbd9a02e3	-0.07520082
171	0x3da4d589	0.08048541
172	0x3dbbed93	0.09176173
173	0xbde387f8	-0.11109918
174	0xbd866bd0	-0.06563532
175	0xbdc20d9f	-0.09475254
176	0x3d0a4aa0	0.033762574
177	0xbe19c6a8	-0.15017188
178	0xbcf042fd	-0.029328818
179	0x3ccaccb0	0.024755806
180	0xbda9d29b	-0.08292123
181	0xbd29a93e	-0.041421168
182	0x3bb864fd	0.005627273
183	0xba9f2258	-0.0012140973
184	0xbd768e35	-0.060194213
185	0xbc83ba38	-0.016080007
186	0x3e260fdf	0.16216992
187	0xbda25805	-0.07926945
188	0xbe2adb9a	-0.16685334
189	0x3a82289f	0.0009930319
190	0x3e15f931	0.1464584
191	0xbe165c99	-0.1468376
192	0xbd4bd45c	-0.04976307
193	0xbd95cfd9	-0.073150344
194	0xbd90dbc0	-0.07073164
195	0xbc0a1635	-0.008428146
196	0x3d633e21	0.055479173
197	0x3d0dacf3	0.034588765
198	0x3db7adcf	0.08968698
199	0xbc83353b	-0.016016593
200	0xbd614c47	-0.055004384
201	0xbd37271b	-0.04471503
202	0x3e0a31cc	0.13495559
203	0x3c2b5ba5	0.0104588615
204	0x3de01a95	0.1094257
205	0x3cd49d9f	0.025954066
206	0x3bc9675d	0.006146355
207	0x3e069c60	0.1314559
208	0x3cf8f127	0.030388428
209	0x3bc437fe	0.00598812
210	0x3d58e0ab	0.052948635
211	0xbd870023	-0.06591823
212	0xbca090af	-0.01960024
213	0xbd2421c6	-0.04007127
214	0xbddd6c64	-0.108116895
215	0x3d510c39	0.051037047
216	0xbc52b080	-0.012859464
217	0xbcfd2b45	-0.030904422
218	0xbdc02b4e	-0.0938326
219	0x3d852108	0.06500441
220	0x3da32771	0.07966507
221	0x3ddb5c84	0.10711005
222	0xbcf07229	-0.02935131
223	0xbcaa63ef	-0.020799605
224	0xbdd94af6	-0.10610001
225	0x3ba0bcd0	0.0049053207
226	0xbd23e9c7	-0.04001787
227	0x3d8cc7a5	0.06874017
228	0xbc7197c3	-0.0147456555
229	0xbd4a6791	-0.049415175
230	0x3d1e7885	0.038689155
231	0x3df16be0	0.11788154
232	0xbd1d52e6	-0.038409136
233	0x3dd22c86	0.102623984
234	0xbd6a1ac9	-0.05715445
235	0x3d1883ca	0.03723506
236	0xbd390b97	-0.04517707
237	0x3d861221	0.065464266
238	0xbd80f8ed	-0.06297479
239	0x3c83aa69	0.016072469
240	0xbd5efb1f	-0.054438706
241	0x3cb87556	0.022516888
242	0xbcd57e48	-0.026061192
243	0x3dcae88d	0.09907637
244	0x3e39140a	0.1807405
245	0xbcb334c7	-0.021875752
246	0x3ddb59f2	0.10710515
247	0xbe245d67	-0.16051255
248	0x3d668e72	0.05628819
249	0x3d3d57e6	0.046226405
250	0xbdd8d598	-0.10587615
251	0xbd5f94a1	-0.054585103
252	0x3cfed960	0.031109512
253	0x3d9af55b	0.07566329
254	0x3cbfa3ae	0.023393478
255	0x3d5edeee	0.05441182

bias_ih_l0 f4 [512]
0	0x3c1196db	0.008886064
1	0x3d62eb2d	0.055400062
2	0xba853dc3	-0.0010165501
3	0xbb2846b4	-0.0025676908
4	0xbce9a9b8	-0.028523311
5	0xbd3d0254	-0.0461448
6	0xbdd41105	-0.10354809
7	0xbd826962	-0.063677564
8	0xbd4f6c3e	-0.050640337
9	0x3cd5ac13	0.026083028
10	0xbd7e9a5b	-0.062158924
11	0xbcf4e175	-0.029892663
12	0xbb7b8e08	-0.0038384218
13	0xbc119dda	-0.008887732
14	0xbd31fbc3	-0.04345299
15	0xbdc79611	-0.0974542
16	0xbd303993	-0.043023657
17	0xbc5f5313	-0.013630646
18	0xbcaffe24	-0.021483488
19	0x3c0eab43	0.008707824
20	0xbd19c316	-0.037539564
21	0xbd9e6447	-0.0773397
22	0xbd359f96	-0.044341646
23	0x3d835b6b	0.06413921
24	0xbd14bc27	-0.03631225
25	0x3d00595e	0.031335227
26	0xbd71907e	-0.05897569
27	0x3c79aa4e	0.015238358
28	0x3d247d70	0.04015869
29	0xbd80fc87	-0.06298166
30	0x3d68cfcf	0.056838807
31	0xbd033a83	-0.032038223
32	0xbd19a076	-0.037506543
33	0xbcb1ae75	-0.021689633
34	0x3cf1f005	0.029533396
35	0x3c0abd03	0.0084679155
36	0xbd55a31e	-0.052157514
37	0xbd018bfd	-0.031627644
38	0xbd0ca148	-0.034333497
39	0xbd73064e	-0.059332184
40	0x3cd050ef	0.025429217
41	0xbd2481a2	-0.04016269
42	0x3ca5a1fd	0.020218844
43	0x3d4cd4a2	0.05000747
44	0xbd694aaf	-0.05695599
45	0xbd7602b4	-0.06006117
46	0x3dcbae6b	0.09945377
47	0x3d902763	0.070387624
48	0x3d9a591c	0.075365275
49	0xbb48c1ac	-0.0030633016
50	0xbcab211e	-0.020889815
51	0x3dcb2350	0.09918845
52	0x3dd98460	0.10620952
53	0xbca4b4db	-0.02010577
54	0x3d13859b	0.036016088
55	0xbd3a01a6	-0.04541173
56	0x3dd991f0	0.106235385
57	0xbd1295a2	-0.035787232
58	0xbd8b5ac4	-0.068044215
59	0x39f7e46d	0.00047281702
60	0x3dc568d8	0.09639138
61	0x3c9cc151	0.01913515
62	0x3d583898	0.052788347
63	0x3c3320af	0.010933085
64	0xbb95e15e	-0.004573985
65	0xbd8a3d2c	-0.06749949
66	0xbd854bdf	-0.06508612
67	0x3cbd5141	0.023110034
68	0x3c810680	0.01575017
69	0xbdde58a2	-0.10856749
70	0x3d3fd877	0.046837296
71	0xbd402949	-0.046914373
72	0xbd2c8254	-0.042116478
73	0xbc921a88	-0.017834917
74	0xbc8c9de5	-0.017165134
75	0xbd526b5a	-0.05137191
76	0x3d79debd	0.061003435
77	0xbd643d94	-0.055722788
78	0x3d64c0bf	0.05584788
79	0x3db3d5d1	0.087810166
80	0xbd764d54	-0.06013234
81	0xbd29278c	-0.04129748
82	0xbcc410a4	-0.023933716
83	0x3c8e0f93	0.01734141
84	0xbdd6b1c1	-0.104831226
85	0x3c01f98f	0.007933035
86	0xbd61e010	-0.055145323
87	0xbc5d4bf6	-0.01350688
88	0x3cd7a379	0.026323067
89	0xbd92eaed	-0.07173715
90	0xbca8fa25	-0.02062709
91	0xbda55ce1	-0.08074356
92	0x3d1a2da1	0.03764117
93	0xbd926a3c	-0.07149169
94	0xbc5d503d	-0.0135079
95	0x3d1befbf	0.038070437
96	0x3d8faba1	0.070151575
97	0xbd8d83ac	-0.0690988
98	0xbd9b1a78	-0.07573408
99	0xbc774244	-0.015091483
100	0xbb2f182b	-0.0026717286
101	0xbd8b31f2	-0.06796636
102	0x3d4b4aa1	0.04963172
103	0xbc63d073	-0.013904679
104	0x3d791baf	0.060817417
105	0xbd17c2ca	-0.037051
106	0x3d930a26	0.0717967
107	0xbd9243c8	-0.071418345
108	0xbceb6a30	-0.028737158
109	0x3c8183ee	0.01580998
110	0x3d01d15d	0.031693805
111	0x3ce44a23	0.027867382
112	0x3d9f2029	0.07769806
113	0xbd78adbb	-0.060712557
114	0x3c87b76a	0.01656695
115	0x3d318b26	0.043345593
116	0x3bd0d7e5	0.006373393
117	0xbd84acef	-0.06478297
118	0x3d3d60db	0.046234947
119	0xbce40cff	-0.027838228
120	0xbcb22f20	-0.021750987
121	0xbd26604c	-0.04061918
122	0x3c3b49c0	0.011431158
123	0x3cfe39f6	0.031033497
124	0x3d2c5738	0.042075366
125	0x3d00db48	0.031459123
126	0xbcd067be	-0.025440093
127	0xbd860cd7	-0.06545418
128	0xbce51b12	-0.02796701
129	0x3d7c6e73	0.06162877
130	0x3d289747	0.041159894
131	0x3dc49f75	0.096007265
132	0x3d81eb91	0.06343759
133	0x3d97c128	0.074098885
134	0x3c410a0f	0.011782183
135	0xbd710b24	-0.058848515
136	0x3e0320b8	0.1280545
137	0x3d13f3af	0.036121067
138	0x3db8b134	0.09018174
139	0xbdb226bb	-0.086987935
140	0x3daede10	0.08538449
141	0xbc3eaf32	-0.0116384495
142	0xbd1e8380	-0.038699627
143	0xbd9f4d2e	-0.07778393
144	0x3ab5abb3	0.0013860374
145	0x3d8528f3	0.06501951
146	0xbd887cfa	-0.066644624
147	0x3cf76306	0.030198585
148	0xbd649d21	-0.055813912
149	0x3d415b7d	0.04720639
150	0xbcf3b3d0	-0.029748827
151	0x3db2708a	0.087128714
152	0xbc98852a	-0.018618185
153	0x3c7e162b	0.015508215
154	0x3d08afb5	0.033370692
155	0x3c725d8b	0.01479281
156	0x3d99c10f	0.07507526
157	0xbd4d5b0f	-0.05013567
158	0x3d2d720d	0.042345095
159	0x3d84289e	0.064530596
160	0x3de807bd	0.11329601
161	0xb6b93deb	-5.520638e-06
162	0x3bcc7407	0.0062394175
163	0xbc9ec2d9	-0.01938002
164	0x3da2ac6c	0.07943043
165	0xbc81da05	-0.01585103
166	0xbcbee878	-0.02330421
167	0xbc8f8bef	-0.01752278
168	0xbd6cddf0	-0.057828844
169	0x3d8120ce	0.06305085
170	0x3d94beec	0.07262978
171	0xb9345acf	-0.00017199967
172	0x3d9ebb7f	0.07750606
173	0xbd2c2482	-0.042027004
174	0x3da551ed	0.08072267
175	0xbc9ade6a	-0.018904883
176	0x3dcd374d	0.100203134
177	0x3c82c9d7	0.015965385
178	0xbd2e7569	-0.04259244
179	0x3dd9225f	0.10602259
180	0x3dc67cbb	0.09691759
181	0x3ce56500	0.028002262
182	0xbcdce3cd	-0.026964093
183	0x3bf401b4	0.007446492
184	0x3bd02c78	0.0063529573
185	0x3c4ae429	0.012383499
186	0x3d59f5f3	0.05321307
187	0xbd4db36c	-0.05021994
188	0xbd91880c	-0.07106027
189	0x3d0da3e2	0.03458012
190	0x3ddfbcd3	0.10924687
191	0x3dd8b7ec	0.10581955
192	0xbc9a6adb	-0.01884978
193	0xbca81458	-0.020517513
194	0x3d5eae7f	0.05436563
195	0xbcafb847	-0.021450175
196	0x3d7966f6	0.060889207
197	0xbd118450	-0.035526574
198	0xbd249e03	-0.040189754
199	0x3d6791ed	0.05653565
200	0x3d400cbf	0.046887156
201	0xbd2597d9	-0.040428016
202	0x3d3a1ed5	0.04543956
203	0x3c186771	0.009302006
204	0x3d1ce734	0.03830643
205	0x3d86b9f3	0.06578436
206	0xbd9a3dcc	-0.07531318
207	0x3c375972	0.011190759
208	0x3c7686f9	0.015046828
209	0x3c0bb912	0.008528011
210	0x3dae8e65	0.08523253
211	0xbcce1e5f	-0.025160966
212	0x3d2cf991	0.042230193
213	0x3d461b00	0.048365593
214	0x3dadee75	0.08492748
215	0xbb3d7cca	-0.0028913491
216	0xbac47da6	-0.001499106
217	0xbd025c37	-0.031826224
218	0x3c1ae389	0.009453663
219	0xbd0fb325	-0.035082955
220	0x3cbe6b49	0.023244517
221	0xbd8d459a	-0.06898041
222	0x3d4f246d	0.050571848
223	0xbc7e49bd	-0.01552051
224	0x3d123dcd	0.03570347
225	0xbd8aff7d	-0.06787012
226	0xbbe6b7c1	-0.007040948
227	0x3d39b496	0.045338236
228	0xbcfa364f	-0.030543474
229	0xbd88f6ec	-0.066877216
230	0x3d278012	0.04089362
231	0x3ca49f97	0.02009563
232	0x3d451ef6	0.04812523
233	0x3bc2c84a	0.0059442865
234	0x3cf2e27f	0.029649017
235	0x3aed54d6	0.0018106948
236	0x3cfa8f98	0.030586049
237	0x3c45acfd	0.012065169
238	0x3d2b419d	0.04181062
239	0xbcc84836	-0.024448495
240	0x3d4cdb3b	0.050013762
241	0x3b9798ef	0.0046263854
242	0x3da58c5e	0.080834135
243	0xbcd7d0ca	-0.026344676
244	0xbd837341	-0.06418467
245	0xbd6bddf8	-0.057584733
246	0x3d5e1967	0.054223444
247	0x3dc5203c	0.09625289
248	0xbda09910	-0.07841694
249	0xbc162cd8	-0.009165965
250	0xbd4d7ef7	-0.05016991
251	0xbd21cb61	-0.039500598
252	0x3d9d1a02	0.07670976
253	0xbc807bdf	-0.015684066
254	0xbc4c8613	-0.012483138
255	0xbd5aab8f	-0.053386267

bias_hh_l0 f4 [512]
0	0x3d75550b	0.059895556
1	0x3d4e006a	0.050293364
2	0xbceff652	-0.02929226
3	0xbc0493e2	-0.008091899
4	0xbdb1f608	-0.08689505
5	0xbd876813	-0.066116475
6	0xbd0d9170	-0.034562528
7	0x3dbc9b62	0.092093244
8	0x3c2865d8	0.010278188
9	0x3c121afd	0.008917567
10	0x3db4e8e6	0.08833484
11	0x3d821f5f	0.0635364
12	0xbc815931	-0.0157896
13	0x3d0eb14b	0.03483705
14	0xbbde94f8	-0.006792661
15	0xbd4a6086	-0.04940846
16	0xbdb21706	-0.086957976
17	0xbd1f9dfa	-0.038969018
18	0x3c8c73cb	0.017145058
19	0x3c7946e7	0.015214658
20	0xbd990cac	-0.0747312
21	0x3d3a4723	0.045477998
22	0xbd642a36	-0.055704318
23	0xbd5ea1e5	-0.054353613
24	0xbc5b4574	-0.013383258
25	0x3cf2c224	0.02963359
26	0xbd07a4dc	-0.033116207
27	0x3b919591	0.0044428785
28	0x3c81b310	0.015832454
29	0x3d6a9219	0.057268236
30	0xbd375224	-0.04475607
31	0xbd37dd15	-0.044888575
32	0xbd43e474	-0.04782529
33	0xbd8d5e41	-0.06902743
34	0xbcda71ee	-0.026665654
35	0x3d97788d	0.0739604
36	0x3d1e4d22	0.03864778
37	0x3c3aa533	0.011391926
38	0x3d918d5d	0.07107041
39	0x3d676a70	0.05649799
40	0x3d605174	0.05476518
41	0x3d0a6e0d	0.03379636
42	0x3c21b822	0.009870561
43	0x3d220911	0.039559428
44	0x3d65b255	0.056078274
45	0x3dbed149	0.09317262
46	0x3bc6600c	0.00605393
47	0xbcf6c0c5	-0.030121217
48	0xbd7eb304	-0.06218244
49	0x3c406a80	0.011744142
50	0x3d82e8fd	0.06392095
51	0x3ce0d87f	0.027446983
52	0x3d3ec532	0.04657478
53	0x3c51a8e3	0.012796613
54	0x3cc59daf	0.024123041
55	0x3c3da73b	0.011575515
56	0x3dba503e	0.09097336
57	0xbcb06751	-0.02153364
58	0xbd3fc593	-0.04681928
59	0x3d1e51af	0.03865212
60	0x3d211eed	0.039336134
61	0xbd935729	-0.07194359
62	0x3cc5b6aa	0.024134953
63	0x3bfcadec	0.007711163
64	0xbd127e79	-0.035765145
65	0xbd4f57bf	-0.05062079
66	0xbc8774af	-0.016535131
67	0xbabfdc41	-0.0014637784
68	0xbd14d21c	-0.03633319
69	0xbcc137e9	-0.02358623
70	0xbd0554e5	-0.032551665
71	0xbd18b163	-0.037278544
72	0xbab425c1	-0.0013744162
73	0x3d7ce0c9	0.06173781
74	0x3cf73ca6	0.030180287
75	0xbbf34b5b	-0.0074247546
76	0xbc2048f7	-0.009783021
77	0x3da30266	0.07959442
78	0xbd82ef72	-0.06393327
79	0x3d519bc7	0.05117395
80	0xbc78d130	-0.015186593
81	0x3d99798a	0.07493885
82	0x3ce1337f	0.027490376
83	0xbd2b4895	-0.041817266
84	0x3c4cbef5	0.0124967
85	0xbd383dfa	-0.04498098
86	0xbc797ab3	-0.015227008
87	0x3c5c49d9	0.013445341
88	0x3d2cd54c	0.042195603
89	0xbcb5bf53	-0.022185957
90	0xbd7918d0	-0.06081468
91	0x3c5f7b59	0.013640248
92	0xbd82209e	-0.063538775
93	0x3b883ae3	0.0041574105
94	0x3daad2ec	0.083410114
95	0x3da454d9	0.08023996
96	0xbda0cd1e	-0.07851623
97	0xbd492acc	-0.04911308
98	0x3d84f670	0.06492317
99	0xbcfa2129	-0.03053339
100	0xbccd4bfe	-0.02506065
101	0xbcc35cfc	-0.02384805
102	0x3da168c8	0.078813136
103	0x3db4f553	0.088358544
104	0x3dc30d71	0.09524048
105	0x3d4c5270	0.049883306
106	0xbc8bc112	-0.017059837
107	0x3cceea4f	0.025258211
108	0xbd73dcaa	-0.059536614
109	0x3d6e193c	0.058129534
110	0xbcdc6b61	-0.026906671
111	0xbace46cf	-0.0015737655
112	0x3c99f798	0.01879482
113	0xbc755b68	-0.014975406
114	0x3d50cfa9	0.05097929
115	0x3cb25b1a	0.021771956
116	0x3d0c81ed	0.034303594
117	0xbd12753c	-0.035756335
118	0xbd90566f	-0.07047736
119	0x3d3e2361	0.04642046
120	0xbbd6f646	-0.00656012
121	0x3da2f4e8	0.079568684
122	0x3d502846	0.050819658
123	0x3c664d3b	0.014056499
124	0xbd2effa6	-0.042724274
125	0xbccdb3ed	-0.02511021
126	0xbc88c394	-0.016694821
127	0xbdd7f6ae	-0.10545097
128	0xbcd03313	-0.02541498
129	0x3db5d2b2	0.088780776
130	0x3d983b63	0.07433202
131	0x3d8c953c	0.06864402
132	0xbc1dd875	-0.009634127
133	0x3ca720d0	0.020401388
134	0xbdb90467	-0.09034043
135	0x3cee66d6	0.02910177
136	0xbb8f0568	-0.004364658
137	0x3dcc0871	0.099625476
138	0xbc701efe	-0.014655827
139	0xbc79a2cb	-0.015236567
140	0x3de52432	0.11188544
141	0x3cfaf3e9	0.030633884
142	0xbdbb982b	-0.09159883
143	0xbd049620	-0.032369733
144	0xbc2c50de	-0.010517327
145	0xbc5516c5	-0.013005917
146	0xbd295e7c	-0.041349873
147	0x3d65de56	0.05612024
148	0x3c046cae	0.008082552
149	0x3d7adf55	0.061248142
150	0x3d999be7	0.07500439
151	0xbc1b478c	-0.009477507
152	0xbd419a89	-0.047266517
153	0x3db9961c	0.09061834
154	0xbc839a9e	-0.016064938
155	0x3b8fa028	0.004383106
156	0x3dc14e5d	0.09438775
157	0xbc68ed47	-0.014216728
158	0xbd4bd5c0	-0.049764395
159	0x3c933a39	0.017972099
160	0xbcaac2ff	-0.020844935
161	0x3dc80a15	0.09767548
162	0x3d673316	0.056445204
163	0xbc96e4a9	-0.01841958
164	0x3d4bf86b	0.049797457
165	0x3de77361	0.11301304
166	0x3c621ac1	0.013800324
167	0xbc6d18dc	-0.014471259
168	0x3d9c0e00	0.07619858
169	0x3ce4d98c	0.027935766
170	0xbccdc76f	-0.025119511
171	0x3d6195bd	0.055074442
172	0x3b9c2438	0.00476506
173	0xbd0b8ed8	-0.034071773
174	0x3bbd7044	0.0057812054
175	0x3e00aeb9	0.12566651
176	0x3dc86b49	0.09786088
177	0x3dbebcdf	0.09313368
178	0x3d655d80	0.05599737
179	0xbd2b11d3	-0.041765045
180	0x3e1b5318	0.15168417
181	0xbd2f0832	-0.042732425
182	0xbd3cc0c5	-0.046082277
183	0x3daac0e5	0.08337573
184	0x3c3b0779	0.011415356
185	0x3dc04639	0.09388394
186	0x3db588ed	0.08864007
187	0xbca5f100	-0.02025652
188	0x3b079696	0.0020689121
189	0x3c33d694	0.010976452
190	0x3d41d83f	0.04732537
191	0x3ce6b0e7	0.028160525
192	0x3d39da23	0.045374047
193	0x3c48456e	0.012223585
194	0xbd563ce1	-0.052304152
195	0xbd8e7d47	-0.069574885
196	0x3d70bdd8	0.0587748
197	0xbdb501d3	-0.088382386
198	0x3cb053d8	0.021524355
199	0x3d2a1a92	0.041529246
200	0xb933d1d9	-0.00017148945
201	0xbcc23805	-0.023708353
202	0xbd7cff0a	-0.06176666
203	0x3daf38c4	0.08555749
204	0xbd259db1	-0.04043359
205	0x3d995d87	0.07488542
206	0x3d70573e	0.05867695
207	0xbc951dea	-0.01820274
208	0x3d47e841	0.04880548
209	0x3c005a9e	0.007834105
210	0x3cd0d72e	0.02549323
211	0xbd596b54	-0.05308087
212	0xbd6d9132	-0.057999797
213	0x3db81f23	0.08990314
214	0xbce5d248	-0.028054371
215	0x3dc17e53	0.094479226
216	0x3db650a7	0.08902102
217	0xbd029f63	-0.031890284
218	0x3dd62da8	0.10457927
219	0xbca468c2	-0.020069484
220	0x3d94a4da	0.072580054
221	0xbc40d498	-0.011769436
222	0xbd50141c	-0.050800428
223	0x3cbc7b39	0.023007976
224	0x3dc5306b	0.096283756
225	0xbc79f648	-0.015256472
226	0xbd2e92dc	-0.042620525
227	0x3c0ba3cd	0.00852294
228	0xbd96874f	-0.07350027
229	0xbd618267	-0.055056002
230	0x3bf9323c	0.0076048654
231	0xbc9a47a6	-0.018832993
232	0xbcbced27	-0.023062302
233	0xbd122748	-0.035681993
234	0x3bb59303	0.005541207
235	0x3ceb7e5b	0.028746774
236	0x3c9bef50	0.019035012
237	0x3d603d5c	0.054746017
238	0xbd902832	-0.07038917
239	0x3dd69f5a	0.10479613
240	0xbd86bfad	-0.06579528
241	0x3d3388da	0.043831684
242	0xbd093f1b	-0.033507448
243	0xbda6b0a8	-0.08139163
244	0xbd4c9345	-0.049945135
245	0x3c6faa21	0.014627964
246	0xbd8dc22b	-0.069218
247	0x3da9ea8e	0.08296691
248	0xbdb0dc99	-0.08635826
249	0x3d9c1ce8	0.07622701
250	0x3dcfa3a3	0.10138633
251	0x3d03f204	0.032213226
252	0x3b98cb54	0.0046629105
253	0x3d318791	0.043342177
254	0x3d6c9286	0.057756923
255	0xbd35d91a	-0.044396497

weight f4 [64, 128]
0	0xbdb0fcde	-0.086419806
1	0xbcfe651b	-0.03105407
2	0xbd1f4bce	-0.038890652
3	0xbc957519	-0.018244313
4	0xbd809f18	-0.06280345
5	0xbd9e8d07	-0.077417426
6	0x3dbff90d	0.093736745
7	0xbdbac160	-0.091189146
8	0xbc8f15ac	-0.017466389
9	0xbd24ac45	-0.04020335
10	0x3cfbe028	0.030746534
11	0x3bd90ac5	0.0066235983
12	0xbd278f37	-0.040908065
13	0xbd79b809	-0.060966525
14	0x3da52aeb	0.080648266
15	0x3c89d560	0.016825378
16	0xbd35896b	-0.044320505
17	0x3cb8384e	0.022487786
18	0xbd9c0161	-0.076174505
19	0xbcc3a7fa	-0.023883808
20	0x3d80d250	0.06290114
21	0xbb119dad	-0.0022219226
22	0xbcf09587	-0.029368175
23	0x3d3264ce	0.043553166
24	0x3db4faf9	0.08836932
25	0xbcb56f9d	-0.022147948
26	0xbdb79864	-0.08964613
27	0xbcc2fbac	-0.023801647
28	0x3d26406c	0.04058878
29	0x3dc13aa3	0.09435012
30	0x3d8926c0	0.06696844
31	0x3cccef5d	0.025016481
32	0xbd06fc34	-0.032955363
33	0xbbb2d64c	-0.005457675
34	0x3d84fddd	0.06493733
35	0x3d528178	0.051393002
36	0x3d98e0e0	0.074647665
37	0x3cf46c00	0.029836655
38	0x3c8a435e	0.016877826
39	0x3ccd99aa	0.025097687
40	0x3d0dfd85	0.034665603
41	0x3beecbb6	0.007287468
42	0xbda21be0	-0.07915473
43	0xbc5df69e	-0.013547568
44	0xbd322fa5	-0.04350247
45	0x3cdfec3b	0.027334323
46	0xbd8398c3	-0.06425621
47	0x3dc112e6	0.09427433
48	0xbbc1c9fb	-0.0059139705
49	0xbdc1bc8b	-0.0945979
50	0xbc93afc3	-0.018028146
51	0x3dc1e4e4	0.094674855
52	0xbd363955	-0.04448827
53	0xbd03e947	-0.032204892
54	0x3d114318	0.035464376
55	0x3d46e4bc	0.04855798
56	0x3daf766a	0.085675076
57	0x3cf22c80	0.029562235
58	0x3d047872	0.032341428
59	0x3d558fb5	0.052139003
60	0xbd63b15d	-0.05558907
61	0xbd6de2f4	-0.058077767
62	0x3d968b81	0.07350827
63	0xbb6bc155	-0.003597339
64	0x3ce5ddf8	0.028059945
65	0xbc241115	-0.010013838
66	0xbda59652	-0.08085312
67	0xbdb4c263	-0.08826139
68	0x3d98d520	0.07462525
69	0x3d219791	0.039451186
70	0xbd8e91a8	-0.069613755
71	0xbc9e87e8	-0.019351915
72	0x3d35a580	0.044347286
73	0x3ccfecb3	0.025381422
74	0xbb9f067b	-0.0048530675
75	0xbc21b964	-0.009870861
76	0xbc407260	-0.011746019
77	0xbca2d6db	-0.019877842
78	0xbd3e084f	-0.046394642
79	0x3df1b496	0.11802022
80	0x3dd1ab37	0.10237735
81	0xbcb98fdb	-0.022651603
82	0xbd5a13b9	-0.053241465
83	0xba8e8175	-0.0010872321
84	0x3c1c5450	0.009541586
85	0x3d327300	0.043566704
86	0x3d6390d4	0.05555804
87	0xbda7b722	-0.08189227
88	0x3d99b477	0.07505124
89	0xbd88a794	-0.06672588
90	0xbcf5c747	-0.03000225
91	0xbce54be2	-0.027990285
92	0x3d59f619	0.053213213
93	0x3d3c8147	0.046021726
94	0xbd61a36b	-0.05508749
95	0xbd236ec0	-0.03990054
96	0xbd0de2e2	-0.0346402
97	0x3d1389d9	0.036020134
98	0x3c759818	0.014989875
99	0x3d9ff6f9	0.07810778
100	0xbb6879ea	-0.0035473057
101	0xbc15ebeb	-0.0091504855
102	0x3b892ef1	0.004186504
103	0xbc929ef8	-0.017898068
104	0xbaa2e381	-0.0012427421
105	0x3d3fb262	0.04680098
106	0x3d36d1a5	0.044633526
107	0xbd8a9a3b	-0.067676984
108	0xbd749a12	-0.059717245
109	0x3bad4221	0.005287424
110	0xbdb2a5ed	-0.08723054
111	0x3cd0ed28	0.02550371
112	0xbb844f21	-0.004037753
113	0xbdcc3ad6	-0.099721596
114	0xbd29851e	-0.041386716
115	0x3d458602	0.048223503
116	0x3d8192c1	0.06326819
117	0xbd7ede80	-0.06222391
118	0x3cf65a21	0.030072274
119	0x3d53213c	0.051545367
120	0xbde1acff	-0.110193245
121	0xbd51af58	-0.05119261
122	0x3d47e7ac	0.048804924
123	0xbc98e4d6	-0.018663805
124	0xbcb940ef	-0.02261397
125	0x3ddecc75	0.10878841
126	0x3d1d7eae	0.03845089
127	0xbbcd5fa6	-0.0062675057
128	0x3cfd537a	0.030923594
129	0x3d4bb040	0.049728632
130	0xbd89195a	-0.066942886
131	0x3c5c6d2a	0.013453761
132	0xbde22c0a	-0.11043556
133	0x3c087848	0.008329459
134	0xbdc651cf	-0.096835725
135	0xbbe2856b	-0.0069128773
136	0x3d98a34c	0.074530214
137	0xbcc1044f	-0.023561625
138	0xbd600b0d	-0.05469804
139	0xbcd828ea	-0.026386697
140	0x3dbe4a01	0.09291459
141	0x3d408237	0.046999183
142	0x3da8bbf4	0.08238974
143	0x3ca8a196	0.020584863
144	0xbd2088d5	-0.039192993
145	0x3d200061	0.03906286
146	0xbd7ac260	-0.061220527
147	0x3bd16701	0.006390453
148	0x3d60fb97	0.054927435
149	0xbda2986d	-0.07939229
150	0xbb0305a5	-0.0019992378
151	0x3d00f2bc	0.03148149
152	0x3dacca95	0.08437077
153	0x3d85913f	0.06521844
154	0x3d21981e	0.03945171
155	0xbb548d50	-0.0032432862
156	0xbcb1324f	-0.021630434
157	0xbbbf1ab1	-0.0058320393
158	0x3d54adfe	0.051923744
159	0x3cfd79b9	0.030941831
160	0x3ca47055	0.020073095
161	0x3d59ad99	0.05314407
162	0x3d411cef	0.047146734
163	0xbd5e9bf8	-0.054347962
164	0x3d625e54	0.05526574
165	0xbd8f5c4f	-0.07000028
166	0x3dcc7074	0.09982386
167	0x3d401384	0.04689361
168	0x3d897f86	0.06713776
169	0xbd042242	-0.032259233
170	0x3d39f89b	0.045403104
171	0xbd73724e	-0.05943518
172	0xbd7c62c7	-0.06161764
173	0xbbac7e8a	-0.005264108
174	0xbc922103	-0.017838007
175	0xbcb10dd6	-0.021613043
176	0xbd6d6422	-0.057956822
177	0xbbef1f5b	-0.007297439
178	0xbd1f8b09	-0.038950954
179	0x3dc7bd8a	0.097529486
180	0x3d5b5a5b	0.053552967
181	0x3db4efe9	0.08834822
182	0x3d783746	0.060599588
183	0x3c92fc49	0.017942565
184	0x3daa5c4f	0.08318388
185	0x3dda8c6c	0.106713146
186	0xbd6bbafd	-0.057551373
187	0xbd917b13	-0.07103553
188	0xbda0685e	-0.078324065
189	0x3d0fef52	0.035140343
190	0xbcab936d	-0.020944322
191	0xbd7a253a	-0.06107066
192	0x3d7fc666	0.062445067
193	0xbd29047c	-0.041264042
194	0xbd7d8d5a	-0.06190238
195	0xbd18304f	-0.037155446
196	0xbd409747	-0.04701927
197	0xbd75046b	-0.059818666
198	0xbdadcc39	-0.08486218
199	0x3db02a81	0.08601857
200	0xbd125e20	-0.035734296
201	0x3d8f53ec	0.06998429
202	0xbc5c983d	-0.013464031
203	0xbdc150fa	-0.09439273
204	0x3c67218b	0.014107118
205	0xbc6c036b	-0.014405112
206	0xbd96268b	-0.0733157
207	0x3d2facec	0.04288952
208	0x3d8bf90b	0.068346106
209	0x3c5b40cf	0.013382151
210	0x3d523116	0.051316343
211	0xbc5ce23a	-0.013481671
212	0xbd5f51f6	-0.054521523
213	0x3c75b119	0.014995837
214	0xbbe47a16	-0.0069725616
215	0x3d087139	0.033311103
216	0x3c86ad72	0.016440127
217	0xbc9c6b10	-0.01909402
218	0x3a6b501c	0.0008976476
219	0xbd8aa3ad	-0.067695
220	0xbc048a0c	-0.008089554
221	0xbd9c9cb8	-0.07647079
222	0xbc999920	-0.018749774
223	0x3da24733	0.079237364
224	0xbdc2bfbb	-0.09509226
225	0xbcc0f0ad	-0.023552263
226	0xbcee8736	-0.029117208
227	0xbd7cac2b	-0.06168763
228	0xbd3b616f	-0.045747217
229	0x3dcd0b73	0.100119494
230	0x3d44cbe7	0.04804602
231	0xbd5b8dbf	-0.053601976
232	0x3d37c9f9	0.04487035
233	0x3da81ec9	0.08208997
234	0x3ddfb3b2	0.10922946
235	0xbdbd3118	-0.092378795
236	0xbcf8b2c4	-0.03035868
237	0xbd9627ba	-0.07331796
238	0x3d35d6b9	0.04439423
239	0x3d9b7539	0.07590718
240	0x3d887beb	0.066642605
241	0xbd8a41ae	-0.06750809
242	0xbdc3f074	-0.09567347
243	0x3c8d3d5a	0.017241169
244	0x3d47de00	0.0487957
245	0x3db8cf82	0.09023954
246	0xbd96874e	-0.07350026
247	0x3da02184	0.078188926
248	0xbdb7ecbd	-0.08980701
249	0x3ce5f0ad	0.028068865
250	0xbdaab361	-0.08334995
251	0xbb79fa8d	-0.0038143725
252	0xbc494638	-0.012284808
253	0xbd9a2301	-0.07526208
254	0xbcd65f13	-0.026168382
255	0xbcd83307	-0.02639152

bias f4 [64]
0	0x3c8141e7	0.015778495
1	0xbd1ff64e	-0.039053254
2	0xbcfdfb11	-0.031003507
3	0x3d49472a	0.049140133
4	0x3cc4fc07	0.024045957
5	0xbd1c0a42	-0.03809572
6	0xbd4dc5b0	-0.050237358
7	0x3c4d7fec	0.012542706
8	0xbcfec86d	-0.03110143
9	0x3b34312f	0.0027495136
10	0x3cdac6d6	0.02670614
11	0xbcfd149b	-0.030893615
12	0xbd9378af	-0.07200753
13	0x3cafede8	0.021475747
14	0xbdbcb7cd	-0.09214745
15	0xbd4de85f	-0.050270434
16	0x3da020c7	0.07818752
17	0x3cd9eaa0	0.026601136
18	0x3cd3a26f	0.02583429
19	0xbdc18578	-0.09449285
20	0x3d9f2012	0.07769789
21	0x3d86a60d	0.065746404
22	0x3dab8423	0.083748125
23	0xbd76b2d8	-0.060229152
24	0xbd72dcfa	-0.05929277
25	0xbd83c3ee	-0.06433855
26	0x3d1ab971	0.037774507
27	0xbdaaf700	-0.08347893
28	0xbd028d93	-0.031873297
29	0xbd472aef	-0.04862493
30	0xbc988625	-0.018618653
31	0xbc27f691	-0.010251657
32	0xbc7bb074	-0.015361894
33	0x3d5085fe	0.050909035
34	0x3d63ded4	0.055632427
35	0x3bac57b0	0.0052594766
36	0x3da75938	0.08171314
37	0xbb87c0d5	-0.0041428604
38	0xbc4a24fc	-0.012337919
39	0x3d9f32a8	0.07773334
40	0x3d99290f	0.074785344
41	0xbcbe7899	-0.023250865
42	0x3c34442d	0.0110025825
43	0xbd5656ca	-0.052328862
44	0xbc8959b4	-0.016766407
45	0x3d7c4e41	0.061598066
46	0x3cac3468	0.021021083
47	0x3d236f62	0.039901145
48	0x3d6b2764	0.057410613
49	0x3b462fcc	0.0030240892
50	0x3c83bab7	0.016080244
51	0xbc26f4b3	-0.010190177
52	0x3bc1b32a	0.0059112506
53	0xbc14b363	-0.009075972
54	0xbb91e15f	-0.004451915
55	0x3c2b3fc7	0.010452217
56	0xbd8ab39a	-0.067725375
57	0xbda3e14a	-0.08001955
58	0x39eedbd4	0.00045558682
59	0x3bf8f550	0.007597603
60	0x3ca75866	0.020427894
61	0x3d9daf87	0.07699495
62	0x3c5d9571	0.013524399
63	0xbd36c475	-0.04462095

weight f4 [64]
0	0x3f756dce	0.95870674
1	0x3f76d522	0.96418965
2	0x3f81539a	1.0103638
3	0x3f8164ce	1.0108888
4	0x3f79d3b6	0.9758867
5	0x3f801634	1.0006776
6	0x3f8092ca	1.0044796
7	0x3f806bfa	1.0032952
8	0x3f7bd86b	0.983771
9	0x3f7e3532	0.9929992
10	0x3f852b1b	1.040378
11	0x3f734d63	0.9503996
12	0x3f8100bc	1.0078349
13	0x3f7c73d3	0.98614234
14	0x3f8459a2	1.0339854
15	0x3f7df361	0.9919949
16	0x3f7879c0	0.97060776
17	0x3f81c347	1.0137719
18	0x3f85367f	1.0407256
19	0x3f8618e8	1.0476351
20	0x3f7b0c4a	0.98065627
21	0x3f7ff700	0.9998627
22	0x3f7941c5	0.9736598
23	0x3f81d5ad	1.0143334
24	0x3f849e58	1.0360823
25	0x3f8069c2	1.0032275
26	0x3f816dc0	1.0111618
27	0x3f81dde5	1.0145842
28	0x3f800759	1.0002242
29	0x3f7cfa39	0.9881931
30	0x3f7f666c	0.9976566
31	0x3f73bf48	0.9521375
32	0x3f799e92	0.97507584
33	0x3f7d588f	0.98963255
34	0x3f7618e5	0.96131736
35	0x3f74bf83	0.95604724
36	0x3f80e8ee	1.0071084
37	0x3f777f8d	0.96679
38	0x3f7de916	0.99183786
39	0x3f81284a	1.009042
40	0x3f7f53b5	0.997371
41	0x3f7d9c65	0.99066764
42	0x3f82d148	1.0220118
43	0x3f79d232	0.9758636
44	0x3f76d6c0	0.9642143
45	0x3f83a566	1.0284851
46	0x3f83725f	1.0269278
47	0x3f7f0bd5	0.9962743
48	0x3f837a8e	1.0271776
49	0x3f800286	1.000077
50	0x3f839532	1.0279906
51	0x3f7c70b6	0.98609483
52	0x3f81176d	1.0085274
53	0x3f81b777	1.0134114
54	0x3f7ed09d	0.9953707
55	0x3f7bff0c	0.98436046
56	0x3f81eed8	1.0151014
57	0x3f801232	1.0005553
58	0x3f84e6ee	1.0382974
59	0x3f78e854	0.97229505
60	0x3f762288	0.9614644
61	0x3f858100	1.0429993
62	0x3f81087b	1.0080713
63	0x3f7b1a4b	0.98086995

bias f4 [64]
0	0xbca99a3b	-0.020703426
1	0x3c95aeef	0.018271891
2	0x3b432bda	0.0029780776
3	0xbd50142d	-0.05080049
4	0xbcc12428	-0.023576811
5	0xbcb40bfc	-0.02197837
6	0x3bc46bfd	0.0059943185
7	0xbd374c1b	-0.044750314
8	0xbd8a539b	-0.06754228
9	0x3d12c1cb	0.035829347
10	0x3d3f760e	0.046743445
11	0xbd0e2417	-0.034702387
12	0x3be340f4	0.0069352333
13	0xbc527988	-0.012846358
14	0x3d1ded44	0.038556352
15	0x3c627b16	0.013823291
16	0xbc917f33	-0.017760849
17	0x3cfb9afd	0.030713553
18	0x3d18fff4	0.03735347
19	0xbd8a9973	-0.06767549
20	0xbbab1d12	-0.0052219713
21	0x3bb3839e	0.0054783365
22	0x3cb53b21	0.022122921
23	0xbbc165f3	-0.005902046
24	0x3c35d759	0.011098706
25	0xbc80d7c6	-0.015727889
26	0x3c6471a8	0.013943113
27	0xbb2ca002	-0.002634049
28	0x3c3462e7	0.011009908
29	0x3d1af745	0.03783347
30	0xbccc05a3	-0.024905032
31	0x3ce28dbe	0.027655479
32	0xbce9186b	-0.028454026
33	0x3cc9bbc6	0.02462567
34	0xbcc9b2b7	-0.02462135
35	0xbd38bc2a	-0.045101322
36	0x3b9efb35	0.0048517236
37	0xbc8533f8	-0.016260132
38	0xbce0a26a	-0.027421195
39	0xbd54d25a	-0.05195842
40	0xbc868eac	-0.016425453
41	0xbc94164f	-0.018077044
42	0xbb6d3482	-0.0036194627
43	0xbc66e082	-0.014091613
44	0xbc1137d4	-0.008863408
45	0xbca3ccfe	-0.019995209
46	0xbce3326d	-0.027734006
47	0xbc8e1244	-0.017342694
48	0xbcee233c	-0.029069535
49	0x3cffeeee	0.03124186
50	0xbc8d1cfc	-0.017225735
51	0x3c8bbf02	0.017058853
52	0x3c13ad82	0.009013535
53	0xbcb1f39e	-0.021722611
54	0x3c7783eb	0.015107135
55	0xbc2a2bd4	-0.010386426
56	0x3c44fbe9	0.012022951
57	0x3c4868b8	0.012231998
58	0x3da77717	0.081770115
59	0xba17ac9f	-0.00057859154
60	0x3caea179	0.02131723
61	0x3c16e068	0.009208776
62	0x3bc81341	0.006105811
63	0xbc8d5593	-0.017252719

running_mean f4 [64]
0	0x3a817b1a	0.0009878606
1	0x3dbb8d84	0.09157851
2	0xbd684c11	-0.056713168
3	0x3d87768b	0.06614407
4	0xbcecfe8c	-0.028929971
5	0xbd783584	-0.06059791
6	0xbd964e01	-0.07339097
7	0xbe8a1cb9	-0.2697504
8	0xbc43b052	-0.0119438935
9	0xbd439ae6	-0.047755145
10	0x3def4bde	0.116843924
11	0x3ca4d4e5	0.020121047
12	0xbd92f59f	-0.07175755
13	0x3c24be85	0.010055189
14	0xbe5232cf	-0.20527194
15	0x3dbbfec5	0.09179453
16	0xbd550c9c	-0.05201398
17	0x3d2b8aa3	0.04188026
18	0x3dc3f071	0.09567345
19	0xbe850fb6	-0.2598855
20	0x3e2270ac	0.15863293
21	0x3d304ad6	0.04304012
22	0x3eceab03	0.40364847
23	0x3cbd0587	0.023073925
24	0x3d3cc8bf	0.046089884
25	0x3d6034b3	0.054737758
26	0xbe3777ee	-0.17916843
27	0xbdf97a10	-0.12181485
28	0xbd8423c6	-0.06452136
29	0x3d243e7d	0.040098656
30	0x3e163330	0.14667964
31	0x3cca5b8d	0.024701858
32	0xbe5176c8	-0.20455468
33	0x3e59617e	0.21228597
34	0x3cb53237	0.02211867
35	0xbd469028	-0.048477322
36	0x3d9b8b61	0.07594944
37	0xbda07da7	-0.07836466
38	0x3be27692	0.0069111073
39	0x3e35111b	0.17682306
40	0xbd73ece9	-0.059552107
41	0xbdbf836a	-0.09351237
42	0xbd732dd6	-0.059369884
43	0xbd2d9a36	-0.042383395
44	0xbc68e57e	-0.014214871
45	0xbda4be9a	-0.08044167
46	0xbdf10dd4	-0.11770216
47	0x3e0b9447	0.13630782
48	0x3df3e144	0.119082004
49	0x3e22adb2	0.15886572
50	0xbca28ee7	-0.019843532
51	0xbe2a1a12	-0.16611508
52	0xbd0a9105	-0.033829708
53	0xbbf8152c	-0.0075708833
54	0x3ce88a67	0.028386308
55	0x3d842292	0.06451906
56	0xbe904d0d	-0.28183785
57	0x3d3f1f88	0.04666093
58	0x3d9e0e40	0.07717562
59	0x3c1fc504	0.009751562
60	0x3e6948b1	0.22781636
61	0x3cef50b4	0.029213287
62	0x3d029a5e	0.031885497
63	0xbe2abc29	-0.1667334

running_var f4 [64]
0	0x3c0600a7	0.0081788665
1	0x3c3eede8	0.011653401
2	0x3acedc1d	0.0015782152
3	0x3ba906a1	0.005158261
4	0x3b25ad78	0.0025280397
5	0x3bed5641	0.0072429483
6	0x3c6775f1	0.0141272405
7	0x3becacf1	0.0072227647
8	0x3c03fe64	0.008056257
9	0x3be6b15a	0.007040185
10	0x3bcd8ad8	0.006272655
11	0x3c05c47b	0.00816452
12	0x3c202a1c	0.009775665
13	0x3c053ea1	0.008132608
14	0x3c1b04fc	0.009461638
15	0x3c8d3d8a	0.017241258
16	0x3b0d60ec	0.0021572663
17	0x3c4aaf0f	0.012370839
18	0x3b3ceae0	0.002882652
19	0x3c0f6e6d	0.008754355
20	0x3b3ef646	0.002913849
21	0x3bd7e799	0.006588888
22	0x3c4b010d	0.012390387
23	0x3b9df5bd	0.004820554
24	0x3b86f1e6	0.004118192
25	0x3aae1dc8	0.0013284022
26	0x3c2c4281	0.010513903
27	0x3be0931e	0.0068534752
28	0x3bfede6d	0.00777798
29	0x3bfc475a	0.0076989355
30	0x3b4f50bd	0.0031633817
31	0x3c73f5b2	0.014890121
32	0x3c1ef811	0.009702698
33	0x3c79fd21	0.015258105
34	0x3b3d78ce	0.0028911117
35	0x3bab003d	0.0052185343
36	0x3bc61e36	0.006046082
37	0x3b9ee9cc	0.004849648
38	0x3c7e6cab	0.015528838
39	0x3b8c8cfb	0.004289267
40	0x3b3b7ff5	0.0028610204
41	0x3bac4103	0.0052567734
42	0x3b0f3e82	0.0021857326
43	0x3bb36386	0.0054745106
44	0x3c4b6444	0.012414042
45	0x3ba8cefa	0.0051516267
46	0x3c177372	0.009243833
47	0x3be7bb27	0.007071871
48	0x3b042037	0.0020160803
49	0x3c197eae	0.009368582
50	0x3b916158	0.004436653
51	0x3b53c4da	0.0032313378
52	0x3be2455a	0.00690524
53	0x3be7db57	0.007075708
54	0x3bbfd48f	0.0058541964
55	0x3c2489fb	0.010042663
56	0x3b85edad	0.004087171
57	0x3c12b23b	0.008953626
58	0x3c504d4e	0.012713743
59	0x3c015c1c	0.007895496
60	0x3c692984	0.0142310895
61	0x3b9e878a	0.004837935
62	0x3b9666cc	0.004589891
63	0x3b950136	0.0045472635

weight f4 [32, 64]
0	0xbd19fe39	-0.03759596
1	0xbc60629c	-0.013695385
2	0x3caa5290	0.020791322
3	0xbd939cf5	-0.072076716
4	0xbd0f11b3	-0.03492899
5	0x3d980c3f	0.07424211
6	0x3c96fec0	0.018432021
7	0xb9f6cc7b	-0.00047073126
8	0xbb8082af	-0.0039218287
9	0xbd38ff2c	-0.045165226
10	0x3dd87e82	0.105710045
11	0x3d868366	0.06568031
12	0xbd3a32f8	-0.045458764
13	0xbda8c8ec	-0.08241448
14	0xbc5e305a	-0.013561333
15	0xbd8435c9	-0.06455571
16	0x3d3afbec	0.045650408
17	0x3db45244	0.088047534
18	0x3dfbe2d3	0.12299123
19	0x3cbdc069	0.023163037
20	0xbd6e8124	-0.058228627
21	0x3d14b1f0	0.036302507
22	0x3d858f7e	0.065215096
23	0x3cc602c5	0.024171242
24	0x3d90530a	0.070470884
25	0xbd97b010	-0.07406628
26	0xbd398526	-0.045292996
27	0xbca6008b	-0.02026393
28	0x3e0a99a4	0.13535172
29	0xbd818d37	-0.06325763
30	0xbc91b8c9	-0.017788308
31	0xbda83f7f	-0.08215236
32	0x3d0a4317	0.033755388
33	0xbda950a1	-0.08267332
34	0xbc90564e	-0.017619278
35	0xbd055555	-0.032552082
36	0x3d9f4df9	0.07778544
37	0x3c7ffbef	0.0156240305
38	0x3d2e6626	0.042577885
39	0xbdb55790	-0.08854592
40	0xbd18b6cc	-0.037283704
41	0xbda102bc	-0.0786185
42	0x3e0d75fd	0.1381454
43	0xbcddaad7	-0.027059002
44	0x3d4d0343	0.05005194
45	0x3d8a8cac	0.06765112
46	0x3d0f8ae3	0.035044562
47	0x3cb9724a	0.022637505
48	0xbe071dbd	-0.13194938
49	0x3cefb787	0.029262317
50	0x3d5a4694	0.053289965
51	0xbe120bd3	-0.14262323
52	0xbc5fd0a5	-0.013660585
53	0x3d0d72b3	0.034533214
54	0xbd823526	-0.063577935
55	0xbe087e88	-0.13329518
56	0xbdb13030	-0.08651769
57	0xbdc646ea	-0.096814945
58	0xbddf116c	-0.10891995
59	0xbded230c	-0.1157895
60	0x3c27e54f	0.0102475425
61	0x3c06e76b	0.008233885
62	0x3d79feb2	0.061033912
63	0xbdcd82b6	-0.10034697
64	0x3e0b5ba5	0.13609178
65	0xbadbd672	-0.0016772284
66	0x3d3a2bf0	0.04545206
67	0x3b9b02da	0.0047305645
68	0xbd92ff2a	-0.07177575
69	0x3da3fdb1	0.08007372
70	0x3d912dc2	0.07088806
71	0xbd01c7e2	-0.031684764
72	0xbe14df52	-0.14538315
73	0xbda09290	-0.078404546
74	0x3da078e4	0.07835558
75	0xbb961a5b	-0.0045807785
76	0xbdb20d65	-0.08693961
77	0x3e06a3e5	0.13148458
78	0xbd80d471	-0.0629052
79	0xbab32b68	-0.0013669552
80	0x3d856ba7	0.06514674
81	0x3d71cdf5	0.059034307
82	0x3e05d38c	0.1306898
83	0x3ce2696d	0.027638162
84	0x3d1e2584	0.038609996
85	0xbc2c4a2c	-0.010515731
86	0xbd9d0e21	-0.076687105
87	0xbe1b747f	-0.15181158
88	0x3d40f358	0.04710707
89	0x3d644c5d	0.05573689
90	0x3d64c7da	0.055854656
91	0xbcb6e03c	-0.02232372
92	0xbd055d5f	-0.03255975
93	0xbdb806b7	-0.08985656
94	0xbd04ab66	-0.03239002
95	0xbdb09d72	-0.0862378
96	0x3d0c7de7	0.034299757
97	0xbdbf0993	-0.09327998
98	0x3db2b155	0.0872523
99	0x3d7f3cbc	0.06231378
100	0x3d142396	0.03616675
101	0xbdbdac6e	-0.09261404
102	0x3c3e49e8	0.0116143
103	0xba98ea4d	-0.0011666507
104	0xbdabf769	-0.08396799
105	0xbd3b7550	-0.045766175
106	0xbd05ee0a	-0.032697715
107	0x3d4051f4	0.046953157
108	0xbdf46fb6	-0.1193537
109	0x3ba516f1	0.005038135
110	0x3dbc48e0	0.09193587
111	0x3d6b78bb	0.057488184
112	0xbd776a24	-0.060403958
113	0x3c328919	0.010896944
114	0x3d9f4d40	0.07778406
115	0x3dc49f25	0.09600667
116	0x3d9ffa6d	0.07811437
117	0x3ca11a3b	0.019665828
118	0xbd28ec6b	-0.04124109
119	0xbd8c502e	-0.068512306
120	0xbd6db2d2	-0.058031864
121	0xbdfc9b97	-0.12334364
122	0xbdf08d57	-0.117457084
123	0x3d0b4cee	0.034008913
124	0xbc82ae3b	-0.01595222
125	0xbd091f9b	-0.033477407
126	0xbc4a45c8	-0.012345739
127	0x3dac33ae	0.084082946
128	0x3d9a87d1	0.07545436
129	0xbd87365f	-0.06602167
130	0xbda0c165	-0.07849387
131	0xbdb777d0	-0.08958399
132	0x3db19843	0.0867162
133	0xbdff95b2	-0.12479724
134	0xbcd3688b	-0.025806686
135	0x3d8140c4	0.06311181
136	0xbd9fe4e0	-0.07807326
137	0xbca5636d	-0.020189011
138	0xbe40dcd2	-0.18834236
139	0xbd39e247	-0.04538181
140	0x3d875355	0.06607691
141	0x3d3e0bd0	0.046397984
142	0xbd6e3923	-0.05815996
143	0x3d05dc19	0.032680605
144	0xbbb64bfb	-0.005563257
145	0xbd4f159b	-0.050557714
146	0xbd5a191a	-0.053246595
147	0xbe0f6a21	-0.14005329
148	0xbd6d37b2	-0.057914443
149	0x3ac633b0	0.0015121605
150	0xbd104a15	-0.0352269
151	0x3c9bb06a	0.01900502
152	0xbd98e5c7	-0.074657016
153	0xbdf73772	-0.12071122
154	0xbd70a5ad	-0.05875175
155	0xbd0f2e78	-0.034956425
156	0xbd927596	-0.07151334
157	0x3cca62f5	0.02470539
158	0xbc7535c2	-0.01496643
159	0x3d379567	0.044820216
160	0xbddb9048	-0.10720879
161	0x3dcac546	0.09900908
162	0x3de48dce	0.111598596
163	0xbdb1d746	-0.08683638
164	0xbdcd6380	-0.10028744
165	0x3d0f3206	0.034959815
166	0xbdf372d1	-0.11887134
167	0xbc82a678	-0.01594852
168	0x3df07b8e	0.11742316
169	0x3d2c2bb5	0.04203387
170	0xbdf0c71b	-0.11756726
171	0xbe0862a8	-0.13318884
172	0xbda081a3	-0.07837226
173	0xbaca39be	-0.0015428585
174	0xbd8cb1d4	-0.068698555
175	0x3d30ae58	0.043135017
176	0x3cfe5408	0.031045929
177	0x3d266ac1	0.040629152
178	0xbd8c8660	-0.068615675
179	0xbd2543a2	-0.040347703
180	0x3db7eae2	0.08980347
181	0x3d0583a5	0.03259625
182	0xbe0ba16c	-0.13635796
183	0xbda7719d	-0.08175967
184	0xbd1cf810	-0.03832251
185	0x3d5fdac6	0.054651998
186	0xbd164bcc	-0.03669338
187	0xbc34fe6e	-0.011046989
188	0x3d56e541	0.052464727
189	0xbda35154	-0.079744965
190	0x3cdd2d7e	0.026999231
191	0x3d9394ad	0.07206092
192	0x3ca1f2fa	0.01976918
193	0xbc0ee35e	-0.008721201
194	0x3d8b4463	0.06800153
195	0x3e0992d4	0.13434917
196	0xbc2d7aa5	-0.010588323
197	0xbdc0eed4	-0.09420553
198	0x3d5d988e	0.054100566
199	0xbdbdca14	-0.09267059
200	0xbd9e39f7	-0.077259
201	0xbd93e801	-0.072219856
202	0x3d04268e	0.03226333
203	0x3b20ab92	0.0024516326
204	0x3d7a9b4a	0.06118325
205	0x3dca2303	0.09869959
206	0x3d61da05	0.05513956
207	0xbd4265ce	-0.04746037
208	0x3baa2efc	0.0051935893
209	0x3e1c98a4	0.15292603
210	0x3d19e4f3	0.03757186
211	0x3d6340ce	0.055481724
212	0x3dcb129e	0.0991566
213	0x3d0de966	0.034646414
214	0xbe007b3e	-0.12547013
215	0x3d262520	0.04056275
216	0x3d1f43c8	0.038883
217	0xbcab0193	-0.020874774
218	0x3d6a6d7a	0.05723331
219	0x3db27767	0.087141804
220	0x3db831e0	0.08993888
221	0xba937c7f	-0.0011252313
222	0xbcef2c4b	-0.029195925
223	0xbdc3f817	-0.09568804
224	0xbe192785	-0.14956482
225	0xbdf1fb0c	-0.118154615
226	0xbda9b6a8	-0.08286792
227	0x3d9f8362	0.07788731
228	0xbcb525c5	-0.022112736
229	0xbd643c26	-0.055721425
230	0xbe0d18ec	-0.13779038
231	0xbde5fa51	-0.11229385
232	0x3bbe0014	0.005798349
233	0xbccae201	-0.02476597
234	0xbd73a597	-0.05948409
235	0xbe2519da	-0.16123143
236	0x3d581453	0.052753758
237	0x3cde248c	0.027117036
238	0xbd96d084	-0.0736399
239	0xbdcd5256	-0.1002547
240	0xbde1f6e2	-0.11033417
241	0xbdfa3156	-0.12216441
242	0xbc976792	-0.018482003
243	0x3d57df62	0.05270327
244	0x3d046c90	0.032330096
245	0x3d82adc0	0.063807964
246	0x3dcb4e8e	0.099270925
247	0xbd95e089	-0.07318217
248	0x3d92e3a2	0.07172324
249	0xbd667002	-0.056259163
250	0xbcfb840f	-0.030702619
251	0xbb9e2f48	-0.0048274137
252	0x3d200776	0.039069615
253	0xbdcfc68a	-0.1014529
254	0xbc9388b7	-0.018009527
255	0x3d66be5b	0.05633388

bias f4 [32]
0	0xbc295f5f	-0.01033768
1	0xbcfe5506	-0.031046402
2	0xbc3f5801	-0.011678697
3	0x3d6c0926	0.057625912
4	0x3d0d68de	0.034523837
5	0x3cb7347d	0.022363896
6	0xbdfc6db9	-0.123256154
7	0x3dd7036d	0.104987
8	0x3d8c4450	0.06848967
9	0xbd65bf65	-0.05609073
10	0x3d2b30cb	0.04179458
11	0xbdd462a6	-0.10370378
12	0xbd1bd3d1	-0.0380438
13	0xbded9a4e	-0.11601697
14	0xbd9f3d64	-0.07775381
15	0x3cb040ed	0.021515334
16	0xbd865d45	-0.065607585
17	0xbd97be8a	-0.07409389
18	0x3daf7802	0.085678115
19	0xbd9415e3	-0.07230737
20	0xbd57e140	-0.05270505
21	0x3df3ff95	0.11913983
22	0x3accabdd	0.0015615184
23	0x3d3f6f8d	0.046737242
24	0x3d0c20fc	0.034211144
25	0x3d6fbb98	0.058528513
26	0x3dba5149	0.09097535
27	0xbd3907ff	-0.04517364
28	0xbcd281ac	-0.025696598
29	0x3dfbd00d	0.12295542
30	0x3db73c8a	0.08947094
31	0xbd38651d	-0.045018304
