reskill/results/saved_rl_models/fetch_hook_40000/ppo_residual_agent.pth (torch, 34323 bytes, 7 tensors)

log_std f4 [4]
00000000: 5a3e cebf 0125 cebf e030 cebf 1b03 cebf
-1.6112778 -1.6105043 -1.6108665 -1.6094698

weight f4 [64, 51]
00000000: 1579 47bd c575 f53d cde8 dbbd 600f 10be
00000010: 9b39 993d 422a 7bbd d214 593d f29b 5d3c
00000020: 892f 25bd 23f4 cf3d afc7 483e 9d16 00bd
00000030: bdd0 e73d 5869 2f39 9efd 133e 6646 2ebe
00000040: 26e2 2c3e d9f4 48be ec7b fabd 4ef4 1d3e
00000050: 6361 1abd f19a 313f bb87 2cbe 8a1b 8bbd
00000060: f894 9cbe 5b29 3dbd d2b4 e23d 5361 58bd
00000070: 11d4 043f aeb5 bc3d 33ca e0be f6aa cd3e
00000080: fc68 f1bd d82c f13d 5a68 64bd 83ef 9ebe
00000090: a8ca b73e 0b87 233d d9ee 66be 7d38 0c3e
000000a0: 856a 763d 5364 083e f513 693d 7a20 f3bd
000000b0: 7ab4 a6bb a6a9 81bd ec3d e93d 1875 5b3e
000000c0: e9f1 1b3d 623f 833d 5106 963d 9e99 d0ba
000000d0: c182 09bc e490 10bd 93ea 103e 1d15 1e3e
000000e0: 7f30 ce3b 0f94 8fbc 1556 183e 8c3b e33d
000000f0: c856 b33d 3aeb 73be 2a08 503e 0c0e f33d
00000100: 1a87 6f3a a9e5 703e c21b 65bd a52c 933e
00000110: b94a 01bc 9dd3 f8bd 017a b4be 041e 8fbd
00000120: a049 ae3e cab9 c13b be7c dfbe 8daa 8dbe
00000130: 5e33 4bbc 7f91 5ebd 07ad f5bd 2200 31be
00000140: 6297 6fbe fcac aabe a948 81bd 6bb3 6cbe
00000150: 26ef d03e 65e7 183e 1233 d6bd 4bbc 813d
00000160: 5b4f d63e 5c1e fbbe 9745 ef3b 7869 453d
00000170: 78ac c9bd 6cfc be3b b043 813e d361 9cbc
00000180: 3c82 e23d ea04 93be f84d d8bd 5566 89bb
00000190: febc 903d 6446 b6bd d0d0 19bd 0b3e 85bd
000001a0: 593d 69bd 35d2 f83d 560f d53d b915 053e
000001b0: 9470 233d 9059 de3d d29d 473e 8141 04be
000001c0: fbc0 34be 76f6 dfbb da68 aabe 6802 273e
000001d0: ad69 1c3e 74a7 17be b475 1abd cc5b 12bf
000001e0: fd50 e83e f675 323f 3e8f 2d3e 8a3f b23d
000001f0: 1706 5b3d bba9 263e 4ea5 be3d 33bb 263d
00000200: 1140 9f3d 56cf 8dbc f8c4 7a3e 061d 97be
00000210: c72f a8be 420e 88be 3a7c 113f 1bec 17be
00000220: 7d18 27be deaf 563c bddf 283e d1f5 e0be
00000230: 97aa e93d c25d 513e 9b05 d03d 7329 fe3d
00000240: d24e 6b3c 59da 82bd 7f8e 373b 2589 b03c
00000250: 55ce 773b 671a d7bd 4e1e b23d bd33 203e
00000260: 84c5 7cbe 399c 72bd f6cd e73c a344 f63c
00000270: fc3c 793c 8050 04be 1708 c23d 3683 c6bd
00000280: f12e 353d fdda 28bd dadb 8abd 36a6 c5be
00000290: 4103 a63d 931d 3e3e 67a8 423e ba6e 873e
000002a0: 405a 14be 632d 95be 0aad 9a3d 8d5b 70be
000002b0: 9388 933e c199 703d 523e 493d 525a 383e
000002c0: bb5d 89bc 1bb4 cd3e 1fdd 0bbe bb34 d3bd
000002d0: 7daf 42bd 2a5c f13e 92de 743e 44b0 213e
000002e0: e51f 983e e93c 70bd f27d 873b a2c0 203e
000002f0: efd6 a33d 4f1c 51be 2fe2 8e3e 0d82 0e3e
00000300: 1745 12bc adcb 023e b21c 163e 2125 513d
00000310: 8dcc ec3c 950c fa3d a7be cfbc 6e77 173d
00000320: af33 d43d bad9 3cbd 2bbc f03c b0f9 bfbd
00000330: 5dd2 23be b637 88bc 2309 47be 0ca1 713c
00000340: 853d f03d 33a4 30be a781 bfbb 2313 f2bc
00000350: 1a57 833e 0210 593e 82a0 893c f61a eabe
00000360: ea80 bf3c 4b2e 913e dc68 5ebe 153e 863e
00000370: a9bd 083e b7ab f93e 7aab 89bc 06e8 4cbe
00000380: 789f 3fbe 36ca 083f 6c5e f93d 5819 a73d
00000390: ca83 d7bd 8ae0 debd 1c56 2f3d 0b94 323d
000003a0: 875b df3d cf4e e0bd d0cf a4be 74ea 6f3e
000003b0: 5d4b 9bbe 27c2 63be 51b6 9b3d 1eef 5dbd
000003c0: dcc0 053f 3eff a6be f0c5 1abe f653 cf3e
000003d0: 5164 133d 2760 f5bd 2eb5 f13b 37be 34bc
000003e0: f210 bebc a9fe 523e 78cd 183e d322 ea3d
000003f0: f60e 063e 6345 3e3e 06a6 10be 2973 8c3d
-0.048699457 0.119853534 -0.107377626 -0.14068365 0.074816905 -0.061319597 0.05299837 0.01352595
-0.040328536 0.10153987 0.19607423 -0.031271566 0.113191105 0.00016728544 0.14452216 -0.17019042
0.16883144 -0.19624652 -0.122306675 0.15425226 -0.03769053 0.69377047 -0.16848652 -0.06792362
-0.30582404 -0.046182018 0.11069645 -0.05282719 0.5188609 0.0921434 -0.43904266 0.40169495
-0.11787602 0.117761314 -0.05576358 -0.31042108 0.35896802 0.03992371 -0.2255205 0.13693424
0.06016018 0.1331952 0.056903798 -0.11871429 -0.0050874325 -0.06331186 0.11388764 0.21431386
0.0380725 0.06408574 0.073254235 -0.0015914922 -0.008392991 -0.03529443 0.14151983 0.15437742
0.0062924023 -0.017526655 0.14876588 0.11095342 0.087567866 -0.238202 0.20315614 0.118679136
0.0009137258 0.23525108 -0.055934675 0.28745 -0.00789135 -0.12149737 -0.35249332 -0.06988147
0.34040546 0.0059120404 -0.43649858 -0.27669182 -0.012402384 -0.054337975 -0.11995893 -0.17285207
-0.23397592 -0.33335102 -0.06312687 -0.23115318 0.40807456 0.1493202 -0.1045896 0.06334742
0.41857418 -0.490466 0.007301997 0.048196286 -0.09847349 0.005828431 0.25246954 -0.019089615
0.110599965 -0.28714687 -0.10561746 -0.004193107 0.070672974 -0.08900145 -0.037552655 -0.065059744
-0.05694327 0.12149469 0.10403316 0.12996568 0.039902285 0.108569264 0.19493797 -0.12915613
-0.17651741 -0.0068348004 -0.3328312 0.16309512 0.15274687 -0.14809972 -0.037709907 -0.5717132
0.4537429 0.69711244 0.16949174 0.08703525 0.053472605 0.16275685 0.09308873 0.04070587
0.077758916 -0.01731078 0.244892 -0.2951433 -0.3284895 -0.26573378 0.5683018 -0.14836161
-0.16317935 0.013103453 0.164916 -0.43937543 0.114094906 0.20445922 0.10157319 0.124102496
0.014362054 -0.06389303 0.0028008518 0.02154977 0.0037812192 -0.10503083 0.086971864 0.15644737
-0.24684721 -0.059231017 0.028296452 0.030062025 0.015212294 -0.12921333 0.09474199 -0.09692995
0.04423422 -0.04122447 -0.067802146 -0.3860337 0.081060894 0.18565969 0.19009553 0.26451665
-0.14487553 -0.2913619 0.07552536 -0.23472424 0.28815135 0.05874038 0.0491317 0.18003204
-0.016768327 0.40176472 -0.1365857 -0.10312792 -0.04753064 0.47140628 0.23913029 0.15789896
0.29711834 -0.05865184 0.004134887 0.15698484 0.0799998 -0.20420955 0.2790694 0.13916798
-0.008927605 0.12773009 0.14659384 0.0510608 0.028906131 0.12209431 -0.025359465 0.03697913
0.1036142 -0.046106078 0.0293866 -0.09373796 -0.15998216 -0.016628128 -0.19437079 0.014747869
0.11730484 -0.17250137 -0.005844313 -0.02955014 0.2565239 0.21197513 0.016800169 -0.45723695
0.0233769 0.2835563 -0.21719688 0.2621924 0.133536 0.4876382 -0.0168054 -0.20010385
-0.18713176 0.5343355 0.12176213 0.08159131 -0.10523184 -0.10882671 0.04280673 0.043598216
0.10906129 -0.109525315 -0.32189798 0.2342928 -0.30330935 -0.22242032 0.076031335 -0.054183118
0.52247405 -0.3261661 -0.1511457 0.40493745 0.03598434 -0.1198123 0.0073763346 -0.011031679
-0.02320144 0.20604958 0.1492213 0.114324234 0.13091645 0.18581156 -0.14125833 0.068579026

bias f4 [64]
00000000: 1649 263e 0edc dabc 9b82 7f3d da91 86bd
00000010: ee8d a9bd 1713 06bd bd56 66bd 729a fd3d
00000020: 6875 08be d52d 30be aa76 b3bd 865c 8d3d
00000030: 9469 0a3c b954 babc fb4c cbbc 97a8 bc3c
00000040: 0812 00be cbc3 193e 9edd 64bd b563 553d
00000050: 4264 52bd 0d4c 103e 21b4 503d 5776 9e3c
00000060: cbeb 483c 4a2a fd3c da6b ba3d bbf7 133e
00000070: 37ad 873d 24ac f93d 8c0a f7bb d59e 8d3d
00000080: 7eae a3bc 7ab4 eb3d 7f33 06be d76c a7bd
00000090: 50a1 b3bd 0a05 a93d d862 86bd cf21 c2bb
000000a0: 8080 b13d 73c1 d8bd 1719 d43d d700 69bc
000000b0: 013f 6a3d cca5 0a3e 0a5b f3bc 8f19 abbc
000000c0: c023 933d c92f c6bd 7286 d33d ec43 223c
000000d0: 0993 a4b9 3998 0c3e 3062 143e 5c35 853d
000000e0: 8c51 28be 29c6 d4bd 908f 4a3d 3b39 ef3d
000000f0: 3f64 2a3d 2219 77bb 0ef1 2c3e 792d 81bd
0.16238818 -0.026716258 0.062380414 -0.06570788 -0.08279024 -0.03273305 -0.056235064 0.12382974
-0.13326037 -0.17204984 -0.08762868 0.06902413 0.008448023 -0.022745477 -0.02481698 0.023029609
-0.12506878 0.15016095 -0.055875413 0.05209704 -0.051365145 0.14091511 0.050953034 0.019343538
0.012263249 0.030903954 0.09102602 0.1444997 0.06624835 0.12191036 -0.007539099 0.069150604
-0.019980665 0.115090325 -0.13105582 -0.081750564 -0.08771002 0.08252914 -0.06561822 -0.0059244405
0.086670876 -0.105837725 0.10356348 -0.014221392 0.05718899 0.13539809 -0.029706497 -0.02088621
0.07184553 -0.09677083 0.10328378 0.009903889 -0.00031390067 0.13729943 0.1449058 0.06504318
-0.16437358 -0.103893586 0.049453318 0.11680838 0.04159951 -0.003770419 0.1688883 -0.06307501

weight f4 [64, 64]
00000000: 0eb3 77be d60f 853a f549 dd3c 37c1 d9bd
00000010: 95a5 883d aad8 593d ce53 3bbe 61f0 cfbd
00000020: 3888 19be 8a55 f4bb 6654 163e d1c2 943c
00000030: 479c 13bd 25c6 e03d c97f 11bd 4196 10be
00000040: bb99 9b3d 11f1 8ebd 899e 22bd 1674 eb3d
00000050: 74f4 15be 8313 00be ad3c ffbd 3451 55bd
00000060: bac3 8fbd a66c e0bd 7e7c 28bd 3e6a 09be
00000070: 04af 463e 29bc 17be 412c 113c 092e 8e3d
00000080: 6629 6d3c d06c 333c 02c5 c33d 3f4f 533c
00000090: 8580 c1bd 318c b33d 7bfd 1e3c 7d38 3fbe
000000a0: 8f58 973c 99d6 c4bd 4231 d23d cb5c bb3c
000000b0: 533d 2b3e 0421 09be 2c8f d2bc 1e68 463e
000000c0: 70d1 153d 4d69 903d 77fe a43d b3f7 9bbd
000000d0: bd9d ac3d a4e7 07bd 38bf c03d eeda 96bb
000000e0: a998 0c3e f587 16bc e646 8dbc a8d5 d43d
000000f0: 683d 4cbd 08db ad3d f22f e0bd cf13 4bbe
00000100: a2ce 03be 9ba1 be3d ed4f d93d 75a5 b1bc
00000110: ad50 5dbd 9cab 463d 4b0a b73d 41db dcbc
00000120: 5aee b53d da31 f43d fbcc 80be 7e3e 7a3d
00000130: e27a 54be 8160 c5bc 4dd1 13be 9af2 c4bd
00000140: 9494 353e d3db 91bc 3a05 563d 84ad a03c
00000150: 182e 883e c0eb c7bd 96cc bfbd 0c26 6ebe
00000160: 9096 293c 9a2d 783c b6ab 81bd b558 3dbe
00000170: 3e29 03bd d043 c2bd c2a9 f83d 5c69 e8bd
00000180: 4454 b9bd 9681 0b3d 6cbb cb3c 98fc b5bd
00000190: 7d83 69b8 e309 dabd c298 843b 7585 0ebd
000001a0: 77e7 1ebd 65bb bcbb 30b1 e1bd 775e 53bd
000001b0: c2d3 f3bd 8eac 55be bfeb 1d3e f99c 813b
000001c0: 1f82 1dbe c918 65bd 1eb0 91be 8b14 973e
000001d0: 63a0 bb3b 6768 bc3c 628f fbbc ed6c 8c3c
000001e0: 2896 8fbd f4f7 1f3e d673 1c3e f7c1 27be
000001f0: 1402 33bd 380d 303e 6789 d7bb 7cef e43b
00000200: 6862 10be 3f58 f8bc a8e0 3c3d 50b2 1abd
00000210: 20be 32be 2913 c13d 589f d5bd 5657 8ebe
00000220: d8d4 683c d25f 1ebe 6397 39bc bd93 cf3d
00000230: 0478 c53c ab40 38be 8d1e e33d b0ae 283d
00000240: 3601 87bd 345a 823c fab4 353e dc91 3cbd
00000250: 645d 30bd bc48 a4bd f9e6 123d 7f97 1cbe
00000260: 5dbb 98be 3223 00be 58db ce3d cc0b e63d
00000270: a2d4 123e 1504 ee3b 5127 16be ebb6 853e
00000280: 31b5 153d c748 373e 8297 29bd 7864 7fbd
00000290: 8567 cb3d 5d46 503d 0d02 a0bd 88d2 e4bd
000002a0: ea90 5b3d 3a4e e63b 0bf0 493d 15fe 92bd
000002b0: 428d 283e c706 a1bd 8580 b3bd bf48 513e
000002c0: c9ae a0bd afa8 313d d9e4 fb3d fc39 3b3d
000002d0: 17ae 22bd 9a11 e1bd 21fc 083e 6084 f6bd
000002e0: 3a18 bebd 0afb 27be 88c9 803d d2fe 3c3e
000002f0: fbbe d8bd 88cb 17be 10fc 46bd 4284 7a3d
00000300: 2b6d f53d 8180 5a3e aeb4 99bd 2ba8 9dbb
00000310: ffcb e63d 535d 1c3e a983 8d3d b831 e7bc
00000320: d592 9bbb d0ff 05bd e6cb bebd 49cb 993d
00000330: 4984 30be a6db 853d 0e30 7c3d c4b6 80bd
00000340: 993f 39bc fd7e 073e a18b bebd 752b 9e3c
00000350: 3e8a 633e d67b b9bd 9a67 c13c ce72 543d
00000360: 92e4 acbd 6ec9 9bbb 7be4 f4bd cc81 3dbd
00000370: 8963 213c 39be 2f3e a5e2 24bd 3a23 68bd
00000380: 11b0 06be 52c9 1ebe 162f dbbd 4597 2ebe
00000390: e18e b03c efac a43d 4c0c 143e 1013 10be
000003a0: a889 2f3d 4c6b c8bd e1bd 14be a7c6 a53e
000003b0: 448a d7bd 9d4c 9d3d 6549 f63c 83d1 93bd
000003c0: 0762 c53d c682 a8bd cc27 633e ad6d 543a
000003d0: 1979 f83c 6c76 64bd 14d9 ad3d a488 1d3d
000003e0: 1e43 18bd 7150 e5bc 6de1 5e3d 7a08 c1bc
000003f0: f65f d63d af62 47be 25de 2b3e 3856 babc
-0.24189398 0.0010151814 0.027012805 -0.10632556 0.06672207 0.053185143 -0.18293688 -0.101532705
-0.1499337 -0.007456486 0.14680633 0.018159302 -0.03603771 0.10975293 -0.035522256 -0.14119817
0.07597681 -0.069795735 -0.039701972 0.11496751 -0.14644033 -0.12507443 -0.12462745 -0.052079394
-0.07019754 -0.10958223 -0.04113435 -0.13419434 0.194027 -0.14817871 0.008860649 0.06942374
0.014475202 0.010951236 0.09559061 0.012897312 -0.09448341 0.08766974 0.009703989 -0.18673892
0.018474845 -0.09611244 0.102633014 0.022871396 0.16722612 -0.133915 -0.025703035 0.19375655
0.03657669 0.070513345 0.08056348 -0.07615604 0.08428524 -0.033179894 0.09411472 -0.004603735
0.1373011 -0.009187688 -0.017245721 0.10392314 -0.04986325 0.084890425 -0.10946645 -0.19831775
-0.12871793 0.093081675 0.10610948 -0.021685341 -0.054032017 0.048503503 0.0893751 -0.026960017
0.088833526 0.11923571 -0.25156388 0.061094753 -0.20750001 -0.024093868 -0.1443531 -0.09616585
0.1773246 -0.017805016 0.05225108 0.019613989 0.26597667 -0.097617626 -0.093651935 -0.23256701
0.010350838 0.015147591 -0.063315794 -0.1849087 -0.032021753 -0.094855905 0.12141754 -0.11348221
-0.090492755 0.03405913 0.024869643 -0.08886069 -5.5673987e-05 -0.10646417 0.0040465305 -0.034795243
-0.03879496 -0.005759644 -0.11020124 -0.05160376 -0.11905624 -0.20866606 0.15421961 0.00395548
-0.15381669 -0.05593184 -0.2845468 0.2950786 0.0057259067 0.022999002 -0.030708019 0.017141784
-0.07011062 0.1562193 0.15278563 -0.16382585 -0.043703154 0.17192543 -0.006577659 0.0069865566
-0.14100039 -0.030315517 0.046112686 -0.03776771 -0.1745534 0.09427483 -0.10430783 -0.27801007
0.014210902 -0.1546624 -0.011327597 0.10135601 0.02410508 -0.17993419 0.110898115 0.04118222
-0.06592028 0.015912153 0.17744818 -0.04603754 -0.043057814 -0.080216855 0.035864804 -0.15292166
-0.29830447 -0.12513426 0.1010043 0.11232719 0.14338925 0.00726367 -0.14663436 0.26116118
0.03654975 0.17898856 -0.041404255 -0.062351674 0.09931854 0.050848354 -0.07812891 -0.11172968
0.053604998 0.0070283683 0.04930119 -0.071773686 0.16460136 -0.07862621 -0.087647475 0.20437907
-0.078458376 0.04337376 0.122995086 0.045709595 -0.039716806 -0.10989685 0.1337743 -0.12036967
-0.092819646 -0.16404358 0.06288439 0.18456581 -0.10583302 -0.14823735 -0.04858023 0.061161287
0.11983713 0.21338083 -0.07505165 -0.004811307 0.11269378 0.15269975 0.06909878 -0.02822195
-0.0047477284 -0.032714665 -0.09316234 0.07509477 -0.17237963 0.06536035 0.061569266 -0.0628486
-0.011306667 0.13232036 -0.09303976 0.019307831 0.22220704 -0.09056823 0.023608971 0.0518673
-0.08442034 -0.004754237 -0.11957642 -0.046266362 0.009850391 0.17162408 -0.040255208 -0.05667422
-0.13153102 -0.15506485 -0.1070234 -0.17049892 0.021552505 0.08040797 0.14457816 -0.14069772
0.04285589 -0.0978609 -0.14525558 0.32378122 -0.10524419 0.076806284 0.030064294 -0.072176956
0.09637838 -0.08228068 0.2218315 0.0008103501 0.030331181 -0.055777 0.0848867 0.03846039
-0.037173383 -0.027992459 0.0544142 -0.023563612 0.10467522 -0.19471239 0.1678396 -0.02274619

bias f4 [64]
00000000: 58bf 4cbc a6b7 4ebb f6fb 1cbd a1f4 e9bb
00000010: 621b 43bd b988 9c3d 7c59 63bd 2280 acbc
00000020: 9854 cfbc ccbd ed3a 09f6 e43d 327f 41bd
00000030: e140 d63d ea8e e6bd ee29 01be c026 d13d
00000040: 3da3 debd 2d80 08be b39f 46bb b6bf b33d
00000050: 7e86 fabd 317a f53d fe8e fabd 7991 b23d
00000060: 66f0 e43d 66c2 393c 1793 8fbd b699 c53c
00000070: 9ed4 e6bd 3e55 b53d bb02 923c dbf9 0ebe
00000080: 88ee 46bd 87ea c63d e392 593b 7ba3 65bd
00000090: 1210 2c3c f713 09be 7751 1c3e 6a79 21bd
000000a0: 1f22 27be 2b1a 4a3d 66d3 743b b1cd 74bd
000000b0: e498 973d 450b 19bd 7f09 833c d689 93bd
000000c0: 6aad bdbb 5a17 b8bc 1207 2fbd e199 bf3c
000000d0: 1483 26bd c446 a3bd c811 05bd 23b1 ff3b
000000e0: 35ed b3bd 3db5 d43d c280 23bc ae78 07be
000000f0: bca4 c53d 0a82 c0bd 5725 96bd 4cf3 0bbd
-0.012496792 -0.0031542568 -0.038326226 -0.0071397577 -0.047633536 0.07643265 -0.05550526 -0.021057192
-0.025308892 0.0018138229 0.1117974 -0.047240444 0.104615934 -0.112577274 -0.12613651 0.10212469
-0.10870979 -0.13330145 -0.003030759 0.087768 -0.122326836 0.11986197 -0.12234305 0.08719153
0.11178665 0.011337852 -0.07010477 0.024121147 -0.11271022 0.08854149 0.017823568 -0.139625
-0.048567325 0.09712701 0.0033199124 -0.05606411 0.010501878 -0.13386522 0.15265451 -0.03942243
-0.1632161 0.049341362 0.0037357449 -0.059766475 0.074022084 -0.037364263 0.015995739 -0.072040245
-0.005788495 -0.022472072 -0.042731352 0.023388805 -0.04065235 -0.07972482 -0.03248766 0.0078030988
-0.08785478 0.10386131 -0.009979429 -0.1322963 0.09650561 -0.09399803 -0.07331341 -0.034167573

weight f4 [4, 64]
00000000: 0657 9cbe 63b0 92be 7cb4 f9be 74c6 833e
00000010: c400 4ebe 4825 963e 5ff9 093e f5df 5c3e
00000020: bc32 d8bd 9295 c03d b0e5 713d c7fa 4ebe
00000030: 6774 8e3e ae7b 17bf e0cf ca3d 4536 da3e
00000040: d33c 34bf 2035 d6be 064c cbbe 8100 8cbe
00000050: b9f5 43be f86c f63e 8617 39be 4b64 6fbe
00000060: 4307 bf3d 9d3f 923d e928 963c 842d b2be
00000070: f279 f43c c765 98be fb6a bdbd f8c2 51bd
00000080: fdea 973e e57b 063f 2797 0dbf 70d6 603d
00000090: 84ba 26be d136 abbe e1d1 963d 7954 c4be
000000a0: b2a9 aebe 286f 97be 1414 ebbd 98fe d6be
000000b0: 7309 093f cc75 be3e 5703 db3d 8b82 c7be
000000c0: 8fb6 c63e cb58 703e d537 9bbc ffe4 533e
000000d0: 8998 c23d b04d 3d3d 40cf 893e 9254 823e
000000e0: baa2 d9be a680 c63d 0074 d23e 4d27 543c
000000f0: 3fa6 c63e dfd4 2f3f a052 0e3d 6e4d 23be
00000100: 49b3 dcbb b29c 01bf db1e 1e3f f218 0abe
00000110: f28a 35be 83a2 9cbe ab4e 98bd 3fcc 873e
00000120: 80c1 77be 6a25 363d cb00 543e 10ed 803e
00000130: 88cf e4bd 8d2f 503e a31b 89be 5f3c 643d
00000140: 169d 92be 986b 9bbe 7287 c33d fd22 1b3e
00000150: 0dfb 2c3e f8c9 4e3e 54ca a83e f1db bd3e
00000160: b1f7 c3bd b8bc ef3d 6ba3 d7be 2084 a1be
00000170: f7ad 4abe 16ea 853e 7245 14be 0ad0 43be
00000180: 593e df3e d471 9abe 1dbf c93d 9acc a43e
00000190: cc58 7e3c e26b a6be 402b 103f 7472 0ebf
000001a0: bb83 7c3d 093a f9be b69a 74be f96d 94be
000001b0: 9b2f 2dbe 0c75 213e 9140 203f b46e 84be
000001c0: 9686 94be fcdc 5bbe 138e 87be 0859 9a3e
000001d0: 1612 c03c 5f0b fcbe 62fa 88be f459 48be
000001e0: 4a1c 883e e76a 8bbd 46c9 a6be d5b8 a1be
000001f0: d099 7a3e 2343 e53c f00a e6bd 936e 13be
00000200: 680a b93c 6dba d43d 7c38 463e cdc8 b23e
00000210: 9cc2 b23e df92 b23c 6b19 813e 3245 4d3e
00000220: e203 abba 2219 b1be 237a e6be 2bfa 80bd
00000230: 2bac 8bbe 8783 833d f81d 65be 27cc 05bd
00000240: c3ec 183f b1f7 9e3e 105d a13e eca2 b13e
00000250: 702c 2fbe e514 473d 3a14 acbe 494d fabd
00000260: 1495 cc3d 946a 453e 6b91 d1bd e38c a3be
00000270: 613b a53e 21da b6bb 29c1 f43e 3cfe cebd
00000280: 8d87 083e 0295 f6bd 47a5 823e 2681 cdbe
00000290: 5a86 84be 05be 36be d1dc 513c 8c1a 8a3d
000002a0: b73d 6c3d e318 e43d 4d37 3b3e 1546 e0be
000002b0: 7e79 47be 940f 443e 75b7 5dbe 1ac4 49be
000002c0: e7ab 8ebe 9b75 5b3e 5474 c4bd 92a6 4c3e
000002d0: 2301 3cbe 28c3 533e 1b49 813d 5ebb 78be
000002e0: 7324 b7be 6fee 9e3b 2636 19be 7ec7 24bf
000002f0: 3635 51be a7df 28be ac33 c93d 07b1 8abe
00000300: 4dc0 183f f801 31be be3b 8b3e 9273 8cbc
00000310: b79a 323e 99ca a33c 1456 753d e8a1 b4be
00000320: 19ae 743e 4920 743e 5ccc f5bd a277 7c3d
00000330: e432 68be f4a0 bfbe 4a24 b43d 7017 8abe
00000340: 8fa7 123d b89d 43be 2147 c93c 2066 fd3e
00000350: 5511 fcbd 88ed 12be 0b40 94be fd4a 70bd
00000360: c8e5 fc3d 33cf 2bbe 58dd 903e 7853 ff3c
00000370: 37c2 67be fcd7 943e 1da0 f33d 49ee 6a3d
00000380: c04b d8be 36fc 08bd cdfc 0c3f 8b9e 163e
00000390: eaa1 a63d 50f2 4d3e 20a3 0f3e 978c 7bbe
000003a0: dca1 88bc 3e86 8b3e 96db 083d edf4 a33d
000003b0: ca66 66be 34b3 8bbd ba49 b23e ead2 0ebe
000003c0: fd84 a4be fd3e 903d 67a0 7c3e b38b f33e
000003d0: 23a3 6a3e a546 fb3c 519c ac3c 8abf b73e
000003e0: 06fc 4f3e 39a9 b7be fdaf 493a fe5c 673e
000003f0: 3be3 833e dc2b 05bf e6de 493e 7b5a 933e
-0.30535144 -0.28650197 -0.4877051 0.25737345 -0.2011748 0.29325318 0.13474034 0.21569808
-0.10556552 0.09403528 0.059056938 -0.20212851 0.27823183 -0.59173095 0.0990293 0.4261953
-0.7040531 -0.41837406 -0.3970644 -0.27344134 -0.19136705 0.48130012 -0.1807538 -0.23378102
0.09327557 0.071410395 0.018330054 -0.3480035 0.029843304 -0.2976515 -0.092489205 -0.051211327
0.2967147 0.525328 -0.55308765 0.054892004 -0.16282088 -0.3344026 0.0736425 -0.38345698
-0.34113842 -0.29576993 -0.11478439 -0.41991115 0.53530043 0.37199247 0.106939964 -0.38966784
0.38811156 0.23471372 -0.018947521 0.20692824 0.0950175 0.046216667 0.26915932 0.25455147
-0.42506963 0.096925065 0.41104126 0.012948823 0.3879871 0.6868419 0.034746766 -0.15947506
-0.0067352396 -0.50629723 0.6176583 -0.13486078 -0.17728785 -0.30592737 -0.0743688 0.26523015
-0.24194908 0.044469275 0.20703427 0.25180864 -0.11172396 0.20330639 -0.26778898 0.055721637
-0.28635472 -0.30355525 0.095473185 0.15150066 0.16892643 0.20194232 0.32966864 0.37081864
-0.09568728 0.11705917 -0.42116866 -0.31546116 -0.19792925 0.26155156 -0.14479616 -0.1912233
0.43602255 -0.3016497 0.09850905 0.3218735 0.0155241005 -0.32504183 0.56315994 -0.5564339
0.061649065 -0.4867709 -0.23887143 -0.28990152 -0.16912691 0.15767306 0.6259852 -0.2586571
-0.2900893 -0.21471018 -0.26475582 0.3014605 0.023446124 -0.49227425 -0.26753527 -0.19565564
0.26584083 -0.068074994 -0.32575434 -0.31586328 0.24472737 0.027986115 -0.11232555 -0.1439765
0.02258797 0.103871204 0.19357485 0.34918824 0.349141 0.02179855 0.25214705 0.20045927
-0.0013047422 -0.34589487 -0.45015058 -0.06297716 -0.2727979 0.06421571 -0.22374713 -0.032665398
0.5973627 0.3104835 0.31516314 0.34694612 -0.17106795 0.04860391 -0.33609182 -0.12221772
0.09989372 0.19278938 -0.102328144 -0.31943426 0.32271865 -0.005580202 0.4780362 -0.10107085
0.13332959 -0.1204014 0.25516722 -0.40137595 -0.25883752 -0.17845924 0.012808994 0.06743345
0.057676043 0.11137559 0.18282814 -0.43803468 -0.1947994 0.19146568 -0.21652015 -0.19703713
-0.27865526 0.21431582 -0.095925 0.19985417 -0.18359809 0.20679915 0.06312772 -0.24290225
-0.35769996 0.004850201 -0.14962062 -0.643669 -0.20430455 -0.16491567 0.09824309 -0.27088186
0.5966843 -0.17285907 0.27194017 -0.017144952 0.17441832 0.019994067 0.059896544 -0.35279775
0.23894538 0.23840441 -0.12001869 0.06163753 -0.22675663 -0.37427485 0.08795984 -0.26971006
0.035804328 -0.19103134 0.02457005 0.49491978 -0.12307993 -0.14348423 -0.2895511 -0.058665264
0.12348515 -0.16778259 0.28293872 0.03116773 -0.22632681 0.29071033 0.118957736 0.057356153
-0.42245293 -0.033443652 0.55073243 0.14708917 0.081363514 0.20111966 0.14027071 -0.2456535
-0.016678743 0.27250856 0.03341254 0.080057 -0.22500148 -0.0682129 0.34821874 -0.13947645
-0.32132712 0.07043264 0.24670564 0.4756752 0.22913794 0.030673334 0.021070631 0.3588832
0.20310983 -0.35871294 0.0007693766 0.22594067 0.257593 -0.5202005 0.19713935 0.2877997

bias f4 [4]
00000000: c95f ad3d 0d45 49bd 4c66 053e a5de bd3d
0.08465535 -0.049138118 0.13027304 0.09270982
