reskill/results/saved_rl_models/fetch_hook_40000/ppo_agent.pth (torch, 32275 bytes, 7 tensors)

log_std f4 [4]
0	0xbfce2a2e	-1.6106622
1	0xbfce0ddf	-1.6097983
2	0xbfce24e6	-1.610501
3	0xbfce4aea	-1.6116612

weight f4 [64, 43]
0	0x3c6d2e81	0.014476419
1	0x3cf940e8	0.030426458
2	0xbe246113	-0.16052656
3	0xbe169ecc	-0.14709014
4	0x3cee818b	0.029114505
5	0xbd6cc84f	-0.057808217
6	0xbd5921b4	-0.053010657
7	0x3d8f25a9	0.06989605
8	0x3e324839	0.17410363
9	0x3d83805b	0.06420966
10	0x3e33929f	0.175364
11	0xbd9f6651	-0.07783187
12	0xbdddf548	-0.10837799
13	0x3e5486a2	0.20754483
14	0x3e9cc02c	0.30615366
15	0x3e9f74f7	0.31143925
16	0x3b2da46b	0.0026495706
17	0x3d9695cf	0.073527925
18	0xbed204fe	-0.41019434
19	0x3e7d8cb9	0.24760713
20	0x3f0818bb	0.53162736
21	0xbeb2472e	-0.3481993
22	0xbd13b8cc	-0.036064908
23	0xbe9f3c7f	-0.31100842
24	0xbe74cf6e	-0.23907253
25	0x3d097e00	0.03356743
26	0x3c6b4c89	0.014361509
27	0xbe304d44	-0.17216974
28	0x3e80adfd	0.25132743
29	0x3d599e3c	0.05312942
30	0xbe2f4b32	-0.17118528
31	0xbe3b70df	-0.18304776
32	0xbe84d2c8	-0.25942063
33	0xbe70788e	-0.23483488
34	0x3e3c8472	0.18409899
35	0xbdfdcc1f	-0.12392449
36	0x3e2253b1	0.15852238
37	0x3e3924d0	0.18080449
38	0xbdbbe713	-0.09174933
39	0xbd752c0c	-0.05985646
40	0x3d47df79	0.048797105
41	0x3e036b01	0.12833788
42	0x3d3959a8	0.04525152
43	0xbdafe52d	-0.08588634
44	0xbd8c90fe	-0.068635926
45	0xbdcbbf3d	-0.09948585
46	0x3d269753	0.040671658
47	0x3e255a55	0.1614774
48	0x3d307129	0.043076668
49	0x3ddaf6b1	0.10691584
50	0x3e07422c	0.13208836
51	0xbe00b917	-0.12570606
52	0xbd0f22e3	-0.03494538
53	0x3d8d77b0	0.06907594
54	0x3eae6204	0.34059155
55	0xbde27b29	-0.11058647
56	0x3ea25f2d	0.31713238
57	0xbece04d9	-0.40238073
58	0x3d89d312	0.067297116
59	0x3e824eaa	0.2545064
60	0xbe6648b6	-0.22488675
61	0xbe0d7fed	-0.13818331
62	0x3e8e4fad	0.27795163
63	0x3e3d1a85	0.18467148
64	0xbe2e7941	-0.17038442
65	0x3eaa5e9d	0.3327531
66	0xbdbb65c3	-0.09150269
67	0x3ccd6cee	0.025076356
68	0x3dc142e1	0.09436584
69	0xbd214597	-0.039373007
70	0xbdf2cc6e	-0.11855398
71	0x3ec26bfd	0.37973014
72	0xbddad56c	-0.10685238
73	0xbd75c6a0	-0.060003877
74	0xbec09716	-0.3761527
75	0x3e71aeaf	0.23601793
76	0x3bc970f5	0.0061474987
77	0xbd9720e8	-0.07379323
78	0xbe844190	-0.2583127
79	0xbeb491bf	-0.35267445
80	0xbd6924ef	-0.05691999
81	0xbdba967f	-0.09110736
82	0xbd42cdfd	-0.047559727
83	0x3e1593d4	0.14607173
84	0xbcf5b613	-0.029994046
85	0xbcb30489	-0.021852748
86	0x3dbc1a2a	0.09184678
87	0x3d92a1d9	0.07159776
88	0x3e07026c	0.13184518
89	0xbdd04f8e	-0.10171424
90	0xbc8bfb99	-0.017087745
91	0x3ca75cb2	0.020429943
92	0xbe65fdfd	-0.2246017
93	0xbd46df06	-0.048552535
94	0x3e2f1952	0.17099503
95	0xbdf42d55	-0.11922709
96	0x3d795da5	0.060880322
97	0xbe07fdd5	-0.13280423
98	0xbe1afe1b	-0.15135996
99	0x3d99145e	0.07474588
100	0x3eca69dd	0.39533892
101	0x3ed0d1a6	0.4078495
102	0xbbc40f12	-0.005983242
103	0x3cdb3376	0.026757937
104	0xbec3e9f0	-0.38264418
105	0x3e4a40c8	0.19751275
106	0x3e143a3a	0.14475337
107	0xbeee1c0d	-0.46505776
108	0x3e2c5c6b	0.1683213
109	0xbef5cf22	-0.48009592
110	0xbed3f763	-0.4139968
111	0x3df6a125	0.12042455
112	0xbe0e62c0	-0.13904858
113	0x3df7daad	0.12102256
114	0xbd15eea3	-0.036604535
115	0x3d6f1b74	0.05837579
116	0x3cba8e49	0.022772925
117	0xbdecec4d	-0.11568508
118	0x3e9c677f	0.3054771
119	0xbda9e67c	-0.082959145
120	0x3ded7349	0.115942545
121	0x3dd6302d	0.104584076
122	0xbe599bda	-0.21250859
123	0x3e09d4a5	0.13460024
124	0xbe2deaac	-0.16984051
125	0x3e3a4963	0.18192057
126	0xbbac3fb3	-0.005256617
127	0x3d983d09	0.074335165
128	0x3d9923a3	0.074775
129	0xbd9112d4	-0.07083669
130	0x3d8206b6	0.06348936
131	0xbcfadcc9	-0.030622857
132	0xbdc506e5	-0.09620456
133	0x3d2c5c80	0.042080402
134	0x3e2ec00d	0.17065449
135	0x3d8689f6	0.06569283
136	0xbe020020	-0.1269536
137	0x3e33e4fc	0.1756782
138	0x3c03136c	0.008000236
139	0xbdb40ecd	-0.087918855
140	0xbedf75c6	-0.43644542
141	0x3d43699f	0.04770815
142	0xbd6d510e	-0.057938628
143	0x3f07b451	0.53009516
144	0x3ea2f863	0.3183013
145	0xbe6cf692	-0.23140934
146	0x3ee865b5	0.45390096
147	0xbde7e6c0	-0.11323309
148	0xbd84cd43	-0.06484463
149	0xbe299b74	-0.16563207
150	0xbdffd9e1	-0.12492729
151	0xbe2f2ce9	-0.17106976
152	0x3d80c7d1	0.06288112
153	0xbe3eb426	-0.18623409
154	0x3da6c44c	0.081429094
155	0x3d953b4c	0.072867006
156	0x3ce378d3	0.027767574
157	0xbe443a4f	-0.19162868
158	0x3d76284c	0.060097024
159	0xbd225488	-0.039631397
160	0x3e6d8db3	0.23198585
161	0xbeb69f2a	-0.35668308
162	0x3cf02731	0.029315563
163	0xbc08d2e3	-0.008351061
164	0x3e06bbb0	0.13157535
165	0x3e9503bb	0.2910441
166	0x3cf409b5	0.029789785
167	0x3dd2ed76	0.10299198
168	0xbea3ccd3	-0.31992206
169	0xbc9dba19	-0.019253777
170	0x3dcff068	0.10153276
171	0x3d105043	0.035232794
172	0xbd5e5aa4	-0.05428566
173	0x3dc2b606	0.095073745
174	0x3e18e3b5	0.14930613
175	0xbc43574a	-0.011922667
176	0xbc926a91	-0.01787308
177	0x3dca6b42	0.09883739
178	0xbcf21403	-0.029550558
179	0xbe1366e4	-0.14394718
180	0xbe4232c4	-0.18964678
181	0xbd323e29	-0.04351631
182	0x3d1f2670	0.038855016
183	0x3eae8faf	0.34093997
184	0x3c73c455	0.014878352
185	0xbd6cd20b	-0.0578175
186	0x3ddb27e2	0.107009664
187	0xbe815903	-0.25263223
188	0x3c7796a7	0.015111602
189	0xbda27448	-0.07932335
190	0x3f0d4f1c	0.55198836
191	0x3c9d898d	0.019230628
192	0xbf0e3768	-0.55553293
193	0x3ec14d7a	0.37754422
194	0x3e3c29ac	0.18375272
195	0x3ed43e20	0.41453648
196	0xbd532ab4	-0.051554397
197	0x3d2de9c5	0.042459268
198	0xbd3ab257	-0.045580234
199	0x3e28aa11	0.16471125
200	0x3e166bd0	0.14689565
201	0xbc9f6b58	-0.019460365
202	0x3bd104ea	0.0063787596
203	0x3ce63438	0.028101072
204	0xbec4a220	-0.38404942
205	0xbd963aa4	-0.073354036
206	0xbee77309	-0.45204952
207	0xbd8c0003	-0.0683594
208	0x3e119f07	0.1422082
209	0xbd54cfb6	-0.0519559
210	0x3d00ac68	0.03141442
211	0xbcdb60dc	-0.026779585
212	0x3c95c4ed	0.018282378
213	0x3d7016d8	0.058615535
214	0xbd467677	-0.04845282
215	0xbdd7cc98	-0.1053707
216	0x3ca71296	0.020394605
217	0x3de28004	0.11059573
218	0xbd89d0fd	-0.067293145
219	0xbc28d6bd	-0.010305104
220	0x3e1f2723	0.15542273
221	0x3dfcd558	0.123453796
222	0x3dd523f8	0.10407251
223	0xbc8d6e39	-0.017264472
224	0xbe38f73b	-0.18063061
225	0x3dc89e63	0.09795835
226	0x3c6a175c	0.014287796
227	0xbbe7e631	-0.0070770015
228	0xbd8dd930	-0.06926191
229	0x3f27ad66	0.6549896
230	0x3df49fd9	0.11944551
231	0x3ebf5ba9	0.3737462
232	0xbcd6202a	-0.026138384
233	0xbe372b2b	-0.17887561
234	0xbe04b0ac	-0.1295802
235	0xbf098a21	-0.53726393
236	0xbe3773f0	-0.1791532
237	0xbf295493	-0.66144675
238	0x3ebd9b99	0.37032774
239	0x3ebeaa13	0.3723913
240	0x3d7ec06e	0.062195234
241	0xbe1386dc	-0.14406914
242	0xbdd08e9f	-0.10183453
243	0xbd75a408	-0.059970886
244	0x3dd2ca20	0.102924585
245	0xbe5afd3a	-0.21385661
246	0x3f102803	0.56311053
247	0xbdedba6a	-0.11607821
248	0xbe369955	-0.17831929
249	0x3e43af7e	0.19109914
250	0x3cc78ffe	0.024360653
251	0x3ea3a7ec	0.31964052
252	0xbe0aa380	-0.13538933
253	0x3c13fab1	0.009031937
254	0xbde3c1b2	-0.11120929
255	0x3d246cd2	0.04014284

bias f4 [64]
0	0xbd1ae422	-0.03781522
1	0xbe07afba	-0.13250628
2	0xbdbbaa4d	-0.09163342
3	0xbd271dac	-0.04079978
4	0x3d7458ec	0.059655115
5	0x3d34909b	0.04408322
6	0x3d320d40	0.043469667
7	0x3daccf77	0.08438008
8	0xbd165841	-0.03670526
9	0xbe0772dd	-0.1322741
10	0x3d69d170	0.0570845
11	0xbc37b41c	-0.011212375
12	0x3e03a35b	0.12855284
13	0x3d6a167a	0.05715034
14	0xbd29c6f7	-0.041449513
15	0x3da62d4f	0.08114111
16	0xbc8c754c	-0.017145775
17	0xbdcc01dd	-0.09961293
18	0xbdd89ad3	-0.105764054
19	0x3db7b049	0.089691706
20	0x3dd55dfc	0.10418317
21	0xbc0d7527	-0.008633888
22	0xbca6fe53	-0.020384943
23	0x3c8f53e5	0.017496059
24	0xbdec6f47	-0.11544662
25	0x3e15ac75	0.14616568
26	0x3d1d415c	0.03839241
27	0x3da6d270	0.081456065
28	0xbe222bb7	-0.15836988
29	0x3e018c89	0.12651266
30	0xbd92afb7	-0.07162421
31	0xbd847ecc	-0.06469497
32	0xbde4063d	-0.11134002
33	0x3dce0a8a	0.10060604
34	0x3d18153f	0.037129637
35	0xbe0dfbfe	-0.13865659
36	0xbd6c1409	-0.057636295
37	0xbb297b77	-0.0025860944
38	0x3c995bad	0.018720472
39	0x3e1cc0b3	0.15307884
40	0x3e13d12b	0.1443526
41	0x3e1cd9b7	0.15317427
42	0x3de2fb71	0.11083115
43	0xbd636cdd	-0.055523742
44	0x3e08a4de	0.13344142
45	0x3db1edd6	0.08687942
46	0xbdac8b91	-0.08425058
47	0x3de5c1f9	0.11218638
48	0x3d9ee970	0.077593684
49	0xbdcf3911	-0.101183064
50	0xbded1d4b	-0.11577853
51	0x3b7eefc0	0.0038900226
52	0x3c223e08	0.009902485
53	0xbd9cbd33	-0.076532744
54	0x3cfd56c2	0.030925158
55	0x3de189aa	0.110125855
56	0xbe1bd642	-0.15218452
57	0x3dc755a5	0.09733132
58	0x3dd6baa4	0.104848176
59	0x3e0ce357	0.13758598
60	0x3d833ccc	0.064080805
61	0x3bfd4030	0.007728599
62	0x3ddf68db	0.109086715
63	0xbdd42579	-0.1035871

weight f4 [64, 64]
0	0xbd298f3d	-0.04139637
1	0xbdc8ac8d	-0.097985364
2	0x3e39ed78	0.18156993
3	0x3dc58579	0.096445985
4	0xbcb0de2e	-0.021590319
5	0xbd7b0cf2	-0.061291642
6	0xbe2c0dba	-0.16802111
7	0x3b5360f8	0.0032253843
8	0x3dd96026	0.10614042
9	0xbc918de3	-0.017767852
10	0xbd83cae4	-0.06435183
11	0x3ebb137c	0.36538303
12	0x3d518b7a	0.051158406
13	0xbcc2c6fb	-0.023776522
14	0xbe1d9ff7	-0.15393053
15	0x3e065e6d	0.13121958
16	0x3d2815ea	0.041036524
17	0xbe04261a	-0.1290516
18	0x3e072eb7	0.13201414
19	0xbdb95408	-0.09049231
20	0xbe3f8cae	-0.18706009
21	0x3e1ddd82	0.1541653
22	0x3cddd498	0.027078912
23	0x3e1a4e53	0.15068941
24	0xbcae627b	-0.021287194
25	0x3d9c617f	0.076357834
26	0xbdfbcc9e	-0.12294887
27	0x3e0d6040	0.13806248
28	0xbc697788	-0.01424969
29	0x3db4c346	0.08826308
30	0x3c4b9a3e	0.012426911
31	0xbdb823bd	-0.089911915
32	0xbd9070d9	-0.07052774
33	0xbba0e497	-0.0049100625
34	0x3bf5185f	0.007479712
35	0x3e23bc83	0.1598988
36	0x3e41deb2	0.18932608
37	0x3d3976f7	0.04527947
38	0x3d628dd6	0.055311047
39	0x3ed14af8	0.4087751
40	0xbddce789	-0.10786349
41	0x3dab39c5	0.08360628
42	0x3e8799fa	0.26484662
43	0x3d667915	0.056267817
44	0xbc8b589a	-0.017010022
45	0x3e1a65ad	0.15077849
46	0x3db35deb	0.08758148
47	0xbe86dd34	-0.2634064
48	0xbd4aa819	-0.049476717
49	0xbe22fce6	-0.15916786
50	0xbdff8b27	-0.12477713
51	0xbb630341	-0.003463939
52	0xbe7f9802	-0.2496033
53	0xbd2ea0c5	-0.04263379
54	0xbdc90e3a	-0.098171666
55	0xbd2fdde4	-0.04293622
56	0x3ec91985	0.39277282
57	0xbe164c7c	-0.14677614
58	0x3dba5024	0.09097317
59	0x3af53eb1	0.00187107
60	0x3d1f983c	0.03896354
61	0xbe2712a0	-0.16315699
62	0xbd29a2d6	-0.041415058
63	0x3d71293a	0.058877207
64	0x3e4bfb0d	0.19919987
65	0xbd927823	-0.071518205
66	0x3ebd5216	0.3697669
67	0x3d0e8bef	0.03480142
68	0xba2d097c	-0.00066008396
69	0x3d1021b1	0.03518838
70	0xbe35576b	-0.17709129
71	0xbddf72c2	-0.1091056
72	0xbd58db93	-0.052943777
73	0xbe03d6d3	-0.12874918
74	0xbcb610e4	-0.022224851
75	0x3e995d38	0.29953933
76	0x3df69381	0.12039853
77	0xbd82a6f9	-0.06379504
78	0xbe8612bb	-0.26186165
79	0x3da081d9	0.078372665
80	0xbca458bd	-0.020061845
81	0xbd8d2a6f	-0.06892859
82	0xbda22ce9	-0.07918722
83	0xbded9f2a	-0.11602624
84	0xbe904f5a	-0.2818554
85	0x3df908d0	0.12159884
86	0x3d177b54	0.03698285
87	0xbd15fbb2	-0.03661699
88	0xbd74e8c4	-0.059792295
89	0x3d83a092	0.06427111
90	0xbd9a5fdb	-0.07537814
91	0x3e22448d	0.15846463
92	0xbbacd56d	-0.005274466
93	0x3e096fb8	0.13421524
94	0x3d1648eb	0.036690634
95	0xbe46eebf	-0.19427012
96	0x3e75d8f4	0.24008542
97	0xbbe21e7c	-0.0069006067
98	0xbe868da4	-0.26279938
99	0xbdd20c4b	-0.10256251
100	0x3d9d404a	0.07678278
101	0xbcba6904	-0.022755153
102	0xbb6f0cc0	-0.0036476105
103	0x3f2cc04b	0.67480916
104	0x3d03a328	0.03213802
105	0xbde6da34	-0.11272088
106	0x3db7a730	0.08967435
107	0xbe12c206	-0.14331827
108	0xbe77bd37	-0.24193273
109	0x3edc7513	0.4305807
110	0xbd02b952	-0.031915016
111	0xbe4d137b	-0.20026962
112	0x3c3eb6f9	0.011640304
113	0xbd0dc69c	-0.034613237
114	0x3d61cc5d	0.055126537
115	0x3d4b9dc4	0.049711004
116	0xbd8504cf	-0.06495058
117	0x3ddf8d50	0.10915625
118	0xbe8c2cec	-0.27378023
119	0xbb0825bd	-0.0020774447
120	0x3e9e8a10	0.30964708
121	0xbe3f1a1e	-0.18662307
122	0x3c497a77	0.012297264
123	0xbe0293a5	-0.12751634
124	0x3d97636d	0.07392011
125	0x3daf570a	0.08561523
126	0xbd1ef379	-0.038806412
127	0xbd6b49d1	-0.057443444
128	0x3deab826	0.11460905
129	0x3d880c2e	0.06642948
130	0x3e0f3f6b	0.13989036
131	0x3d81151c	0.063028544
132	0x3d25bd39	0.04046366
133	0x3d106dec	0.03526108
134	0xbd6ac1d8	-0.05731377
135	0xbe6280ae	-0.221194
136	0x3e4bacbf	0.19890116
137	0x3dab2d1e	0.08358215
138	0x3d4af60d	0.04955106
139	0xbb0ca49d	-0.0021460422
140	0x3d920519	0.071298786
141	0xbd0f1b42	-0.034938104
142	0xbaed84ff	-0.0018121301
143	0x3dd7928d	0.10525999
144	0xbda6bc0c	-0.08141336
145	0x3ccde1f8	0.025132164
146	0xbdeb4d3f	-0.11489343
147	0x3dc98352	0.098395005
148	0x3defc12d	0.11706767
149	0x3e49a130	0.19690394
150	0xbe7ab24e	-0.2448208
151	0x3e3eb672	0.18624285
152	0x3d192902	0.037392624
153	0xbdfe5507	-0.124185614
154	0x3d5031a4	0.05082859
155	0x3bbacc90	0.0057006553
156	0xbde611d2	-0.11233868
157	0xbdb60e69	-0.08889467
158	0x3c741825	0.014898335
159	0xbdd39fe1	-0.10333229
160	0x3d2a720b	0.041612666
161	0xbc20fbda	-0.009825671
162	0x3e49374d	0.19650002
163	0x3e846d51	0.25864652
164	0x3dbe86a6	0.09303026
165	0xbd5e11f2	-0.054216333
166	0xbe3b69c8	-0.18302071
167	0x3c91a17c	0.017777197
168	0x3cc4bf39	0.024016963
169	0xbddbaf39	-0.107267804
170	0x3eb382bb	0.35060677
171	0x3dbf8309	0.09351165
172	0x3e05f33e	0.13081071
173	0xbe4350eb	-0.19073837
174	0xbbbeb7a9	-0.005820234
175	0xbe25e301	-0.16199876
176	0xbdc1782c	-0.09446749
177	0xbeaef608	-0.34172082
178	0x3d8ece16	0.069729015
179	0xbe87dc54	-0.26535285
180	0xbd901344	-0.070349246
181	0x3e0146a6	0.12624606
182	0x3e005b12	0.1253474
183	0xbe2e6b71	-0.17033173
184	0x3ce9a2c3	0.028519994
185	0xbcc7c566	-0.02438612
186	0x3baec90c	0.0053340252
187	0x3d26dda0	0.0407387
188	0x3cd352d5	0.025796333
189	0xbdf560b6	-0.11981337
190	0xbe174295	-0.14771493
191	0x3de36471	0.11103142
192	0x3d4244bf	0.047428843
193	0x3c3899ca	0.011267135
194	0xbec2581b	-0.37957844
195	0x3d641eed	0.055693556
196	0x3d5ee2ba	0.054415442
197	0x3da4b305	0.08041958
198	0x3e9cdb28	0.30635953
199	0x3e7bd9b3	0.24594764
200	0x3ccab224	0.024743147
201	0xbd9c4d3f	-0.07631921
202	0x3ddf3cdc	0.1090028
203	0xbe808dff	-0.25108334
204	0x3deabc5e	0.114617094
205	0x3cd90d93	0.02649573
206	0x3e9b2351	0.30300382
207	0xbde65300	-0.112463
208	0x39410118	0.00018406322
209	0x3e894947	0.2681372
210	0x3e35a6b7	0.17739378
211	0x3e0916f6	0.13387665
212	0x3d4c290d	0.049843837
213	0xbd8549de	-0.0650823
214	0x3cbe8951	0.023258837
215	0xbbfb9fd9	-0.0076789674
216	0x3cebfb00	0.02880621
217	0x3dbe741b	0.09299489
218	0x3d91b77f	0.07115077
219	0xbde8640d	-0.11347208
220	0x3d206ff5	0.03916927
221	0xbd91af9d	-0.07113574
222	0x3d6b5930	0.057458103
223	0x3e6e10fa	0.23248664
224	0xbd145850	-0.036217034
225	0x3e4a5e60	0.19762564
226	0x3d035c76	0.0320706
227	0x3cd9ffed	0.026611293
228	0xbd91d00a	-0.071197584
229	0x3d2ea76a	0.042640127
230	0x3a9a1bff	0.0011757611
231	0xbee3e9e5	-0.44514385
232	0x3e1cce22	0.15313008
233	0x3e0dcd5e	0.13847873
234	0xbdd427d5	-0.1035916
235	0xbd4c7919	-0.049920175
236	0x3e72113f	0.23639391
237	0xbe907b49	-0.2821906
238	0x3de6f4e6	0.112771794
239	0x3e3ff53f	0.18745898
240	0xbdc40509	-0.09571273
241	0x3e255e82	0.16149333
242	0xba85c108	-0.0010204623
243	0x3e0ea537	0.13930212
244	0x3eb67f35	0.35643926
245	0xbcec5c92	-0.028852735
246	0x3d87f780	0.06639004
247	0x3c62e2e5	0.013848041
248	0xbeb5d555	-0.35514322
249	0x3e04fbcd	0.1298668
250	0x3dfca9e6	0.12337093
251	0xbe1b56ef	-0.15169881
252	0xbd81aee4	-0.06332186
253	0xbe08dbd9	-0.13365115
254	0xbdf10646	-0.11768775
255	0x3dae45d2	0.08509411

bias f4 [64]
0	0x3dc41751	0.0957476
1	0xbcfac217	-0.030610127
2	0xbd645667	-0.055746462
3	0x3dae7f9b	0.085204326
4	0xbd81b128	-0.06332618
5	0x3db46600	0.088085175
6	0x3c23ac6f	0.009989842
7	0x3d8ffd38	0.070307195
8	0xbd2ef957	-0.042718258
9	0xbcd53814	-0.026027717
10	0xbc5b7803	-0.013395312
11	0xbd4b066c	-0.04956667
12	0xbdcaf28e	-0.09909545
13	0xbd493b0f	-0.04912859
14	0x3db196c0	0.086713314
15	0x3be1ec46	0.006894621
16	0x3d70115e	0.058610313
17	0xbdb805a8	-0.08985454
18	0xbcb51cbc	-0.022108428
19	0xbdc5b1f3	-0.09653082
20	0xbd34e6e9	-0.044165526
21	0xbdbc26cf	-0.0918709
22	0x3ca93ab3	0.020657873
23	0x3c95d748	0.01829113
24	0xbd70dfa6	-0.058807038
25	0x3d55ddad	0.05221336
26	0xbe0554b8	-0.13020599
27	0x3d3a277d	0.045447815
28	0x3d55ea5d	0.05222546
29	0xbd0b090f	-0.033944186
30	0xbc6c2b2b	-0.014414589
31	0x3db23140	0.087008
32	0x3d38e4e9	0.04514018
33	0x3d4fc9f2	0.0507297
34	0x3c3f4ab4	0.011675525
35	0xbd3c0b91	-0.045909468
36	0xbcde41df	-0.02713102
37	0xbb3dc301	-0.0028955343
38	0x3dad53db	0.0846326
39	0x3d9be531	0.07612074
40	0x3d35d4af	0.044392284
41	0xbde7ce20	-0.11318612
42	0xbded0bc4	-0.1157451
43	0x3cc28c77	0.02374862
44	0x3e00fc46	0.12596235
45	0x3dccda92	0.100026265
46	0xbd36b128	-0.044602543
47	0xbdcf61fc	-0.10126111
48	0xbcb40e2b	-0.021979412
49	0x3da6c56d	0.08143125
50	0x3d88a7a4	0.066726
51	0xbda41553	-0.0801188
52	0xbd9a5567	-0.075358205
53	0xbcb18c03	-0.021673208
54	0x3a3c3469	0.00071794406
55	0x3dd2d4c8	0.10294491
56	0xbc8b20f8	-0.016983494
57	0x3d23fcb2	0.04003591
58	0x3d97c561	0.07410694
59	0xbd1a1620	-0.037618756
60	0x3df1d09c	0.11807367
61	0xbdc6ddd6	-0.097102806
62	0x3d03704a	0.03208951
63	0x3cef70b0	0.029228538

weight f4 [4, 64]
0	0x3e22d6e9	0.15902294
1	0x3f22a1b9	0.6352802
2	0xbe152916	-0.14566454
3	0xbf081202	-0.5315248
4	0xbe95972f	-0.29216906
5	0x3e759e56	0.23986182
6	0x3ecf22c4	0.40456212
7	0xbcdaa912	-0.026691947
8	0xbdfb3414	-0.122657925
9	0x3d249e37	0.040189948
10	0xbe03a820	-0.12857103
11	0x3e1dbef6	0.15404877
12	0x3e43bac9	0.19114222
13	0x3ea12f4d	0.314814
14	0xbee22343	-0.44167528
15	0x3dbdcc28	0.09267455
16	0x3e47446d	0.19459696
17	0xbe6293d1	-0.221267
18	0x3e874dec	0.26426637
19	0x3c1ae598	0.0094541535
20	0x3e81c334	0.2534424
21	0xbeec0f4f	-0.4610543
22	0xbe50cf49	-0.20391573
23	0xbe959d9c	-0.2922181
24	0x3e00d4d8	0.12581193
25	0x3e24b53e	0.16084763
26	0x3e8406dd	0.25786486
27	0xbf1bbf17	-0.60838455
28	0x3ebfaade	0.3743505
29	0x3b6e453b	0.0036357183
30	0xbd18f06f	-0.03733867
31	0xbeb2b41e	-0.34903044
32	0xbece16df	-0.40251824
33	0xbf04c09a	-0.51856387
34	0xbe72e86c	-0.23721474
35	0xbe8b8a28	-0.27253842
36	0xbed4f2f3	-0.41591606
37	0x3e57cabc	0.21073431
38	0xbee2ed4f	-0.44321677
39	0x3e563f88	0.20922673
40	0xbed7347f	-0.4203224
41	0x3ecf28a7	0.40460703
42	0xbf0ac0cd	-0.5420044
43	0xbeb06a3f	-0.3445606
44	0x3eb17152	0.3465677
45	0x3e3be687	0.18349658
46	0x3dbaadcb	0.0911518
47	0xbeb25192	-0.34827858
48	0x3efb64fb	0.4910048
49	0xbe4a0490	-0.19728303
50	0xbb9bf297	-0.0047591436
51	0xbe0a24ad	-0.13490553
52	0x3ee915a6	0.4552433
53	0x3dc65d4d	0.096857645
54	0xbc57b250	-0.013165072
55	0x3db1da68	0.08684236
56	0xbe721755	-0.23641713
57	0xbe23cd53	-0.15996294
58	0xbde4cb67	-0.111716084
59	0x3cc52b86	0.024068605
60	0x3beeeca4	0.0072913934
61	0xbdf01064	-0.11721876
62	0x3eb91042	0.36145216
63	0xbe0b244c	-0.13588065
64	0x3e127d7e	0.14305684
65	0x3e5e1846	0.21688947
66	0x3e8803db	0.2656544
67	0xbe2e47fc	-0.17019647
68	0xbd85d979	-0.0653562
69	0xbcffcf3b	-0.031226745
70	0xbc2809a6	-0.010256207
71	0x3e840b1c	0.25789726
72	0xbe583f2d	-0.2111785
73	0xbdb54c8c	-0.08852491
74	0xbef042e6	-0.4692604
75	0xbd41ec65	-0.047344584
76	0xbdf1f901	-0.11815072
77	0x3e6680cc	0.2251007
78	0xbedea381	-0.4348412
79	0xbe7a6529	-0.24452652
80	0xbe327be8	-0.17430079
81	0xbd22d24c	-0.039751336
82	0xbd953fb1	-0.07287539
83	0x3e345285	0.17609604
84	0x3e03f1a0	0.12885141
85	0xbe95adc0	-0.29234123
86	0x3e695c4d	0.22789116
87	0xbe4c58d6	-0.19955763
88	0x3da2dafd	0.07951925
89	0xbd9f79a7	-0.07786875
90	0xbe979499	-0.2960556
91	0xbe729005	-0.23687752
92	0xbd16915f	-0.03675973
93	0x3e664fc9	0.22491373
94	0x3dd2b1ab	0.10287794
95	0x3e2945e7	0.16530572
96	0xbc869cdd	-0.01643222
97	0x3e1d770d	0.15377446
98	0xbdffde9c	-0.12493631
99	0xbe5c7892	-0.21530369
100	0x3e50d684	0.20394331
101	0xbe0b22bc	-0.13587469
102	0x3ea2c379	0.3178976
103	0x3d8c6c87	0.068566374
104	0xbdb8479d	-0.08998034
105	0xbe91f345	-0.28505912
106	0xbe97eeb1	-0.29674295
107	0xbe37741a	-0.17915383
108	0x3eb6b284	0.35683072
109	0x3e04120f	0.12897514
110	0xbdc1177d	-0.09428308
111	0xbeb97f8b	-0.3623012
112	0x3d85e4a6	0.06537752
113	0xbe6bce0f	-0.23027824
114	0xbe49466a	-0.19655767
115	0x3e794f43	0.24346642
116	0x3e6dfe07	0.23241435
117	0xbd2f3200	-0.042772293
118	0xbd77da67	-0.06051102
119	0x3ebc0b74	0.36727488
120	0x3d3c528b	0.045977157
121	0xbe774a61	-0.24149467
122	0x3e1d4a42	0.15360358
123	0xbe8d5863	-0.27606496
124	0xbe70223d	-0.23450561
125	0xbe52ec63	-0.20597987
126	0x3edc9c0a	0.43087798
127	0x3d490206	0.049074195
128	0xbd89fd66	-0.06737785
129	0xbe99a2db	-0.3000706
130	0x3e3cbc5a	0.18431225
131	0xbe80d949	-0.25165775
132	0x3edde460	0.433383
133	0x3d0968fd	0.03354739
134	0x3d97c6f7	0.074109964
135	0xbec71d6a	-0.3888963
136	0x3ee771a0	0.45203876
137	0x3ae99d9b	0.0017823459
138	0xbc4d4bd2	-0.012530284
139	0x3ebc8f88	0.36828256
140	0xbf109188	-0.56472063
141	0xbe1ea3ac	-0.15492123
142	0x3de090b9	0.10965104
143	0xbb27f36c	-0.0025627268
144	0xbe8efde1	-0.2792807
145	0xbdbda587	-0.092600875
146	0xbe690c0d	-0.22758503
147	0x3db2a7f0	0.08723438
148	0xbca3ac3e	-0.019979592
149	0x3e2e1c0f	0.17002891
150	0x3e50d9e2	0.20395616
151	0xbca68d6b	-0.020331105
152	0xbe55662d	-0.20839758
153	0x3e0a47f8	0.13504016
154	0xbdd30be7	-0.103050046
155	0xbe80f418	-0.2518623
156	0x3d1ebac4	0.038752332
157	0xbe15397e	-0.14572713
158	0x3e9bcdc3	0.3043042
159	0xbd88220b	-0.06647118
160	0x3bb8a405	0.005634787
161	0x3e3b6553	0.18300371
162	0xbebe9233	-0.37220916
163	0x3e2be431	0.16786267
164	0x3e4eed74	0.20207769
165	0xba946f13	-0.0011324607
166	0x3e2fcc2c	0.17167729
167	0x3dc57888	0.0964213
168	0xbd38e765	-0.04514255
169	0xbe6c3628	-0.23067534
170	0x3c4b11cb	0.012394379
171	0x3db4914f	0.08816778
172	0x3e135e19	0.14391364
173	0x3e2e1ada	0.1700243
174	0xbe322819	-0.17398109
175	0x3ebe319f	0.37147233
176	0x3ac0598c	0.0014675125
177	0xbdc25ab0	-0.094899535
178	0x3e4ad6fb	0.19808571
179	0x3e27c065	0.16381986
180	0xbda8d134	-0.08243027
181	0x3ca7800e	0.020446803
182	0xbe9f35ad	-0.3109564
183	0x3eadd2a9	0.33949783
184	0xbd620bfc	-0.05518721
185	0x3eaf9d6b	0.34299788
186	0xbd287da5	-0.04113545
187	0x3e18e6d0	0.14931798
188	0xbdbe83e7	-0.09302502
189	0x3ec2e42b	0.38064703
190	0x3dc49784	0.09599212
191	0x3e4a60b0	0.19763446
192	0x3eb2ecc3	0.3494626
193	0x3dabf063	0.083954595
194	0x3e2a8a84	0.16654402
195	0xbe904b67	-0.28182527
196	0xbe9754ff	-0.29557034
197	0xbdbc4ec3	-0.0919471
198	0x3e9514e6	0.29117507
199	0x3d9cead3	0.07661977
200	0xbeb88d2d	-0.3604521
201	0xbeb27f32	-0.34862667
202	0x3e942288	0.28932595
203	0xbe1c82d7	-0.15284286
204	0x3c8df050	0.017326504
205	0xbd319fd8	-0.04336533
206	0x3e3543e2	0.17701676
207	0x3e9e3313	0.30898342
208	0xbe3c19f2	-0.18369272
209	0x3d8d507c	0.06900117
210	0xbe671447	-0.22566329
211	0x3de86b41	0.11348582
212	0x3e583a10	0.21115899
213	0x3b87a666	0.0041397093
214	0x3cdc1a87	0.026868118
215	0xbe1c1af2	-0.15244654
216	0xbe436875	-0.19082816
217	0x3dd5e9a8	0.10444957
218	0x3e2ddf9b	0.1697983
219	0x3d5147c2	0.051093824
220	0x3d5aeee6	0.053450488
221	0x3cae1c7a	0.021253813
222	0xbe90c28b	-0.28273425
223	0xbe290061	-0.16504051
224	0x3c9c62be	0.019090053
225	0xbcdcc95a	-0.02695148
226	0xbe9b9809	-0.3038943
227	0xbeb77e87	-0.3583872
228	0xbebf2f2a	-0.3734067
229	0x3dc5aac9	0.09651715
230	0x3e116684	0.14199263
231	0xbe27a478	-0.16371334
232	0x3d6efba4	0.058345452
233	0x3dba5d58	0.09099835
234	0xbe53121c	-0.20612377
235	0x3d888c0d	0.066673376
236	0xbc30d24c	-0.010792326
237	0x3e49ffdd	0.1972651
238	0xbe4a1afc	-0.19736856
239	0xbd95de80	-0.07317829
240	0x3eb527da	0.35381967
241	0x3e40c837	0.18826376
242	0x3c560b49	0.013064214
243	0xbe18b335	-0.14912112
244	0x3e23a418	0.15980566
245	0x3eef340c	0.46719396
246	0xbe5009da	-0.20316258
247	0xbdfa3b63	-0.12218358
248	0x3def9635	0.116985716
249	0x3db948c6	0.090470836
250	0x3e0eb254	0.13935214
251	0xbe275a1a	-0.16342965
252	0x3cd59fd1	0.026077183
253	0x3db3ce6b	0.087796055
254	0xbe3af852	-0.18258789
255	0x3d92450a	0.071420744

bias f4 [4]
0	0xbd706f49	-0.05869988
1	0x3de1c3e1	0.11023689
2	0xbd6e8b59	-0.05823836
3	0x3cafe361	0.021470727
